models/test/best_model.pth (torch, 417455 bytes, 47 tensors)

conv1.weight f4 [32, 3, 5, 5]
00000000: ad19 9c3d 9257 163d e7a0 4f3d a417 b73a
00000010: b162 81bd 7c6f 643d 1874 bc3b df91 1e3d
00000020: ff50 afbc c89a 8ebd 9676 cebb 59ab 2abd
00000030: 299b 393d 669a a33c 2173 d8bb 29f0 2cbd
00000040: e8ce f0bc 624d edbd 092d 31bd 0ae7 bfbc
00000050: 0f53 343c 3ddc 9dbd f959 9bbc f9a0 e7bc
00000060: 5db1 2fbd 7e52 d6bc 0170 bbbd 420e 2f3c
00000070: 045f 33bd ebfe eb3b 2ce6 c1ba 44df 9e3d
00000080: 1139 19bd f1e1 1b3b bd15 003c 515f cd3d
00000090: d3f6 a83c 2195 10bd 05af 84bc bdbe 79bd
000000a0: e1fd 0bbd 3bcf 69bd e2b8 753c 1520 a6bd
000000b0: d60c 343d 39a4 fbbd 3afd 5abd 6d05 1d3d
000000c0: b5e5 a4bd cab0 663d d80c 62bd 83f7 13bd
000000d0: eb42 adbd 64c7 553d 5196 553d 84aa 2b3d
000000e0: 1deb 153c 6f02 613d b997 873d 77b6 a73b
000000f0: cfe6 c83c 54b1 3a3c f128 873b f40c d8bc
00000100: 55de 633d d4ef 34bd bf78 df3b da11 f03c
00000110: 122d f2bc 46eb fcbc 7044 38bd c071 5a3d
00000120: 4a8f 3bbc 43c5 953c b435 3abd e15a 8c3d
00000130: 128b e2bc 2647 42bc d4aa f03c 5ac2 583d
00000140: cb23 c6bb 3d43 a2bc 39d9 af3c 6e54 1a3d
00000150: edbe 10bd 665e 923d 8b2b e73c 7c71 493d
00000160: 1c74 0bbb 9020 ad3b 2228 d33c 2c86 ba3c
00000170: e986 80bb d7ae 0a3d c7f2 8d3d 252e 8f3c
00000180: e3f0 743d 9fdb faba 3070 bfba 0c05 683d
00000190: df21 6abd 797f 123c eb61 5dbb 1ffd 7f3d
000001a0: 725f 9bbd e02b abbd 5563 59bc 2dbf f43a
000001b0: 1561 58bd 218d ed3c bcef 0d3d 6ef0 803d
000001c0: 2765 a5bc 7066 46bd 5b6f 1ebd 43b1 493c
000001d0: 8ce4 bcbd 325c d7bc e917 95bd 395e 05bd
000001e0: 2c9a a1bd 17f0 9f3c c113 e5bc 54a7 e33c
000001f0: cf63 a23d 9e19 4ebb 6f74 5abc f383 763d
00000200: b9c4 f7bc 9a5b e5bc c912 24bd 0f91 a7bd
00000210: 48b3 e9bc 600d 04bd dc9b 093b 22bf b6bd
00000220: c019 3ebc 2033 0dbd 2f54 f33b de8c 0c3d
00000230: 3fc0 903c 7429 843b 9d06 5ebd 2407 fabc
00000240: dbf9 ae3c 9d0e fcbc 0418 603d bb21 513d
00000250: 161f 0d3d 9022 103d f121 afbc 5810 cbbb
00000260: 4a7e 16bd e001 61bc de17 74bd fdfc 8abd
00000270: 0c2f eb3c 541b 4b3a 24b8 16bc 0a11 a03d
00000280: 7074 42bd 2d47 1a3d 41e9 f53c 7182 83bd
00000290: 9e32 bbbd f161 35bd dfa8 adbc 8f61 98bd
000002a0: 8856 843d bfda 173c a034 81bd 3161 073d
000002b0: a960 41bc 4fe5 e03c 8aba b3bd 13de 853d
000002c0: a8e3 a93d 2d21 d3bd 631e 753c 33f6 093e
000002d0: 12f6 acbd 7f88 983d 9881 b3bd 5d08 193e
000002e0: 3d5a 8d3d 0be8 d3bd 8056 11bd c6fd 91bc
000002f0: 1a16 353c 7b83 b2bc 3e5e adbb 52a5 11bd
00000300: 40cf af3d e325 c8bc 15ec 5a3d 0310 05bd
00000310: f13f b8bb 5c15 5dbd ef52 da3b 14f9 b43d
00000320: 1c67 9d3d ccd6 6b3c 4ccb 90bb 4eb7 8c3c
00000330: 56c4 8e3d 4608 69bd b850 74bd a988 8cbc
00000340: d2d4 81bd 5b72 0f3d e1d5 02bc a9ec 373c
00000350: f9a9 973b 4400 413a d2aa 2bbc 01df dd3b
00000360: c997 a4bc dae4 043d 23b9 1fbc f0eb 83bc
00000370: 0294 3fbd a006 9a3c affc 063d c281 b43c
00000380: a156 613d 7923 11bd b81b 723c 535f b3bd
00000390: dcfa 93bd 78d8 6abc e80f 82bd ffd9 0f3d
000003a0: eda1 733d cfcd 17be db00 13bd f10d febc
000003b0: 8b1b 9ebd 8378 9cba b8a9 8bbc b079 653d
000003c0: 424c 1b3e 354e 8c3c ce86 393c f21b 4b3c
000003d0: d71a a23d fd41 b0bc a7ba 0c3d 74c7 98bb
000003e0: 1ec3 01bb 479f f83d 8d8b 8dbc 8e49 25bc
000003f0: 8bbd 8f3c f9e7 bbbd 3ea6 b43d c2ff dbbc
0.07622085 0.036704607 0.050690558 0.0013968837 -0.06317652 0.055770382 0.005751144 0.038713332
-0.021400927 -0.06963116 -0.0063007576 -0.041667316 0.045313988 0.019971084 -0.0066055213 -0.042221222
-0.029395536 -0.11587025 -0.04325584 -0.023425598 0.011006131 -0.07708023 -0.0189638 -0.028275
-0.042893756 -0.026162382 -0.091522224 0.010684552 -0.043791786 0.0072020194 -0.0014793328 0.07757428
-0.03740794 0.0023785795 0.007817683 0.10027946 0.020625507 -0.03529847 -0.016196737 -0.060972918
-0.034177665 -0.057082396 0.014997693 -0.08111588 0.043957554 -0.12287182 -0.053464152 0.038335253
-0.08051626 0.056320943 -0.05518803 -0.036124717 -0.08460029 0.052192107 0.052145306 0.041910663
0.009150294 0.05493396 0.06620736 0.005118187 0.02452412 0.011394817 0.0041247536 -0.026373364
0.055631954 -0.04417403 0.006819814 0.029305387 -0.029562507 -0.030873906 -0.044987142 0.053331137
-0.011447737 0.018282538 -0.04546137 0.06853271 -0.027654205 -0.011857783 0.029378332 0.052919723
-0.0060467473 -0.019807452 0.021465885 0.037678175 -0.03533833 0.07146911 0.028219005 0.049180493
-0.0021278923 0.005283423 0.025775973 0.022769056 -0.0039223325 0.033858147 0.06931072 0.017478058
0.05980004 -0.0019138939 -0.0014605578 0.056645438 -0.05716121 0.008941525 -0.0033780287 0.062497254
-0.07586564 -0.08357978 -0.0132683115 0.0018672697 -0.05282696 0.02899796 0.034652457 0.06295858
-0.020189835 -0.048437536 -0.038680416 0.012310329 -0.09223279 -0.02628908 -0.07279951 -0.03256056
-0.07890734 0.019523663 -0.027963521 0.02778975 0.07929193 -0.0031448375 -0.013333424 0.06018443
-0.030245172 -0.02799778 -0.040056977 -0.081819646 -0.02852787 -0.032239318 0.002099744 -0.089231744
-0.011602819 -0.034472585 0.007425807 0.03431403 0.017669795 0.004033262 -0.054205526 -0.030520983
0.021359375 -0.030768687 0.054710403 0.05105756 0.034453474 0.03518921 -0.02137849 -0.0061970167
-0.036741532 -0.013733357 -0.059593074 -0.06786535 0.028708957 0.00077479077 -0.009199176 0.0781575
-0.047474325 0.037665535 0.03001845 -0.06421364 -0.09140514 -0.044282857 -0.021198688 -0.07440483
0.06461817 0.009268462 -0.063088655 0.033051673 -0.011802831 0.027453093 -0.08775814 0.06536498
0.08295375 -0.10309062 0.014960858 0.13472824 -0.08445372 0.074479096 -0.087649524 0.14944597
0.06901977 -0.10346993 -0.035482883 -0.017821204 0.011052633 -0.02179121 -0.0052907756 -0.035558052
0.08584452 -0.024432128 0.0534478 -0.032485973 -0.005622857 -0.053975448 0.0066627185 0.088365704
0.07685682 0.014394473 -0.004418766 0.01717725 0.06971042 -0.056892656 -0.059647292 -0.017155008
-0.063394204 0.035021167 -0.007985563 0.011225858 0.0046284166 0.00073624053 -0.010477738 0.006770969
-0.020091908 0.032444812 -0.00974873 -0.016103715 -0.04677201 0.018801987 0.03295582 0.02203453
0.055014256 -0.03543422 0.0147771165 -0.08758416 -0.07225582 -0.014333837 -0.0635069 0.035120007
0.059480596 -0.14824603 -0.035889488 -0.031012507 -0.07720097 -0.0011937771 -0.017048702 0.056024253
0.15165809 0.017127136 0.011323644 0.012396799 0.079152755 -0.02151584 0.034357693 -0.0046624485
-0.0019800137 0.12139755 -0.017278457 -0.010088338 0.017546436 -0.09175105 0.08820771 -0.026855353

bn1.weight f4 [32]
00000000: feff 7f3f 0300 803f 0300 803f fcff 7f3f
00000010: 0300 803f feff 7f3f f9ff 7f3f 0000 803f
00000020: fbff 7f3f 0000 803f 0300 803f 0100 803f
00000030: ffff 7f3f faff 7f3f 0200 803f 0300 803f
00000040: 0300 803f 0400 803f 0000 803f faff 7f3f
00000050: 0100 803f 0000 803f feff 7f3f 0000 803f
00000060: fbff 7f3f fbff 7f3f 0000 803f 0000 803f
00000070: 0300 803f 0100 803f feff 7f3f f7ff 7f3f
0.9999999 1.0000004 1.0000004 0.99999976 1.0000004 0.9999999 0.9999996 1.0
0.9999997 1.0 1.0000004 1.0000001 0.99999994 0.99999964 1.0000002 1.0000004
1.0000004 1.0000005 1.0 0.99999964 1.0000001 1.0 0.9999999 1.0
0.9999997 0.9999997 1.0 1.0 1.0000004 1.0000001 0.9999999 0.99999946

bn1.bias f4 [32]
00000000: a826 6db2 1d60 8533 f5bc 3734 a949 d0b3
00000010: d3f4 dd34 3020 82b4 a2b0 39b4 11ff 9bb3
00000020: 2e58 91b4 b8dd b2b3 ef8b 0035 278d 5533
00000030: 2fa7 0bb4 1e25 9db4 000e 4bb4 4dae 4c34
00000040: 7955 2a34 cec8 da34 5535 9134 63ee 94b4
00000050: 2ee4 0834 6d67 1fb4 a7b3 ed33 8689 d132
00000060: b798 74b3 4afb a631 ef77 0c33 bbe4 4933
00000070: e1dd 6e34 7758 49b4 8d32 5434 e7bb 83b4
-1.3804005e-08 6.210778e-08 1.7111945e-07 -9.6991535e-08 4.134259e-07 -2.4237806e-07 -1.7293726e-07 -7.264146e-08
-2.7072514e-07 -8.329101e-08 4.7887346e-07 4.9721304e-08 -1.3006205e-07 -2.9270535e-07 -1.8910941e-07 1.9062391e-07
1.5863579e-07 4.075177e-07 2.704716e-07 -2.7740597e-07 1.2748998e-07 -1.4845655e-07 1.1068851e-07 2.439334e-08
-5.694957e-08 4.859804e-09 3.270537e-08 4.700699e-08 2.2246196e-07 -1.8751767e-07 1.9762429e-07 -2.4537368e-07

bn1.running_mean f4 [32]
00000000: 074c ab3c 3abd f03a 4f04 203b 20f8 a93a
00000010: 2521 04bd 7047 163b 4293 4cbb 4760 dd3b
00000020: 4041 dbbc e855 bd3b 44e7 82bb 00fc ee3a
00000030: fcba 92ba 90ee 733c 42d4 b43a 2d7a 903c
00000040: 78f6 1b3a ead0 4e3c af73 11bc ef56 51bb
00000050: a455 19bc bcd7 8fbc 8f59 1dbc d38d d43b
00000060: 359e 913b 87af dc39 afcf 063c e731 a5bc
00000070: 5fae 813b 4876 443b 3434 853a c16a 87bc
0.020910276 0.0018366941 0.002441663 0.0012967624 -0.03225817 0.0022930764 -0.0031215702 0.006755862
-0.026764512 0.005778063 -0.003994854 0.0018233061 -0.0011194642 0.014888421 0.0013796168 0.017636383
0.00059495075 0.012623051 -0.008877679 -0.0031942686 -0.009358797 -0.017558925 -0.009603872 0.0064866333
0.0044439086 0.00042092448 0.008228227 -0.020165397 0.003957554 0.0029977728 0.0010162652 -0.016530396

bn1.running_var f4 [32]
00000000: 355e 693f 2e2c 673f c74b 673f 9eee 663f
00000010: 6e24 6d3f 8194 663f 1dfc 663f d61c 673f
00000020: d3c6 6a3f 78c8 663f 75ce 663f e8ca 663f
00000030: e9c8 663f fc09 683f 3fb2 663f 8490 683f
00000040: 5ab3 663f 33ae 673f 1846 673f ef69 673f
00000050: 4741 673f 0470 683f f711 673f 95de 663f
00000060: 2add 663f b1b2 663f a331 673f 00fc 683f
00000070: 4ae2 663f 91c2 663f 27dd 663f 8c20 683f
0.91159374 0.9030179 0.9035 0.9020785 0.9263371 0.9007035 0.90228444 0.90278375
0.9170963 0.9014964 0.9015878 0.9015336 0.90150315 0.90640235 0.9011573 0.90845513
0.9011742 0.9050018 0.9034133 0.90396017 0.9033398 0.9079592 0.9026179 0.90183383
0.9018122 0.9011641 0.90310115 0.9100952 0.9018904 0.90140635 0.901812 0.9067466

layer1.0.conv1.weight f4 [32, 32, 3, 3]
00000000: 4578 053e 8cf4 ae3c 9283 04bc 4b68 533d
00000010: 3b20 613c 80cc 41bd 38ed 403d 6c0d 223e
00000020: b33c ca3c 32b5 6dbd 08d8 0a3e d05e e73c
00000030: e2e6 ff3d ef7b cabd 2e1a d0bc b960 27bd
00000040: 2ab8 343e 3a52 863c bef9 fb3d 8257 86bd
00000050: fbe2 2c3b fc0b ea3d 2539 97bc f707 be3b
00000060: 8e29 1f3d 9cb7 073e 8054 9dbc 1e91 e1bd
00000070: 20fa c53d 9bbd c3bd 028f e03d c63e 043e
00000080: 38b7 553d 422c 3abc ec81 8cbd 6358 d53c
00000090: 1be6 43be 2de5 81bc a232 85bb 6ee2 893c
000000a0: 4e63 2f3e 895b 9f3c f3ce 253d 3b31 b63d
000000b0: 2793 6d3d 3f1d 5b3c d760 563d 23f8 273e
000000c0: c29d 873d f603 babd 78da 77bd eb09 3cbd
000000d0: d76c d23b 0c15 633e c61f 443a 7273 883d
000000e0: ce52 353d 663c 60bd fc62 b8bb 1395 4d3b
000000f0: 3e3f babd e00f e8bc 8a04 dd3d 0292 513b
00000100: 2e36 9fbb 3425 103c 45f2 25bd 0e99 8a3d
00000110: 3edc b0bb 60bb c83c 05e8 a23b e685 43be
00000120: b6a3 803d 446a eb3d 88a4 893d 9c41 59bd
00000130: 4201 ae3d 0add d0bd 26e9 2fbc 6e57 2bbd
00000140: 6ee7 023e 62d5 b1bd 2b28 f93c a24a 183c
00000150: 205b 82bd 242d 25bc 88c9 bcbd aaaf 113e
00000160: 86df 133d 8237 083d f659 da3c 5b2d 43be
00000170: 4a63 853d c76f 78bc bc44 de3c 073c 023d
00000180: b684 d6bd 6c05 8c3d 5a9d 94bd 5737 1bbe
00000190: 56e6 e0bd 44bd 5f3c 9a5d 76ba 12ff 05bd
000001a0: 3a6c 543e fa5c c83d 3a78 593d 9de5 853b
000001b0: 2c3d 68bb 5efc 05bd 06b8 de3d c876 f63c
000001c0: 1f84 51bd 9b66 47bd e26c e1bc f701 edbd
000001d0: e63c 5a3d a569 183e 22a3 fe3c 2379 dfbc
000001e0: aa6a 8fbb e404 d8bd 3fd9 ca3d c74d cf3d
000001f0: 7c93 1c3d 3c61 c03d 22dd b5bd a652 1cbc
00000200: d773 d93d 0bb8 2abd bb06 ca3d 5ee2 733d
00000210: 06cc 46bd 1ecb 2c3d 32c7 86bc c695 69bd
00000220: d602 02be fbcb 543c 02cf 15bd 6c6b 24bc
00000230: 88b3 513d d554 86bc 9ecd abbc 30b8 ddbd
00000240: be48 17bd 0038 1f3d e72f 45bb 4fd1 6fbd
00000250: ec65 cb3d cc87 0cba 33bd d93d 7779 66bd
00000260: c0f7 64bc c6fa 483d 5066 a8bd 750c 09be
00000270: c6cb afbc c2ec 02be cce0 253d 5817 abbb
00000280: ab7b a23d 6393 e63c cf8e 6d3e 101c 05be
00000290: 9872 8e3b b3fd f23b 1b1e edbb 3acf 38bd
000002a0: 5476 28bd f6de b93d 96b4 32bd 72d2 cd3c
000002b0: b08a 27be 6797 463d c96f 893d ac80 273e
000002c0: ee26 ccbc 777b 433d 1a24 a03d 0af1 0bbe
000002d0: 98f0 49bd 8498 cf3d 0a7f 003e c24b 4bbd
000002e0: 7b7b 37be ffd1 2b3d 2a66 7d3c fc42 1bbe
000002f0: c682 95bd 20bc b53c 2332 513d 80a4 cf3c
00000300: 4670 28bd 98a9 863d 5b8c 383d 487c a23b
00000310: c611 68bc 4b2f 5fbd 5f3c e33c 4376 483d
00000320: ec26 2bbd e627 24bc 6456 a0bc 081d f33d
00000330: e81c 9c3d f709 c33d d02c babb c475 80bd
00000340: b1f5 28bd ea61 313d df93 8ebd 0e41 df3d
00000350: 241a 45bd 8bf4 fd3c 7f0c 9abd 9aaa ca3d
00000360: f9be 073e 3b8b a23d 6458 863c f7d0 ac3d
00000370: ff04 313d 5ec6 893c a3e4 bd3d eabc dc3d
00000380: 1e69 913d 11f9 15bd 389f de3c ae61 b63d
00000390: 6c73 8abc 0f21 abbd 2e50 273e 348d bf3d
000003a0: e499 3dbc cd87 8ebd d33a d73b 46a2 81bd
000003b0: ead3 ecbd a2a8 883d 64d0 4b3d 1727 64bd
000003c0: 1cc6 9c3c 3814 483d 337b 4ebd d6e1 ebbd
000003d0: 7c56 91bb ca99 afbc 7b23 4f3d a4b1 68bd
000003e0: e7c1 5fbd 8ff9 603c 3a70 bfbd eb27 1f3b
000003f0: 6bde f5bd 9c21 dfbc 6ecc 8abd 53ba c23d
0.1303416 0.021356843 -0.008088009 0.051613133 0.0137405945 -0.047314167 0.04710123 0.15825433
0.024687147 -0.05803413 0.13558972 0.028243452 0.12495209 -0.0988692 -0.025403108 -0.040863726
0.17648378 0.01639663 0.12303494 -0.065596595 0.0026380408 0.11428067 -0.018459866 0.0057992893
0.03885799 0.13253635 -0.019205332 -0.11014007 0.09666848 -0.09557649 0.109647766 0.12914571
0.052176684 -0.011363091 -0.06860718 0.026043123 -0.19130747 -0.01585635 -0.004064874 0.016831603
0.17127725 0.019452827 0.040480565 0.08896109 0.058001664 0.013373672 0.052338447 0.1640325
0.06621887 -0.09082787 -0.060511082 -0.045907896 0.006421666 0.22175997 0.0007481541 0.066626444
0.04426842 -0.0547451 -0.005627034 0.0031369373 -0.09094094 -0.028327882 0.107918814 0.0031977897
-0.0048587536 0.008797932 -0.04051425 0.06767474 -0.0053973487 0.02450341 0.0049715065 -0.19094047
0.062812254 0.11494878 0.06720835 -0.053041086 0.08496334 -0.1019841 -0.010736739 -0.041831426
0.12783596 -0.08683278 0.030414661 0.009295138 -0.06365037 -0.010081563 -0.092181265 0.14227167
0.03610184 0.03325606 0.026654225 -0.1906027 0.065130785 -0.015163369 0.027132384 0.031795528
-0.10474531 0.06836972 -0.07256575 -0.15157829 -0.10981433 0.013655964 -0.0009398103 -0.032713957
0.2074441 0.09783359 0.053093173 0.00408621 -0.0035436852 -0.03271138 0.108749434 0.030085936
-0.05115139 -0.048681837 -0.02751774 -0.115726404 0.053280734 0.1488405 0.031083647 -0.027279442
-0.004376729 -0.10547808 0.09904718 0.10122257 0.03822659 0.09393546 -0.08880068 -0.009541189
0.10617798 -0.041679423 0.09864565 0.059542052 -0.048534416 0.042185895 -0.016452406 -0.0570276
-0.12696394 0.012988086 -0.03657437 -0.010035377 0.051196605 -0.016397873 -0.02097207 -0.108261466
-0.036934607 0.038871765 -0.0030088366 -0.05854922 0.099315494 -0.00053608115 0.1063179 -0.05626818
-0.013975084 0.04906728 -0.082226396 -0.13383658 -0.021459471 -0.12785628 0.040497586 -0.0052212887
0.07933744 0.028146451 0.23199008 -0.12998986 0.0043471567 0.007415497 -0.007236255 -0.0451195
-0.04112847 0.090757295 -0.04362925 0.025124762 -0.16361499 0.048484232 0.067107745 0.16357678
-0.024920907 0.047725167 0.07819386 -0.13666168 -0.049301714 0.10136512 0.12548462 -0.049632795
-0.17918198 0.041948315 0.015466252 -0.15162271 -0.07300334 0.022184432 0.051073205 0.025346994
-0.041122697 0.06575316 0.04505573 0.004958663 -0.014164394 -0.05448846 0.027738748 0.04894091
-0.041785166 -0.010019278 -0.019572444 0.11870772 0.07622701 0.09523385 -0.0056816116 -0.06272462
-0.041249935 0.04330627 -0.06961798 0.1090108 -0.048120633 0.031000396 -0.07521915 0.09895821
0.13256444 0.07936712 0.01639957 0.084382944 0.043217655 0.016818222 0.092721246 0.1077822
0.07100128 -0.03661448 0.02717553 0.0890535 -0.01690074 -0.08355915 0.1633918 0.09353104
-0.011572335 -0.06959496 0.0065682917 -0.06329779 -0.11563857 0.06672789 0.049759284 -0.05570134
0.019137435 0.048847407 -0.05041046 -0.11517684 -0.0044353586 -0.021435637 0.050570946 -0.056810036
-0.05462828 0.013731374 -0.093475774 0.0024285268 -0.120053135 -0.027237706 -0.06777273 0.09508195

layer1.0.bn1.weight f4 [32]
00000000: 0000 803f 0000 803f 0000 803f 0000 803f
00000010: 0000 803f 0000 803f 0000 803f 0000 803f
00000020: 0000 803f 0000 803f 0000 803f 0000 803f
00000030: 0000 803f 0000 803f 0000 803f 0000 803f
00000040: 0000 803f 0000 803f 0000 803f 0000 803f
00000050: 0000 803f 0000 803f 0000 803f 0000 803f
00000060: 0000 803f 0000 803f 0000 803f 0000 803f
00000070: 0000 803f 0000 803f 0000 803f 0000 803f
1.0 1.0 1.0 1.0 1.0 1.0 1.0 1.0
1.0 1.0 1.0 1.0 1.0 1.0 1.0 1.0
1.0 1.0 1.0 1.0 1.0 1.0 1.0 1.0
1.0 1.0 1.0 1.0 1.0 1.0 1.0 1.0

layer1.0.bn1.bias f4 [32]
00000000: 0000 0000 0000 0000 0000 0000 0000 0000
00000010: 0000 0000 0000 0000 0000 0000 0000 0000
00000020: 0000 0000 0000 0000 0000 0000 0000 0000
00000030: 0000 0000 0000 0000 0000 0000 0000 0000
00000040: 0000 0000 0000 0000 0000 0000 0000 0000
00000050: 0000 0000 0000 0000 0000 0000 0000 0000
00000060: 0000 0000 0000 0000 0000 0000 0000 0000
00000070: 0000 0000 0000 0000 0000 0000 0000 0000
0.0 0.0 0.0 0.0 0.0 0.0 0.0 0.0
0.0 0.0 0.0 0.0 0.0 0.0 0.0 0.0
0.0 0.0 0.0 0.0 0.0 0.0 0.0 0.0
0.0 0.0 0.0 0.0 0.0 0.0 0.0 0.0

layer1.0.bn1.running_mean f4 [32]
00000000: 6b81 183e d525 fabd 95b3 8bbc 7875 90bc
00000010: 23d5 c3bd f245 333e 2a33 ea3b edd5 cf3d
00000020: 333f 00bd cf73 03be eb20 d23d bf70 013e
00000030: 2b6e 20be 0908 bbbd 25c1 53bc fd9e 683d
00000040: 8305 20be fda7 4d3d 3d76 70bd 269e 0fbe
00000050: 4006 223e 102f 13bd 4da7 86bd df1c 6d3d
00000060: ff07 f0bc 958c 18bc 4a36 e23c b775 a63d
00000070: 2b4d dd3c 9ad7 ecbd 028d f23d dda6 8f3d
0.14893119 -0.12214247 -0.017053405 -0.017634138 -0.09562137 0.17507151 0.0071472125 0.10148225
-0.03131027 -0.12837146 0.10260185 0.12640665 -0.15667026 -0.09132392 -0.012924467 0.056792248
-0.15627103 0.050209034 -0.05870651 -0.14025173 0.15822697 -0.035933554 -0.06574879 0.05788886
-0.029300688 -0.009310861 0.027613778 0.08127921 0.027014336 -0.1156456 0.11843301 0.070142485

layer1.0.bn1.running_var f4 [32]
00000000: 5a15 823f 7867 803f 23ab 7b3f 39d9 733f
00000010: df78 7d3f 472a 973f b78a 7a3f 7092 843f
00000020: 5092 833f 88a8 813f b568 7e3f 187f 7d3f
00000030: d2db 813f 4b8b 883f 258a 753f 14bb 793f
00000040: e26f 883f 6840 7c3f b577 7a3f a45c 883f
00000050: 0951 863f ab84 783f 2098 7d3f 1161 833f
00000060: 50cd 8b3f 590f 7b3f ff98 853f 73c7 913f
00000070: c547 793f 9288 8c3f 9a5a 8a3f 1651 803f
1.0162766 1.0031576 0.9830801 0.9525333 0.9901256 1.1809777 0.9786791 1.0357189
1.0279026 1.0129557 0.9937852 0.99022055 1.0145209 1.0667509 0.95913917 0.97551084
1.0659144 0.98535776 0.9783891 1.0653272 1.049348 0.97077435 0.9906025 1.0263997
1.0922031 0.98070294 1.0437316 1.1388992 0.97375137 1.0979178 1.0808899 1.0024745

layer1.0.conv2.weight f4 [32, 32, 3, 3]
00000000: ba61 1b3e 1e77 0b3d c414 81bd af2e 1fbe
00000010: 6fe5 c9bc 3027 ad3d a235 12bd 10c7 18bc
00000020: 2cc0 903d da1d 11bd 5ca9 99bd 2442 413d
00000030: b702 e9bd 6645 3d3c 843d adbc 96bf 85bc
00000040: a71d ac3d b99d 1c3c 422b 09be 7fcf fd3c
00000050: b0ac 3e3d 5ce5 893d 0d09 80bc 4703 ae3c
00000060: 6ebe 37bc 0203 ae3c be48 8dbd a88b 883d
00000070: 68fc 90bc 8e17 dbbd 80e5 11bd 0f4e 40bc
00000080: 1fc5 3e3d 6ea3 193c 9398 463e 79ce 8e3d
00000090: 671d 39be f490 4e3d bf59 303c f839 f23c
000000a0: 1c3b acbb deab 283d 8ebe 513c 282f 813c
000000b0: 8b7f e2bc 3294 0e3e 1091 d2bd 9fb0 493c
000000c0: 8083 24bc 77d6 e03d 83c9 eb3c 6859 9fbd
000000d0: f2e0 933d 200b 453d 8be5 2bbd bb1b 4e3b
000000e0: 6c79 8fbd 8045 0d3e 3076 26be 57c2 3abd
000000f0: f79f a1bc 05d3 8c3c 1a1f 8b3d e5dd 273e
00000100: 2642 2cbd a44d 763d a6aa 123d ec47 853d
00000110: eb80 b63d dbad ec3c 0330 f33a 5ee0 c8bc
00000120: bee8 523d 2834 8e3d dfef bdbd 828f bdbc
00000130: 381d ed3d bc95 4b3e 7ed7 73bd 5ef3 263d
00000140: c750 a8bd a2d0 613b 76ea ebbd a3fc b6bd
00000150: f60c a4bd 1bd8 333e eeb9 c83d 631d 9abc
00000160: 1f06 5ebd 3800 363d cf13 d63d 5b86 66bd
00000170: 9ce1 ef3c e08a 7a3d b822 4dbd 6f26 67bc
00000180: 432a 8e3d 3c0b 3ebe d7f4 0d3d 4b06 f83d
00000190: 3c64 5a3e 6b56 c9bd 7445 573c d485 bc3b
000001a0: 28e2 4c3b fcd2 44bc 2ccc 673c d53d 9ebb
000001b0: c082 e2bd 2e49 b63d 279b ae3c feef 3dbe
000001c0: a3e9 5bbc 6a3a c2bd c2be 903d 4fa4 623d
000001d0: b3fe 0bbe cc57 a3bd 76bd 12bc 941c 9b3d
000001e0: b5ef a2bd 7b8e 1b3e e07d 72bd ece6 33bd
000001f0: 64cf 29be 3b91 7f3d 94ce 7a3a 92d2 07be
00000200: 64a8 c6bc f87d c83c 3073 933d 3737 d1bd
00000210: 4202 8abc 6485 21be f712 073d dd15 16bd
00000220: 5af5 bdbd 92fb 0e3e 785a 0ebe 08ef 953d
00000230: d892 31bc ab00 07bc 4e62 2dbd e66b f53d
00000240: dcf8 813d b818 24bd 5249 ff3d 8028 ab3c
00000250: 0693 a73d 6717 5abd a757 183d f71d ab3d
00000260: 04c5 2d3d 8cd2 ac3d c8ac 493d da26 003e
00000270: 6208 333d 3e1a 233e 7493 85bc ab4f d43d
00000280: 5357 863d 38a6 d93b e2d2 d6bd 4269 4f3d
00000290: 791f 163e 0f8c 433d d850 64bc feb6 583b
000002a0: 3bc9 a0bd 28fe 523e 5fb5 d73d bae2 903d
000002b0: 93b9 8fbd 96eb 36bc 2301 963d 1ec3 acbd
000002c0: ec89 8d3d 1fd6 63b9 6b5a a6bd 420f 8fbc
000002d0: e760 c93d b831 b43d 05f1 913d 8334 403d
000002e0: 84f9 8d3c 4434 8dbd 68d1 b73d 9a2a b13d
000002f0: a2ff 553d 2a6e 9d3d ae1f ac3d 1617 e13a
00000300: 9e4d 023e 3c48 1b3d 13f9 45bd cc88 47bc
00000310: 8fbd 453d 9ba2 223d 33d0 83bd 26ae 4ebd
00000320: ccb3 523d 14c6 50bb 9d80 0ebe a71f ed3c
00000330: 30f4 403e 9425 be3c 8887 e3bd 84db 193d
00000340: 44d2 2d3d 47bd 303d fe64 b83d 7651 0bbe
00000350: f741 f33c 7489 883d fd58 a2bd 6a08 823c
00000360: 76d5 89bc a76a b73d 9d8a 0b3d 0b3e 293e
00000370: 3166 a2bd 9320 c3bd e375 93bb 0c17 473d
00000380: 2623 be3d cb9c 643c 54ff c63c b43f d7bc
00000390: 0d77 183d 1ced e4bc 0354 42bc da7c 3dbd
000003a0: 0a43 23bd 92a6 443c 5b99 313d c626 9c3d
000003b0: 0071 9fbd 0e98 e03c 523b afbc 5665 36bd
000003c0: eead 4abd 9332 613b c65a 8d3d 0be8 61be
000003d0: 6c53 233d 32fa b4bc 6bc6 c33d a74a 54bb
000003e0: 6e27 22be dc16 10be 9076 d53c 7744 d0bd
000003f0: 144c c13c 0cd1 893c 13bb 66bd bfc2 51bd
0.15173998 0.034049146 -0.06302789 -0.15545152 -0.024645535 0.0845474 -0.03569568 -0.009324804
0.07067904 -0.03542886 -0.07503006 0.047182217 -0.11377471 0.01155219 -0.021147497 -0.016326707
0.08404093 0.009559088 -0.13395408 0.03098273 0.046551406 0.067332 -0.015629316 0.021241797
-0.011214836 0.021241669 -0.0689864 0.06667262 -0.017698482 -0.10697852 -0.03561926 -0.011737361
0.046574708 0.009377344 0.1939414 0.06972975 -0.18077622 0.050431207 0.010763585 0.029568657
-0.00525607 0.04117953 0.012801779 0.015769556 -0.027648708 0.1392372 -0.10281575 0.012310176
-0.010041118 0.10978406 0.028782612 -0.07780725 0.07220639 0.048106313 -0.041966956 0.0031449634
-0.07005581 0.13796043 -0.16256022 -0.045595493 -0.019729597 0.017190466 0.067930415 0.1639324
-0.04205527 0.060132638 0.035807274 0.06507859 0.08911308 0.028891494 0.0018553737 -0.02452105
0.05149149 0.06943542 -0.092742674 -0.023139719 0.11577839 0.19881338 -0.05953168 0.040759437
-0.08218532 0.003445663 -0.11519329 -0.089349054 -0.080102846 0.17562906 0.09801088 -0.01881284
-0.054205056 0.044433802 0.10452997 -0.056280475 0.029282384 0.061167598 -0.05008194 -0.014108284
0.069416545 -0.18558973 0.034657326 0.12110575 0.21327299 -0.09830936 0.0131391175 0.0057532582
0.003126273 -0.012013193 0.014147799 -0.0048291483 -0.11060095 0.08900677 0.021314217 -0.18548581
-0.013422403 -0.09483798 0.07067634 0.055332478 -0.13671379 -0.0797573 -0.008956304 0.0757381
-0.07955877 0.1519107 -0.059202075 -0.043921396 -0.1658302 0.062394362 0.00095675257 -0.1326392
-0.024250217 0.02447413 0.07199705 -0.102156095 -0.01684678 -0.1577354 0.03297707 -0.036641944
-0.09275313 0.13963154 -0.13901699 0.07320982 -0.010838233 -0.008239905 -0.04233008 0.119834706
0.06346294 -0.040062636 0.124651566 0.020893335 0.08182339 -0.053244974 0.037192967 0.08355325
0.042424217 0.08438596 0.049237043 0.1251482 0.043709166 0.1592798 -0.016305663 0.10366758
0.065596245 0.0066421293 -0.104894415 0.05063749 0.14660443 0.047740992 -0.01393529 0.0033068056
-0.07850882 0.20604765 0.10532641 0.07074495 -0.07017817 -0.0111645665 0.073244356 -0.08435653
0.06911072 -0.00021728173 -0.081227146 -0.01746333 0.09832936 0.087985456 0.07126049 0.04692508
0.017330892 -0.068947345 0.08975488 0.08650704 0.052245744 0.07687028 0.0840448 0.0017173018
0.12724921 0.037910685 -0.04833324 -0.012178611 0.04827648 0.039705854 -0.06436195 -0.05045905
0.051441 -0.0031856345 -0.1391625 0.028945757 0.1884315 0.023211278 -0.11109835 0.037562862
0.042436853 0.04314926 0.09003638 -0.13605294 0.02969454 0.06666842 -0.079271294 0.015873153
-0.016825419 0.08955889 0.03406774 0.16527574 -0.07929648 -0.095276974 -0.004500137 0.048605964
0.09284048 0.013953398 0.024291672 -0.026275493 0.03722291 -0.027945094 -0.01186085 -0.046261646
-0.039858855 0.012002604 0.04335914 0.07624583 -0.07785225 0.027416255 -0.02139059 -0.044530235
-0.04948228 0.003436242 0.06902079 -0.22061174 0.03987448 -0.022091959 0.095593296 -0.003239313
-0.15835354 -0.1407122 0.026057512 -0.10169309 0.023595847 0.016823314 -0.05633075 -0.051211115

layer1.0.bn2.weight f4 [32]
00000000: 5813 ad34 7544 3bb1 8ade 62b3 fccc 6535
00000010: b2e0 9eb4 a63f e2b2 9929 9c34 1ff2 06b4
00000020: 9e0e b034 b3ea e4b3 1e39 83b4 b93a c932
00000030: 4dd6 6832 b355 73b4 1b84 7db3 bc45 57b0
00000040: 7c9d 0634 43cd 8032 678a 9534 6bcf b0b4
00000050: 84c4 57b3 a6c5 b433 0234 cbb4 b256 92b2
00000060: 9b74 13b4 2733 6134 2c9d 1633 5f0e c934
00000070: 2801 44b4 eb94 22b5 4b69 a234 1af2 8ab2
3.2237836e-07 -2.7250995e-09 -5.2822124e-08 8.560744e-07 -2.959328e-07 -2.6338807e-08 2.908753e-07 -1.2567806e-07
3.279319e-07 -1.0659769e-07 -2.444221e-07 2.3426184e-08 1.3552904e-08 -2.2662316e-07 -5.9026302e-08 -7.8315643e-10
1.2537015e-07 1.4994503e-08 2.7854114e-07 -3.293347e-07 -5.023732e-08 8.417855e-08 -3.7849537e-07 -1.7036061e-08
-1.3732863e-07 2.0973367e-07 3.5067544e-08 3.7449624e-07 -1.8254343e-07 -6.0566407e-07 3.0251462e-07 -1.617541e-08

layer1.0.bn2.bias f4 [32]
00000000: 6d24 6db2 fd5f 8533 f1bc 3734 8149 d0b3
00000010: d6f4 dd34 2e20 82b4 9eb0 39b4 08ff 9bb3
00000020: 2e58 91b4 03dd b2b3 ef8b 0035 da8c 5533
00000030: 32a7 0bb4 2225 9db4 730e 4bb4 48ae 4c34
00000040: 7555 2a34 d5c8 da34 5635 9134 65ee 94b4
00000050: 34e4 0834 7067 1fb4 95b3 ed33 168a d132
00000060: 4a9a 74b3 adf9 a631 f377 0c33 b5e4 4933
00000070: a0dd 6e34 b158 49b4 9232 5434 e6bb 83b4
-1.3803498e-08 6.210755e-08 1.711194e-07 -9.699125e-08 4.13426e-07 -2.42378e-07 -1.729372e-07 -7.26414e-08
-2.7072514e-07 -8.328973e-08 4.7887346e-07 4.972103e-08 -1.3006209e-07 -2.9270547e-07 -1.8911105e-07 1.9062384e-07
1.5863573e-07 4.075179e-07 2.7047162e-07 -2.7740603e-07 1.2749007e-07 -1.4845659e-07 1.1068838e-07 2.4393596e-08
-5.6951002e-08 4.8596207e-09 3.2705383e-08 4.7006967e-08 2.2246104e-07 -1.875185e-07 1.9762436e-07 -2.4537366e-07

layer1.0.bn2.running_mean f4 [32]
00000000: 8318 ff3d cccc cabc 9a60 82bd 62c5 0dbd
00000010: cf3d 35bd 08df a7bc 139e 523c e714 6ebd
00000020: fad0 6dbd c3a6 83bd 7344 9e37 ed12 633d
00000030: 2f62 33bd 030a a43c 80da 94bd 40e2 02bd
00000040: 2a1c 46bc c7b0 263d 3d76 71bd c289 0fbc
00000050: a858 34bc b360 4c3d 1383 153d 4260 d4bd
00000060: 201c 67bd 3f9f 203d 7e66 923d cbe9 36be
00000070: ba0a 493d 0090 febd d6f6 90bd bd99 5dbc
0.12455847 -0.024755858 -0.063660815 -0.034612067 -0.0442484 -0.020492092 0.012855071 -0.058125403
-0.058060624 -0.06428292 1.8866942e-05 0.05543797 -0.043794807 0.020024305 -0.07268238 -0.03195405
-0.012091676 0.04069593 -0.05895065 -0.008760871 -0.011007465 0.049896907 0.036501955 -0.10369922
-0.056423306 0.03921437 0.07148455 -0.17862622 0.049082495 -0.124298096 -0.0707833 -0.013525424

layer1.0.bn2.running_var f4 [32]
00000000: a63b 833f 1505 713f bb3b 743f 8c64 733f
00000010: 36a3 793f f2e0 743f fa5c 793f 411e 743f
00000020: b3b7 6f3f e3ca 713f 38d7 723f 7ad8 743f
00000030: 40e2 753f a5c0 733f 8c9b 723f c5e8 703f
00000040: f2fe 773f 3c53 763f 223f 7d3f ba44 7a3f
00000050: a6b8 723f 21ab 773f 13a1 703f f6b5 7a3f
00000060: a8fb 7d3f 07fa 743f b49a 7d3f 98b7 853f
00000070: 73cd 733f 73ac 7a3f e36d 7e3f 062d 773f
1.0252578 0.9414838 0.9540364 0.950753 0.97514665 0.9565574 0.97407496 0.95358664
0.9363968 0.94450206 0.9485965 0.9564282 0.96048355 0.9521583 0.94768596 0.9410518
0.9687339 0.96220756 0.9892446 0.9776112 0.94813 0.96745497 0.9399578 0.979339
0.9921212 0.9569401 0.99064183 1.0446653 0.95235366 0.97919387 0.99386424 0.96553075

layer2.0.conv1.weight f4 [32, 32, 3, 3]
00000000: a3d7 ca3d 402c 5fbe 8871 b8bd 1a46 833d
00000010: f26b 30bc 6e56 42bc 44a0 243e 9929 a1bc
00000020: 8cae 183e 76df c3bd fcfb 5cbd 116d 0bbc
00000030: 4ec0 b03d c311 b93d 1e0a 153d 5aea c53d
00000040: 4ccb e63d 3cd9 a93d d030 8dbd 0d86 0a3e
00000050: 0790 e93b 9475 593d 3ab7 b73d bbd6 ac3d
00000060: 6c1c e93b 9e7d c2bd 7019 8d3d 5045 76bd
00000070: bb07 e9bd 5e76 89bd 6a1f 0ebd 64fa 97bd
00000080: f826 17bd 6c4b 213d 0a08 4fbd dc4d 7dbd
00000090: d29f 1fbd c6d5 82bd feab 5fbd 989e 803c
000000a0: 322b c73d aba3 2abe 4afe 70bd 7c0f 58be
000000b0: 3608 903d e0e2 293d 7328 ba3c 2627 7c3c
000000c0: 308a 173e 739a 43bd 40b1 fa3d 8ce0 a23d
000000d0: 0f0a b73c d034 7fbd d999 283c 84f9 e7bd
000000e0: b771 dc3c e238 c93d ce0d f4bd 7419 563d
000000f0: 24ee 753c b72f 3a3e 1636 f3bc 7e0f 54bd
00000100: a239 16bd 2d1a 16bd 4e2f e43d 50dc dcbd
00000110: 4020 863c 82bb c73d 230c abbd a7e7 c5bd
00000120: c8f2 bfbd 623c ccbc 7299 693d 2ab2 39bd
00000130: 7f92 64bd 2cf9 233d e90c 063e 4f6c 873d
00000140: d6f0 13be 9ce8 a83d 5baa 99bd ce80 19be
00000150: e741 9c3d 99e1 9dbb f64b 9e3c 133c 5a3b
00000160: ef57 ed3d e215 a13d 6f9f 5ebd 27c5 bbbc
00000170: 6b5c c43d 8ecf fbbd 1e0b 81bd c204 4dbc
00000180: 9c5d 553c fa4e 163e 0211 8bbd 2093 6fbd
00000190: 86a8 7bbb 1897 20bd e627 803d e8bb ee3d
000001a0: 5254 d3bd 8ba6 943d e656 063e 28e3 e43c
000001b0: 6f87 183e 44db 053e 43e6 f6bd c70d 773d
000001c0: c480 1abd ebb6 903a c456 b3bd 289f f43d
000001d0: 4e85 5abc 802d 233c 74d1 dfbd 0065 c4bd
000001e0: f3e8 283c 849d 15be 369a 283b a2c4 ef3c
000001f0: 8b07 5cbc 1843 02be 8bfe afbd d0fc 003e
00000200: 3e1a 683c e476 b5bc 662c adbc 6eb1 a53d
00000210: d2d3 e3bc 2f7f 0d3e ea97 58b8 329f babd
00000220: c735 203e 2eac 243d 06c0 dc3d 0cf8 63bd
00000230: 94d2 873b b287 f3bd d48c f83d 1c95 85bc
00000240: 6384 3ebd dc27 85bd b724 babb be78 313d
00000250: c990 9b3d f358 78be 9ce6 6fbd 36e6 b13c
00000260: 3f10 ee3c 5255 b23d fe02 3fbe 7ffa e63d
00000270: de51 46bd a760 3b3d 6804 eb3d f4b2 47bd
00000280: fcf3 a13c fb89 ef3d 10e3 85bb 534c 093c
00000290: a353 fd3d a6a4 533e 203d 533d c64d 1dbe
000002a0: c751 633c 3c39 5e3c f6e3 a4bd c3d8 d33d
000002b0: bb01 90bc 4b15 e5bd 017e a73d 502b 413e
000002c0: e4cb 013e f074 bb3d 78aa 8e3d aa5e d0bc
000002d0: 6c51 4b3e 1c4d 263d 2468 203e 5b32 743d
000002e0: 3455 bb3d 1afe e9bb 24f8 673e dbde a8bd
000002f0: 202e f83d 028b 62bb 1a66 183d dc57 b0bc
00000300: 9a30 753b 8c90 c93c 349c 5ebd 7397 7e3d
00000310: 5614 073d ce93 cbbc 5ba0 363d c4b8 debc
00000320: 0621 51bd 406c 85bd abd2 edbb f49b 2abd
00000330: f82a 023e 8748 f4bc 8b03 7f3d a245 423e
00000340: 9a9c c83d f30d 353d f9e7 9f3c 3474 9e3c
00000350: e491 c83d 7643 59bc f4d1 2a3d ab7a 023d
00000360: 7455 ed3b 527a 59bd 5c7b aebd ba85 b83d
00000370: 5e82 d7bc ca1c 2cbd d67b af3d 1bd8 8d3d
00000380: 48ef 25bd f192 8d3c f01a ea3c 14a4 2ebd
00000390: 98b9 363d 0869 893d 50a4 4cbd 443a 923c
000003a0: 624d 953d d0ff c93d ce41 45bd 6039 33be
000003b0: d642 c0bd 76e9 463d ac3d 063e 6685 debc
000003c0: 27a0 ad3c 6b4b 2b3e ce8e c73d acc5 2fbc
000003d0: 520a 563e b28e 7cbd be13 8ebd b8b8 0a3e
000003e0: 10d7 a9bc 46aa c2bd bc8d b0b9 6ab3 9fbc
000003f0: 2634 363d 5204 11bd f7b7 ffbd c8c7 683d
0.09904411 -0.21794224 -0.09006029 0.06409855 -0.010767924 -0.011861427 0.16076761 -0.019673156
0.14910334 -0.09564106 -0.05395125 -0.00850989 0.08630429 0.09036591 0.0363866 0.0966384
0.112692446 0.08293387 -0.06894076 0.13527699 0.007127765 0.053090647 0.089704946 0.08439394
0.007113984 -0.09496616 0.068896174 -0.060124695 -0.113784276 -0.0671203 -0.034697928 -0.07420805
-0.036902398 0.03937857 -0.050544776 -0.06184183 -0.038970776 -0.0638843 -0.054607384 0.015700623
0.09725036 -0.16663997 -0.05883626 -0.21099657 0.07032816 0.04147613 0.022724366 0.015390193
0.14798808 -0.047754716 0.12240839 0.07952985 0.022343663 -0.062306225 0.010290586 -0.11326888
0.026909692 0.09825303 -0.119166955 0.052270368 0.01501039 0.18182264 -0.029688876 -0.051772587
-0.036676057 -0.036646057 0.11141835 -0.10784209 0.0163728 0.09752561 -0.08351924 -0.09663325
-0.09372479 -0.024931137 0.057031102 -0.045335926 -0.055803772 0.04003255 0.13090862 0.06612455
-0.1444734 0.08247492 -0.07503196 -0.14990541 0.076297574 -0.004818153 0.01932333 0.0033299967
0.115890376 0.07865502 -0.054351266 -0.022921158 0.0958794 -0.12295447 -0.063009486 -0.012513341
0.0130228065 0.14678565 -0.06790353 -0.05848992 -0.0038400008 -0.039206594 0.0625761 0.11656934
-0.10318817 0.07258328 0.13119087 0.027940348 0.14895414 0.13071924 -0.12055638 0.060315873
-0.037720457 0.0011040842 -0.087567836 0.11944419 -0.013337446 0.0099595785 -0.10928622 -0.09589577
0.010309446 -0.14610869 0.0025726683 0.029268567 -0.013429533 -0.12720907 -0.08593472 0.1259644
0.014166413 -0.022151418 -0.021139335 0.08090483 -0.027810965 0.13818048 -5.1639894e-05 -0.09112395
0.15645514 0.040203266 0.10778813 -0.055656478 0.004144976 -0.11891116 0.12136236 -0.016306452
-0.046512973 -0.06501743 -0.0056806463 0.04332804 0.07595975 -0.24252681 -0.058569536 0.021716218
0.029060481 0.0870768 -0.18653485 0.11278247 -0.04841792 0.04574647 0.1147545 -0.048754647
0.019769661 0.116962396 -0.004085906 0.0083800135 0.12369468 0.20668277 0.051571965 -0.153617
0.013874478 0.01356345 -0.080512926 0.103440784 -0.01757895 -0.11185702 0.0817833 0.18864179
0.12675434 0.091531634 0.06966108 -0.025435764 0.19855279 0.04060088 0.15664726 0.059618335
0.091471106 -0.007140887 0.22653252 -0.08245631 0.12118173 -0.0034567718 0.037206747 -0.02152627
0.0037413002 0.024605058 -0.054348186 0.062156152 0.03297838 -0.024850752 0.04458652 -0.027187712
-0.051056884 -0.06514788 -0.0072577796 -0.041652635 0.12711704 -0.02981974 0.06225924 0.18971875
0.097954944 0.044202756 0.019519793 0.01934252 0.097934514 -0.013260713 0.041704133 0.031855267
0.007242853 -0.05309517 -0.08519623 0.09009881 -0.026307281 -0.042019643 0.08568542 0.069259845
-0.0405114 0.017281981 0.028577298 -0.042636946 0.04461059 0.06709486 -0.049961388 0.017850049
0.0729015 0.098632455 -0.04815846 -0.17502356 -0.09387748 0.04856249 0.13109463 -0.027163219
0.02119453 0.16727988 0.09744035 -0.010728281 0.20902374 -0.061659522 -0.06937359 0.13547027
-0.020732433 -0.09505133 -0.00033674936 -0.019494731 0.044483326 -0.03540451 -0.124862604 0.05683115

layer2.0.bn1.weight f4 [32]
00000000: 0000 803f 0000 803f 0000 803f 0000 803f
00000010: 0000 803f 0000 803f 0000 803f 0000 803f
00000020: 0000 803f 0000 803f 0000 803f 0000 803f
00000030: 0000 803f 0000 803f 0000 803f 0000 803f
00000040: 0000 803f 0000 803f 0000 803f 0000 803f
00000050: 0000 803f 0000 803f 0000 803f 0000 803f
00000060: 0000 803f 0000 803f 0000 803f 0000 803f
00000070: 0000 803f 0000 803f 0000 803f 0000 803f
1.0 1.0 1.0 1.0 1.0 1.0 1.0 1.0
1.0 1.0 1.0 1.0 1.0 1.0 1.0 1.0
1.0 1.0 1.0 1.0 1.0 1.0 1.0 1.0
1.0 1.0 1.0 1.0 1.0 1.0 1.0 1.0

layer2.0.bn1.bias f4 [32]
00000000: 0000 0000 0000 0000 0000 0000 0000 0000
00000010: 0000 0000 0000 0000 0000 0000 0000 0000
00000020: 0000 0000 0000 0000 0000 0000 0000 0000
00000030: 0000 0000 0000 0000 0000 0000 0000 0000
00000040: 0000 0000 0000 0000 0000 0000 0000 0000
00000050: 0000 0000 0000 0000 0000 0000 0000 0000
00000060: 0000 0000 0000 0000 0000 0000 0000 0000
00000070: 0000 0000 0000 0000 0000 0000 0000 0000
0.0 0.0 0.0 0.0 0.0 0.0 0.0 0.0
0.0 0.0 0.0 0.0 0.0 0.0 0.0 0.0
0.0 0.0 0.0 0.0 0.0 0.0 0.0 0.0
0.0 0.0 0.0 0.0 0.0 0.0 0.0 0.0

layer2.0.bn1.running_mean f4 [32]
00000000: 0320 013e be70 a03a ee24 bf3d 2172 1bbe
00000010: f756 523d 4048 723a ddc6 58be fb92 cc3d
00000020: 17cf cfbc aaf9 053d ce7b aabd e705 68bd
00000030: 4a2c 1fbe ef8e 843e 95fc 22be 6aec ebbd
00000040: 0acb 6e3d a837 a8bc 4705 7b3d da47 d33d
00000050: 61a6 013d cdc2 e93c 1378 803d 3b1c 91bd
00000060: eb1c bf3c 07ca e83c 428f 02be 35f8 9b3d
00000070: fd2b 023e dd8d 8e3d 34ae 29be bbbb 93bc
0.12609868 0.0012240631 0.09333216 -0.15180255 0.051352467 0.00092423335 -0.2116961 0.09988972
-0.025367303 0.0327088 -0.08324395 -0.056646254 -0.15544239 0.258903 -0.15916665 -0.11519702
0.058299102 -0.020534351 0.06128433 0.10316439 0.031652812 0.028535271 0.06272902 -0.07085463
0.023329219 0.028416647 -0.12749961 0.07615701 0.12712093 0.06960652 -0.1657036 -0.018033853

layer2.0.bn1.running_var f4 [32]
00000000: e9ef 8a3f de1b 763f 2b10 803f 5114 833f
00000010: 3330 7f3f b860 763f e7d7 8a3f 4bca 7d3f
00000020: 4164 803f 2e7d 733f f3d2 813f 1ba5 823f
00000030: bf06 803f 1b4c 913f 3100 8b3f ff3a 883f
00000040: 2ed5 763f 6626 7e3f c717 7e3f 3a78 8b3f
00000050: ea22 8e3f b8ec 773f 58a4 883f 07dc 823f
00000060: 5787 753f 50f8 813f d145 833f 459b 7d3f
00000070: fe45 813f 23e0 753f c458 833f ca7a 833f
1.0854465 0.9613627 1.0004934 1.0240575 0.9968292 0.9624133 1.0847138 0.991368
1.0030595 0.95112884 1.0142502 1.0206636 1.0002059 1.135135 1.0859433 1.0643004
0.96419036 0.9927734 0.9925503 1.0896065 1.1104405 0.9684558 1.0675154 1.0223397
0.9590964 1.0153904 1.0255681 0.9906505 1.0099485 0.9604513 1.0261464 1.0271847

layer2.0.conv2.weight f4 [32, 32, 3, 3]
00000000: 2feb aabd 6474 80bd 1757 ed3d ac9e 69bd
00000010: f553 053d b4f4 173b e999 93bd 657f 1a3e
00000020: 3381 463d 0e62 9a3d c4ca 273e 1f22 b4bd
00000030: 6024 833c 271b cfbd 96b9 1dbc a473 ff3b
00000040: ebf6 643d 10c4 0cbe 3833 013c a321 b13b
00000050: a2e8 84bc ae0f 8cbc 5a26 b9bd 56f2 163e
00000060: 60eb 403d 006e aabb 036a a3bd aafa d53d
00000070: f227 9fbc ab30 093d c7fc 6abd 7d51 85bc
00000080: 548e 9e3d 7b2d febc ca76 713d c857 6b3d
00000090: 483a b33d 6ff5 973d 533c 0ebd d203 9cbc
000000a0: acab a9bc d880 d4ba f7fc 343d 1ca9 9abd
000000b0: 4288 6abd 9254 d83d 8ac2 58bd c308 f13c
000000c0: fcb1 02be bb09 743d 18df 713d e03a 003b
000000d0: 1431 9b3d d7dd 653d 14fb d7bc c31a f83c
000000e0: 77d5 383d 9b17 a5ba d019 963d c4d2 6e3c
000000f0: b625 e93b fcfa 9ebd 4426 d5bc 7bcf 1d3d
00000100: 1332 d0bd 0600 82bd 969c c73c 4c74 d13d
00000110: e937 163d da06 923d f463 95bc be63 cd3d
00000120: 4af1 5d3d 44ef c4bc f487 84bd 1c63 e2bc
00000130: 8b8f 073e 1e0d f93c 1ebb b3bd 875d 343d
00000140: 6aa6 d1bd 6796 56bc 3820 d4bd e875 2dbd
00000150: e31f 9b3d 5ce3 b13c 368b 2a3d 04ee d53d
00000160: 20ba c63d 8787 333d a680 cf3a 2014 1cbc
00000170: fe17 d7bd 4647 203d e4a3 cf3d 4056 dabc
00000180: 8acf 5ebc a0b5 2fbd cf49 353d 2332 d53d
00000190: 54af 32bd b063 2fbe 1241 4a3c d7d9 d83c
000001a0: 7955 153d 1715 413d e394 cc3d 4693 023e
000001b0: 4ae6 933d 3da5 11b9 a044 3bbd a21d 7cbc
000001c0: dae2 373e 02ed f43d 922c a33c 7188 053d
000001d0: 4577 0abe fa61 983d bc4d a8bc e630 943d
000001e0: f296 3b3c cc0c b63c c770 b93c 19f0 03bd
000001f0: 839c efbd be01 9bbd a37b 703d 90bc 5e3d
00000200: e794 473e ca8c 103e cce1 02be 3298 3a3e
00000210: 0a5a 013d 1f7a 7d3b 9feb b1bd 7879 85bc
00000220: 6a9f 2a3d c3fd 41bd a6f0 4fbe 770f 53bc
00000230: 4204 da3d c6ec 6e3d 56f5 a53c ced8 193c
00000240: 6a06 e23d f419 5f3d e849 b0bc 88c2 8e3c
00000250: 1033 bbbd 3269 33bd b8f9 6e3e bc4d 8f38
00000260: e79a e03d c2d7 d53d 6092 10be 6ce5 86be
00000270: 74e2 39be 4b22 08be e621 d2bd c401 933d
00000280: bf79 05bd 0a3f 1bbe a658 573d 7363 8f3d
00000290: ded9 4bbd f20d 99bd c05e e0bd d440 08be
000002a0: 7ccd ff3d 0f21 d3bd f82e f83d 1f89 413c
000002b0: bef7 0fbd a401 5a3d 3e66 b8bc 66ca b2bc
000002c0: bb6b fbbd 4c79 eb3d 600c 893d a209 2c3e
000002d0: 3c2c 5a3d e07c c73d 3b36 203d 8ae3 d5bc
000002e0: 9caa 9abc 4ea0 90bd f9e8 21bb 2824 a5bd
000002f0: 3eda 363e e2f0 6fbb fa44 1c3e 23a8 e83d
00000300: de19 8abd 6aff 313c be02 bfbd 8ee8 b73c
00000310: d6dd 2c3e 38ca 68be 4a92 763a fe23 33be
00000320: e8b3 6cbd de1f 49bd f44f 043d d3cc b5bd
00000330: ac03 a5bd 7409 8c3d be19 9a3d 1e60 debd
00000340: 1698 043e 5c9c 0d3e c690 07be ec8d ca3d
00000350: 462d e4bd 6a68 133e b565 03be 124d 0abd
00000360: b8e9 223d 64f6 98bc 81ec 9b3b 0ff7 5a3d
00000370: 4c65 95bd 11cf 00be fe22 21bd 3a8c 473c
00000380: e55d 9ebd e0e6 ba3b f01b 37bd 624b 0ebd
00000390: d7d4 bc3d 0407 003d b0a6 a6bd ea80 a1bd
000003a0: 088f e6bc ba35 033e 089b 6a3c b64a 8c3d
000003b0: ac78 aa3d bc86 023d dafb fabb 6a30 b93c
000003c0: c084 37bd bbc0 9f3c 04cc 20bd 569e 893d
000003d0: 8684 c0bd 1364 b43c e091 0e3e 7342 e4bc
000003e0: 63ce 613d 3264 0abe 3666 ac3d 34d8 633d
000003f0: 2e2b 8cbd 069c 14be 84f6 853d c452 e5bd
-0.08345639 -0.062722 0.11588877 -0.057036087 0.03255077 0.0023186626 -0.072070904 0.1508766
0.048463058 0.07538234 0.16385943 -0.087955706 0.016008556 -0.10112601 -0.009626767 0.007795768
0.05589954 -0.13746667 0.007885747 0.005405621 -0.01622421 -0.01709732 -0.09040518 0.14740881
0.04709947 -0.0052011013 -0.079792045 0.10448201 -0.019428227 0.03349368 -0.057369974 -0.016274208
0.07741991 -0.031027546 0.058951177 0.05745676 0.08751351 0.074198596 -0.0347255 -0.01904479
-0.020711742 -0.0016212715 0.04418656 -0.07551786 -0.05725885 0.105630055 -0.052919902 0.029423123
-0.12763208 0.059579592 0.05905065 0.0019566342 0.0757772 0.056119766 -0.02636484 0.030286198
0.04512545 -0.0012595536 0.07329142 0.014576618 0.007115091 -0.07762715 -0.026019223 0.038527947
-0.10165801 -0.06347661 0.024366658 0.1022726 0.036674414 0.07130213 -0.018236138 0.1002879
0.05418519 -0.024039872 -0.064712435 -0.02763515 0.13238351 0.030401763 -0.08775924 0.044034507
-0.10236819 -0.013097382 -0.10357708 -0.042348772 0.07574441 0.021714859 0.04163667 0.104457885
0.09703469 0.04383042 0.0015831187 -0.009526283 -0.10502623 0.03913047 0.101386815 -0.026652455
-0.013599286 -0.04289782 0.044259842 0.104099534 -0.043624237 -0.17127872 0.0123446155 0.026471062
0.036458466 0.047139253 0.099893354 0.12751493 0.072216585 -0.00013889834 -0.045719743 -0.015387924
0.17957631 0.11959268 0.019918714 0.032600824 -0.1352206 0.074405625 -0.02054488 0.07235889
0.011449562 0.022222899 0.022636784 -0.032211397 -0.11699774 -0.07568692 0.05871166 0.054379046
0.19490395 0.14116207 -0.12781447 0.1822212 0.03158001 0.0038677526 -0.08687519 -0.016293272
0.041655935 -0.047361147 -0.20306644 -0.012882105 0.10645343 0.058331273 0.020258587 0.009390069
0.1103638 0.05446811 -0.021519616 0.017426744 -0.09140599 -0.043801494 0.23337448 6.8332505e-05
0.10967045 0.10441543 -0.14118338 -0.2634691 -0.18152791 -0.13294332 -0.10260372 0.07178071
-0.03258681 -0.15160766 0.052574776 0.0700139 -0.04976832 -0.07473363 -0.10955572 -0.1330598
0.12490365 -0.1030904 0.121183336 0.011812477 -0.035148375 0.05322422 -0.02250969 -0.021825027
-0.12276407 0.11497745 0.066918135 0.1680055 0.05326484 0.09740615 0.03911422 -0.026109476
-0.018880181 -0.07061826 -0.0024705513 -0.08063537 0.1785669 -0.0036612083 0.15260687 0.113601945
-0.06743215 0.010864118 -0.09326695 0.022449758 0.16881499 -0.2273339 0.0009405954 -0.17494199
-0.05778876 -0.049102657 0.03230281 -0.08876958 -0.08057341 0.068377405 0.07524441 -0.10858177
0.12948641 0.13829178 -0.1323882 0.09890351 -0.11141448 0.143953 -0.12831767 -0.033764906
0.039773673 -0.018672176 0.004758418 0.05345827 -0.072947115 -0.1257899 -0.03934001 0.012179429
-0.07732753 0.005703792 -0.044704378 -0.03473986 0.092202835 0.03125669 -0.08137262 -0.078859165
-0.028144374 0.12813464 0.014319189 0.068501875 0.083237976 0.031866774 -0.0076594176 0.022606093
-0.044804335 0.01950108 -0.039257064 0.06719653 -0.09400277 0.022020375 0.13922834 -0.027863717
0.055128466 -0.13514784 0.08417933 0.05562611 -0.06844173 -0.14512643 0.0654116 -0.11197427

layer2.0.bn2.weight f4 [32]
00000000: d19a 4134 a31e e133 00ce 1eb3 6bfe 3eb4
00000010: bf32 1035 1190 0733 0cfb 3432 316c b330
00000020: 55f2 b934 5dfd 0ab4 ab0e adb4 de42 fcb3
00000030: ba65 7bb4 42f9 22b3 bb5c 1933 87e2 1d34
00000040: 1c4d b633 aff7 a634 d138 b733 7c8f b8b3
00000050: 207c ac32 ced9 8934 6d9e 99b4 d082 cbb3
00000060: 3eea 88b3 e806 1934 059a 3834 4cde 2cb4
00000070: 6e54 1634 05ec 4132 b1ab 7834 008d 22b4
1.8030848e-07 1.0482952e-07 -3.6974598e-08 -1.7787686e-07 5.3718026e-07 3.1563165e-08 1.053446e-08 1.3054714e-09
3.4635255e-07 -1.2944425e-07 -3.2234433e-07 -1.17468275e-07 -2.3413205e-07 -3.7945263e-08 3.5707426e-08 1.4704175e-07
8.4890615e-08 3.1100123e-07 8.5319364e-08 -8.594267e-08 2.007988e-08 2.5676712e-07 -2.861374e-07 -9.476719e-08
-6.375602e-08 1.4251748e-07 1.7192367e-07 -1.609962e-07 1.4000554e-07 1.1287743e-08 2.3159261e-07 -1.5138721e-07

layer2.0.bn2.bias f4 [32]
00000000: 0562 96b1 bddf 8334 4689 1f34 96ae 92b3
00000010: e917 9fb4 d824 8133 2c0e 1634 fd0a bbb4
00000020: 6a94 e432 73ca 6835 7a9d d032 5a73 5731
00000030: d75e 0fb4 a0ce 92b4 8eeb 82b4 662d 6934
00000040: 1204 8cb3 534c ef34 46b0 15b3 7df6 c934
00000050: 66ca 5f33 2902 f1b3 f505 a434 3f36 9ab3
00000060: e1ea 7934 6d9d a2b4 56e9 9cb4 4ff4 2a34
00000070: 62b0 4a34 53f9 6cb3 0027 3334 2026 97b4
-4.376718e-09 2.4563442e-07 1.4857969e-07 -6.830412e-08 -2.9633455e-07 6.0137324e-08 1.3974994e-07 -3.483946e-07
2.6610184e-08 8.672134e-07 2.4285999e-08 3.1352188e-09 -1.3352415e-07 -2.734496e-07 -2.4385776e-07 2.1716332e-07
-6.5199984e-08 4.4572752e-07 -3.4852086e-08 3.761851e-07 5.2105314e-08 -1.122283e-07 3.0551715e-07 -7.181051e-08
2.327538e-07 -3.0289394e-07 -2.9227039e-07 1.5921363e-07 1.8876884e-07 -5.517479e-08 1.6684862e-07 -2.815368e-07

layer2.0.bn2.running_mean f4 [32]
00000000: faae 593d 8f3c ca3c ba00 293d 87b8 17bd
00000010: 9d23 5cbd 1c6c c9bd bbf7 9c3d 8151 33bd
00000020: e33e 0d3d 5fbb 7c3d 93bc 613c 3e1a 813c
00000030: 4090 8abc db79 dd3a 8a6d 21bc 878f 24bd
00000040: ed30 4a3d fa8a 0dbd a282 17bc c050 523c
00000050: 6047 d63c 1f71 4ebd 059d b9bb 9bbb 323d
00000060: 87ba aebb 27bf 27bd df11 7a3b 3082 84bb
00000070: 604e dbbd fd1f a03d d1d4 8fbd d041 63bd
0.053145386 0.02468708 0.04126046 -0.037041213 -0.0537449 -0.09835073 0.07664438 -0.0437789
0.0344838 0.06170213 0.01377787 0.015759584 -0.016914487 0.0016897278 -0.009852776 -0.04017594
0.049363066 -0.034556367 -0.009247454 0.012836635 0.026157081 -0.05040085 -0.00566447 0.043635946
-0.0053322944 -0.04095378 0.0038157625 -0.00404384 -0.10708308 0.07818601 -0.070230134 -0.055482686

layer2.0.bn2.running_var f4 [32]
00000000: 9fad 753f 8340 753f 18f1 763f 48e3 753f
00000010: 6f8d 743f dfa5 773f 313c 7a3f de15 7e3f
00000020: 9087 753f 5850 763f f41d 763f 1619 743f
00000030: 76c5 763f 8282 743f 4ba7 7d3f 03d5 713f
00000040: 2046 773f fe50 793f aab4 7b3f 16c9 743f
00000050: b606 783f 049c 723f e7d7 7a3f 1e1f 803f
00000060: c317 713f 5b4e 713f c063 803f 4639 723f
00000070: cd80 753f b47a 733f 74bc 793f 9d6f 753f
0.9596805 0.9580156 0.9646163 0.9604993 0.9552831 0.96737474 0.97748095 0.99252117
0.95909977 0.96216345 0.96139455 0.9535078 0.9639505 0.9551164 0.99083394 0.94465655
0.9659138 0.9738921 0.98322546 0.9561933 0.9688524 0.9476931 0.9798569 1.0009496
0.9417688 0.94260186 1.0030441 0.9461864 0.9589966 0.95109105 0.9755318 0.95873433
