models/small_14_adam_1em3/best_model.pth (torch, 363343 bytes, 77 tensors)

conv1.weight f4 [16, 3, 5, 5]
0.08583722 -0.01318135 0.062429227 0.10061273 0.016000697 0.08343485 -0.0128697185 -0.028495638
0.016148154 0.04671068 -0.01925626 0.079809904 0.095200226 -0.039270274 0.07939919 0.020796314
0.037881672 0.063316874 -0.008859224 0.036055937 -0.038468312 -0.08457014 -0.10625954 -0.07194197
0.07859039 -0.0460013 0.034930613 0.08043764 -0.027332671 0.069980636 -0.09273297 -0.102273315
-0.012591183 0.05254083 0.04651731 -0.07218272 0.0130950585 0.081305385 -0.050940316 -0.062395204
-0.07386878 -0.0042753187 -0.040866826 -0.04781909 0.062257763 -0.014654566 -0.03803357 0.13755424
-0.03513524 0.036842357 -0.014678677 0.09940855 0.037723146 0.005026122 0.07344761 0.08832137
0.1811323 0.20444714 -0.054266308 0.07838425 -0.06505403 -0.0051640198 0.054861527 -0.132334
-0.04451455 0.10193854 -0.040972386 0.006362765 -0.08718323 0.1045535 0.06399352 -0.020369602
0.0957201 0.11105082 0.040771503 -0.11226472 -0.033721156 0.04347597 -0.0015431393 -0.014709522
0.06008004 0.05721438 -0.1018618 0.041869033 0.03621002 0.104527324 0.029896446 -0.044176627
-0.004948082 -0.03185081 0.010215951 -0.0076499586 -0.04301175 -0.18169929 -0.09463369 -0.06955727
0.1151182 -0.106278025 -0.1292787 0.029604625 0.14458743 -2.6462336e-05 0.014227315 -0.014630257
-0.13295268 -0.016522832 -0.056110367 -0.014862211 -0.02996858 -0.0714898 -0.014808113 -0.04007049
-0.022348113 0.09702659 -0.040252965 -0.055142734 0.08586319 0.052311793 0.055162344 -0.038479947
-0.067715205 0.0013236909 0.06672117 0.02732579 0.15343395 0.10903276 -0.06391648 -0.17940459
-0.09216857 -0.045966145 -0.019321091 0.040802706 0.052792117 -0.113599636 -0.0061725476 -0.0010998403
-0.08618576 -0.05533218 0.08781314 0.024399122 -0.036456272 -0.06832949 0.05071357 0.0671212
0.057146337 -0.06664382 -0.06935814 0.036425766 0.03691887 0.034177247 -0.046934392 0.031273104
-0.014777381 -0.010132157 0.015606923 0.04808648 -0.08273992 -0.042465188 0.041421406 -0.06177744
-0.050885208 -0.16713402 -0.04617601 -0.05387034 0.047822952 -0.20943418 0.001521137 -0.120375335
-0.0046062754 -0.029336188 -0.17079881 -0.014016766 -0.026840791 -0.10903748 -0.09575879 0.019934392
-0.022886558 0.061172348 0.13857254 0.07362605 0.012926808 0.15693332 -0.10364065 0.031880308
0.057068046 0.028924637 0.056618962 -0.011195413 -0.031508606 0.011306311 0.051263984 0.079029486
-0.039188188 -0.0101513155 0.032704633 0.14126992 0.048681855 0.1557924 0.08048656 0.0602457
0.003663057 0.006843133 0.016481785 -0.08498694 -0.13434325 0.04283233 0.027645325 -0.027736641
-0.065986365 0.054047205 -0.032126207 -0.0005993277 0.047629472 -0.14232779 -0.12060923 0.06529099
0.080651194 0.071511775 0.15899314 -0.054963447 0.017037872 -0.042678963 0.062365275 -0.06540067
0.016711403 0.13496251 0.061015736 -0.022145787 0.18801881 0.099680826 0.021405486 0.11289457
0.10420235 0.09287191 0.08170626 -0.019001357 0.08530141 0.030149367 0.06461555 0.040123012
0.05243937 0.020427926 0.03696717 0.09238016 0.08240024 -0.008481146 0.10373434 0.04285781
0.0050003706 -0.031665213 -0.0066261874 -0.036859103 0.047172528 0.016635468 0.010533162 0.05992817
00000000: 6dcb af3d 97f6 57bc cab5 7f3d 0c0e ce3d
00000010: e513 833c e4df aa3d 83db 52bc af6f e9bc
00000020: 2249 843c b353 3f3d 4ebf 9dbc 6073 a33d
00000030: 56f8 c23d ded9 20bd 0b9c a23d 085d aa3c
00000040: d029 1b3d 47ac 813d 4726 11bc 64af 133d
00000050: f390 1dbd 1c33 adbd 9a9e d9bd 5056 93bd
00000060: 00f4 a03d dc6b 3cbd 6713 0f3d 7dbc a43d
00000070: c4e8 dfbc 0252 8f3d c9ea bdbd ac74 d1bd
00000080: 404b 4ebc 0e35 573d ef88 3e3d 89d4 93bd
00000090: a88c 563c 7083 a63d cba6 50bd 1d92 7fbd
000000a0: 8448 97bd f917 8cbb f963 27bd f3dd 43bd
000000b0: ff01 7f3d b419 70bc 17c9 1bbd 05db 0c3e
000000c0: f8e9 0fbd 03e8 163d d57e 70bc b696 cb3d
000000d0: 9683 1a3d 2bb2 a43b b36b 963d d6e1 b43d
000000e0: bf7a 393e 975a 513e 5946 5ebd ec87 a03d
000000f0: 0c3b 85bd f036 a9bb 7bb6 603d 9082 07be
00000100: e454 36bd 27c5 d03d a9d2 27bd be7e d03b
00000110: 1f8d b2bd 2520 d63d 090f 833d 27de a6bc
00000120: e608 c43d 9d6e e33d 0500 273d 0ceb e5bd
00000130: 321f 0abd dc13 323d 2a43 caba 3500 71bc
00000140: 7d16 763d a059 6a3d eb9c d0bd dd7e 2b3d
00000150: f550 143d 6c12 d63d 64e9 f43c 8df2 34bd
00000160: 8523 a2bb ff75 02bd ce60 273c 81ac fabb
00000170: 172d 30bd 610f 3abe 4fcf c1bd 0b74 8ebd
00000180: 17c3 eb3d 4ba8 d9bd a361 04be 6685 f23c
00000190: ba0e 143e 6ffb ddb7 af19 693c bfb3 6fbc
000001a0: bf24 08be e45a 87bc fcd3 65bd a280 73bc
000001b0: ab80 f5bc 3f69 92bd ba9d 72bc f420 24bd
000001c0: 6413 b7bc e0b5 c63d 4be0 24bd 59dd 61bd
000001d0: 0ad9 af3d e444 563d e9f1 613d 269d 1dbd
000001e0: 45ae 8abd b27f ad3a 1ca5 883d 56da df3c
000001f0: ca1d 1d3e 914c df3d a5e6 82bd d6b5 37be
00000200: e0c2 bcbd ff46 3cbd 4447 9ebc bd20 273d
00000210: 8c3c 583d eda6 e8bd 1543 cabb 8428 90ba
00000220: 2982 b0bd ffa3 62bd 60d7 b33d abe0 c73c
00000230: 2c53 15bd 55f0 8bbd 08b9 4f3d d776 893d
00000240: 4712 6a3d 8e7c 88bd a40b 8ebd 2f33 153d
00000250: 3e38 173d 71fd 0b3d 473e 40bd 3a18 003d
00000260: d41c 72bc 5901 26bc 2eb4 7f3c 54f6 443d
00000270: 8c73 a9bd faef 2dbd 7ea9 293d 570a 7dbd
00000280: 026d 50bd 2e25 2bbe 0e23 3dbd 25a7 5cbd
00000290: 00e2 433d ea75 56be e360 c73a 5887 f6bd
000002a0: 3df0 96bb 7252 f0bc e2e5 2ebe 94a6 65bc
000002b0: 38e1 dbbc 0b4f dfbd 2f1d c4bd 734d a33c
000002c0: 977c bbbc db8f 7a3d f6e5 0d3e 41c9 963d
000002d0: f6ca 533c 21b3 203e 8d41 d4bd ed94 023d
000002e0: 2fc0 693d 5cf3 ec3c 49e9 673d f76c 37bc
000002f0: 2b0f 01bd 1b3e 393c 2ffa 513d 36da a13d
00000300: cb83 20bd b451 26bc 4bf5 053d 10a9 103e
00000310: a066 473d 0b88 1f3e 23d6 a43d 32c4 763d
00000320: e60f 703b 5c3c e03b cf04 873c a20d aebd
00000330: 4791 09be f470 2f3d 7378 e23c f437 e3bc
00000340: dc23 87bd 9a60 5d3d c596 03bd 331c 1dba
00000350: 1f17 433d 60be 11be f901 f7bd 48b7 853d
00000360: 742c a53d c474 923d 19cf 223e 5a21 61bd
00000370: 0293 8b3c 23d0 2ebd bb72 7f3d c9f0 85bd
00000380: 5ae6 883c 9d33 0a3e a3eb 793d 156b b5bc
00000390: 0188 403e 7625 cc3d 8f5a af3c 4535 e73d
000003a0: 0b68 d53d a133 be3d 9d55 a73d bca8 9bbc
000003b0: 81b2 ae3d cefb f63c 2855 843d 0758 243d
000003c0: aaca 563d 7758 a73c e36a 173d cf31 bd3d
000003d0: 75c1 a83d 81f4 0abc ab72 d43d ac8b 2f3d
000003e0: 26da a33b 62b3 01bd 7d20 d9bb 92f9 16bd
000003f0: fb37 413d 1b47 883c 4993 2c3c 3e77 753d

bn1.weight f4 [16]
0.961357 0.9927756 0.99453086 0.9533621 0.98377115 0.9750977 0.962592 0.99707955
0.96929365 0.96866965 0.96535814 1.0333202 0.94651806 1.0153805 0.97700316 1.030621
00000000: 7e1b 763f 8b26 7e3f 9399 7e3f 8a0f 743f
00000010: 6dd8 7b3f 01a0 793f 6e6c 763f 9b40 7f3f
00000020: a123 783f bcfa 773f b621 773f d643 843f
00000030: 024f 723f fdf7 813f e11c 7a3f 64eb 833f

bn1.bias f4 [16]
-0.029486932 -0.033878036 -0.051030073 0.015239528 -0.013919645 0.0354991 -0.048113782 -0.021648051
0.045997545 0.020385908 -0.0053214845 0.01520172 -0.0054001263 -0.021464936 -0.031255037 0.004495532
00000000: 948e f1bc b2c3 0abd e904 51bd 37af 793c
00000010: 390f 64bc 8167 113d f512 45bd 4157 b1bc
00000020: ec67 3c3d 5900 a73c d95f aebb a310 793c
00000030: 8bf3 b0bb 3cd7 afbc 4805 00bd 414f 933b

bn1.running_mean f4 [16]
-0.37977836 0.25686932 0.052323002 -0.5251758 0.09885901 -0.16933188 0.6109083 0.035425648
-0.37898076 -0.061651856 0.12970693 0.053980242 -0.41507107 0.2708974 -0.039249055 0.48967946
00000000: 4f72 c2be 6084 833e a550 563d ec71 06bf
00000010: 9876 ca3d 5665 2dbe 7d64 1c3f 7c1a 113d
00000020: c409 c2be a886 7cbd e5d1 043e 631a 5d3d
00000030: 3284 d4be 10b3 8a3e 9ec3 20bd 44b7 fa3e

bn1.running_var f4 [16]
0.38094354 0.1801282 0.09799982 0.73876625 0.08503445 0.19635865 0.9037533 0.109698124
0.41587433 0.045687113 0.081636555 0.077743635 0.43308872 0.18839453 0.11526735 0.5883833
00000000: 080b c33e 8773 383e 21b4 c83d c91f 3d3f
00000010: 8b26 ae3d 3e12 493e 605c 673f 69a9 e03d
00000020: 7bed d43e 6922 3b3d 1131 a73d 0e38 9f3d
00000030: cebd dd3e 7fea 403e 4a11 ec3d 4aa0 163f

layer1.0.conv1.weight f4 [16, 16, 3, 3]
-0.014824472 -0.034942117 -0.17486234 0.0417529 0.0616183 -0.1410577 -0.12290919 0.036787655
0.1242096 0.056133687 0.09418707 0.21825974 0.13189904 -0.030070236 -0.0064247465 0.025982346
0.26047108 0.017887942 -0.25926724 0.009762701 0.020896684 -0.17739676 0.10968392 0.22581336
-0.02419706 -0.15462936 0.15388706 0.029684432 -0.02093387 -0.118281186 0.04076715 0.012966824
0.07447725 0.12122065 0.022841694 0.1236794 -0.008138049 0.16642912 -0.018018048 0.0923659
-0.01245244 0.03741115 -0.05342999 0.057585366 0.18113866 -0.12315264 -0.16944672 -0.06820632
-0.028604755 0.07691989 -0.0016621563 -0.07032241 -9.33263e-06 0.056655753 0.11176541 -0.020428922
-0.09316801 0.035730682 0.0062724845 -0.08000534 -0.03538579 0.085106306 -0.034947388 -0.082709566
-0.1413249 -0.2595251 0.02315764 0.12470119 0.2764467 -0.24861574 -0.06130173 0.32553804
0.0462073 -0.3261133 0.016249547 0.15761879 0.13966937 -0.0900739 -0.10571198 -0.10101702
0.10027945 -0.04138849 -0.1004124 -0.07672423 0.041876387 -0.07954251 0.07752402 -0.056304965
0.09804933 -0.02126787 -0.22657588 0.038665775 0.19830495 -0.010659527 -0.03636995 -0.04767565
-0.03442726 -0.010438224 -0.094904274 0.02340971 0.005402305 0.16923931 0.05724653 0.180545
-0.033657458 -0.05336187 0.0536173 0.010946464 0.15892257 0.029678812 0.12676324 0.11009443
0.11603253 -0.04211409 -0.09693897 0.05218811 0.2034616 0.07612976 0.118079744 0.016963404
0.012901768 0.033325456 -0.12741448 0.10142465 0.05390023 -0.0041807014 0.12256904 0.0052586137
0.0051692086 0.11694418 0.08255024 0.017231762 0.044090793 -0.0734334 0.021681622 0.15408313
-0.03930182 0.13289359 -0.010332692 -0.14852175 0.019367455 -0.111527056 -0.028192736 -3.8780807e-05
0.14928058 -0.020619122 -0.052111696 0.06596361 -0.21012053 -0.09538119 -0.14919224 0.008622612
0.19475286 0.02779738 0.025555953 0.16114502 -0.07351223 0.11031485 0.013855365 0.032352727
0.0047992673 0.053520493 -0.061103813 -0.11515543 -0.07695435 0.07621848 -0.13534813 -0.17705123
0.09369092 0.36680454 0.13042486 0.12676154 -0.06974689 0.092586055 0.022710774 0.041906863
0.09581895 -0.11689698 -0.14656438 0.24088071 0.109850556 -0.024012407 0.089682736 0.09558052
0.16174056 -0.057846267 0.06833857 0.1292882 0.10385772 -0.061443735 -0.08443874 -0.13561241
0.014381129 0.028471021 0.012346762 -0.19636086 -0.17138396 0.087235555 -0.20295851 0.027489057
-0.08150502 0.33118415 0.05845995 0.03665116 0.013300146 -0.034153305 0.11294706 0.042030063
-0.050886407 0.14393145 0.04392442 0.022874631 0.11191968 0.13851756 0.002552104 0.058612127
-0.064579494 0.02271551 -0.0073719127 -0.051125407 0.060169853 0.027105622 0.19711876 0.014673762
-0.21197276 0.23969072 0.080800526 -0.002511166 0.1986305 0.3150161 0.12824745 0.070607364
0.09652526 0.055427365 0.044332635 0.01610013 -0.07242893 -0.2728892 0.22604448 0.015417538
0.1326795 -0.17346524 -0.27596527 -0.13730708 -0.070438325 0.08656055 -0.13261259 -0.09694013
0.030615136 0.019225461 0.096816294 -0.23993528 0.07756533 0.18277894 0.06911587 -0.021398969
00000000: 58e2 72bc 771f 0fbd 1d0f 33be 1705 2b3d
00000010: 7863 7c3d 6e71 10be d0b7 fbbd a7ae 163d
00000020: 9a61 fe3d 70ec 653d 27e5 c03d 7b7f 5f3e
00000030: 8b10 073e db55 f6bc ae86 d2bb eed8 d43c
00000040: 775c 853e bc89 923c adbe 84be bcf3 1f3c
00000050: 862f ab3c 7fa7 35be f7a1 e03d 9e3b 673e
00000060: ea38 c6bc 2957 1ebe 9294 1d3e c42c f33c
00000070: 827d abbc 683d f2bd 75fb 263d cd72 543c
00000080: 8787 983d 8842 f83d 811e bb3c a04b fd3d
00000090: 7455 05bc 656c 2a3e 969a 93bc 552a bd3d
000000a0: 5205 4cbc 6f3c 193d 68d9 5abd a2de 6b3d
000000b0: 6a7c 393e 7437 fcbd 7183 2dbe c1af 8bbd
000000c0: 8554 eabc 2d88 9d3d b6dc d9ba 3205 90bd
000000d0: 5793 1cb7 dd0f 683d 43e5 e43d 8e5a a7bc
000000e0: dfce bebd 565a 123d 6a89 cd3b d7d9 a3bd
000000f0: b1f0 10bd 374c ae3d fe24 0fbd a263 a9bd
00000100: 79b7 10be 79e0 84be 17b5 bd3c 5663 ff3d
00000110: 6c8a 8d3e 2095 7ebe 8617 7bbd ecac a63e
00000120: de43 3d3d 53f8 a6be c51d 853c d266 213e
00000130: 7d05 0f3e aa78 b8bd 867f d8bd 03e2 cebd
00000140: 505f cd3d fa86 29bd 04a5 cdbd 9821 9dbd
00000150: 9386 2b3d 2fe7 a2bd eac4 9e3d 09a0 66bd
00000160: 16ce c83d f539 aebc 8203 68be 0160 1e3d
00000170: 7410 4b3e 4ca5 2ebc a8f8 14bd 8b47 43bd
00000180: 9903 0dbd 1605 2bbc 2c5d c2bd b8c5 bf3c
00000190: d205 b13b 124d 2d3e 567b 6a3d cae0 383e
000001a0: 67dc 09bd fa91 5abd d09d 5b3d cc58 333c
000001b0: 99bc 223e fb20 f33c 39ce 013e 3079 e13d
000001c0: 77a2 ed3d d37f 2cbd f087 c6bd 33c3 553d
000001d0: 3d58 503e ebe9 9b3d cbd3 f13d d6f6 8a3c
000001e0: f061 533c 4680 083d f178 02be bab7 cf3d
000001f0: 7dc6 5c3d 44fe 88bb 7a05 fb3d 7350 ac3b
00000200: 7762 a93b 6e80 ef3d 1a10 a93d a029 8d3c
00000210: 8c98 343d 4064 96bd a89d b13c f8c7 1d3e
00000220: f2fa 20bd 4215 083e 744a 29bc 1616 18be
00000230: 7fa8 9e3c 4c68 e4bd 74f4 e6bc 93a8 22b8
00000240: 02dd 183e 6fe9 a8bc 1373 55bd ee17 873d
00000250: d629 57be 3757 c3bd dac5 18be db45 0d3c
00000260: 4b6d 473e 55b7 e33c b85a d13c 3303 253e
00000270: 948d 96bd c1ec e13d 9d01 633c 4b84 043d
00000280: 2c43 9d3b 4e38 5b3d fe47 7abd 9cd6 ebbd
00000290: 3e9a 9dbd 6f18 9c3d b398 0abe eb4c 35be
000002a0: 06e1 bf3d cecd bb3e 188e 053e c7cd 013e
000002b0: 75d7 8ebd c29d bd3d f20b ba3c 88a6 2b3d
000002c0: ba3c c43d af67 efbd f914 16be 6fa9 763e
000002d0: 54f9 e03d abb5 c4bc 95ab b73d b8bf c33d
000002e0: 519f 253e 35f0 6cbd 18f5 8b3d 2064 043e
000002f0: 5bb3 d43d 6dac 7bbd 38ee acbd fbdd 0abe
00000300: d49e 6b3c 0f3c e93c 134a 4a3c d212 49be
00000310: 477f 2fbe 8ea8 b23d 5bd4 4fbe bb30 e13c
00000320: 1bec a6bd f890 a93e b373 6f3d 871f 163d
00000330: dbe8 593c 56e4 0bbd ca50 e73d b727 2c3d
00000340: 446e 50bd c462 133e 18ea 333d 9463 bb3c
00000350: 2536 e53d 8cd7 0d3e 3341 273b 4513 703d
00000360: 4142 84bd e115 ba3c 1690 f1bb e068 51bd
00000370: aa74 763d 9c0c de3c 80d9 493e 386a 703c
00000380: 630f 59be 7c71 753e bf7a a53d 6092 24bb
00000390: cb65 4b3e ca49 a13e 4d53 033e 989a 903d
000003a0: 09af c53d ce07 633d 2396 353d 6be4 833c
000003b0: 9e55 94bd 22b8 8bbe 3478 673e d799 7c3c
000003c0: 23dd 073e dfa0 31be 524b 8dbe 3a9a 0cbe
000003d0: f841 90bd a846 b13d 98cb 07be 8c88 c6bd
000003e0: 98cc fa3c b77e 9d3c 9f47 c63d 98b1 75be
000003f0: 92da 9e3d 672a 3b3e 9f8c 8d3d e44c afbc

layer1.0.bn1.weight f4 [16]
1.0192022 0.9663642 0.9593733 0.9792965 1.0415363 0.9935039 1.0566592 1.0192412
0.9495265 0.9122838 0.96188134 1.0189649 1.0386605 0.96400094 0.94516283 0.9848766
00000000: 3875 823f a563 773f 7d99 753f 2db3 7a3f
00000010: 1051 853f 4656 7e3f 9c40 873f 7f76 823f
00000020: 2b14 733f 6e8b 693f db3d 763f 716d 823f
00000030: d4f2 843f c4c8 763f 31f6 713f df20 7c3f

layer1.0.bn1.bias f4 [16]
-0.026729206 0.016417615 -0.02182954 -0.029547209 0.013477235 0.02139236 0.0051494148 0.03063226
-0.051823165 -0.018835122 -0.0444505 0.02668574 -0.020310866 -0.0208516 -0.055941574 0.023258727
00000000: 35f7 dabc 3c7e 863c ddd3 b2bc fd0c f2bc
00000010: 9fcf 5c3c 083f af3c 6cbc a83b 81f0 fa3c
00000020: 8744 54bd 1d4c 9abc ba11 36bd 0e9c da3c
00000030: f962 a6bc fad0 aabc fe22 65bd 1689 be3c

layer1.0.bn1.running_mean f4 [16]
1.0843588 1.1004623 -0.9385642 -2.069382 -0.1097909 -0.25625116 0.5656403 -1.3556987
0.852136 0.38956335 -0.7436474 0.115919575 1.1048566 1.6273522 -0.37835175 -0.2956487
00000000: 45cc 8a3f f3db 8c3f be45 70bf c170 04c0
00000010: 0dda e0bd 5a33 83be cdcd 103f 8987 adbf
00000020: 9625 5a3f d974 c73e ad5f 3ebf 3e67 ed3d
00000030: f16b 8d3f 144d d03f 52b7 c1be 445f 97be

layer1.0.bn1.running_var f4 [16]
0.60889256 2.520456 2.6723583 1.663398 0.39045042 1.3487862 0.40939355 1.3261229
1.0999309 1.7132261 4.208087 0.92100275 0.82842547 1.048754 2.3890498 0.7201838
00000000: 62e0 1b3f 274f 2140 eb07 2b40 3aea d43f
00000010: 1ee9 c73e 07a5 ac3f 089c d13e 65be a93f
00000020: 89ca 8c3f fe4a db3f a6a8 8640 d6c6 6b3f
00000030: b113 543f 923d 863f 31e6 1840 f75d 383f

layer1.0.conv2.weight f4 [16, 16, 3, 3]
0.17921367 -0.12540142 -0.045194246 -0.004538891 0.0073918877 -0.067323655 0.17351449 -0.15363628
0.03269166 0.04571078 -0.049482632 0.206359 0.241486 -0.013231608 0.12944156 0.023557663
0.0449993 0.046313364 0.107824445 0.18401684 -0.17614496 -0.0657607 -0.086033955 0.10696792
-0.026183136 0.05301003 -0.035699077 -0.1010468 -0.016359545 0.0019533974 0.005420885 0.08225621
-0.012834224 -0.048971385 0.09520695 -0.021864697 0.20861477 0.03289064 -0.026243031 0.14716275
-0.07344433 0.080732025 -0.020902393 0.18062566 0.13821518 -0.008261849 -0.17679267 0.04543008
-0.045109224 -0.2094112 0.16909644 0.05039174 -0.2378036 -0.05219511 0.18327188 0.12606567
0.19596435 -0.033221748 -0.09356251 -0.1245965 -0.011985932 -0.07513373 -0.12910624 -0.20292969
0.09275076 0.13282111 0.035312537 -0.13507701 0.013224053 -0.07678451 0.21400619 0.29107258
-0.10122918 0.1306321 0.20472881 -0.17527354 -0.03410927 0.13762525 0.054845005 0.09699115
0.12215708 -0.11315417 -0.04812688 0.16893569 0.00514843 0.148975 0.26107046 0.102440834
-0.08281878 -0.056829005 0.14961861 0.15136954 -0.075314306 0.078582 0.111029215 -0.22208177
-0.1546655 -0.22725448 0.030763106 -0.0677026 0.13902883 0.114070505 0.034181938 0.20831832
-0.0579358 0.2466947 -0.16494493 0.023950737 -0.030527024 0.016012283 -0.024399022 -0.044333894
-0.0575096 0.013864062 -0.046331797 -0.05295527 -0.022265706 -0.066384844 -0.034301963 -0.044294484
0.08396274 -0.15075925 0.04631901 0.10248092 -0.12553075 -0.034502164 0.039738987 0.0029568116
-0.02715456 0.061143205 0.18070616 -0.15346701 -0.09448807 0.1344399 -0.05116704 -0.08005411
0.09857819 0.2207599 -0.13708252 -0.14367655 0.056308854 0.09775599 -0.2086824 -0.17967537
-0.20462966 0.018770322 0.11616874 -0.17847623 -0.036378354 -0.060388703 0.014355189 -0.1755432
-0.12883684 0.015699405 -0.061183173 0.15915735 0.055221826 0.023967689 -0.11130789 -0.0674049
0.26819727 0.15885186 -0.026646528 0.22166622 -0.082367785 0.08560779 0.16766849 0.062449362
0.04045541 0.08125648 -0.13323067 -0.16138817 0.0897865 -0.30796343 -0.09997838 -0.12837298
-0.21818115 -0.060586803 0.2288667 0.059764456 0.13470128 0.04596066 0.0062388675 -0.045345876
-0.1619429 -0.33899257 -0.04588476 -0.1191537 0.04754323 0.10537375 0.17746726 -0.12666883
-0.23627612 -0.030588644 0.114296146 -0.06735393 0.01964688 -0.10777904 -0.06104922 0.049629964
0.08860369 0.13451919 0.021084744 0.32738608 0.059880324 -0.06958701 -0.17080718 0.022547372
-0.054777008 0.118596375 0.053123575 0.04929882 -0.03001885 -0.014938433 0.0022571115 -0.09103343
0.000837534 0.1668221 -0.16067344 -0.0067825564 0.0016529282 0.108621135 -0.16298273 -0.031785794
0.1626744 0.022661336 -0.15201527 0.06955628 0.16537522 -0.05511564 0.22903772 -0.00985445
0.038458735 -0.13589907 0.075018674 0.041304983 0.11324569 0.1082376 0.03861593 -0.0060930303
0.15487574 0.04358611 -0.17188625 -0.08555576 -0.30018464 -0.12439819 -0.113496035 -0.2121818
-0.21254669 -0.22901551 -0.23283766 0.11866255 -0.07792724 -0.017219642 -0.018005945 -0.08409641
00000000: ca83 373e 3b69 00be 9a1d 39bd faba 94bb
00000010: a637 f23b fce0 89bd c8ad 313e d452 1dbe
00000020: b1e7 053d 3a3b 3b3d 4dae 4abd c64f 533e
00000030: 1b48 773e 63c9 58bc 548c 043e 00fc c03c
00000040: 3051 383d 15b3 3d3d 10d3 dc3d e96e 3c3e
00000050: 585f 34be 8cad 86bd 9232 b0bd ff11 db3d
00000060: 047e d6bc 0c21 593d 3239 12bd a0f1 cebd
00000070: 7404 86bc 9204 003b aea1 b13b f275 a83d
00000080: a346 52bc 3896 48bd ddfb c23d 981d b3bc
00000090: 1c9f 553e 56b8 063d a0fb d6bc d5b1 163e
000000a0: fb69 96bd d556 a53d 7f3b abbc eff5 383e
000000b0: 4888 0d3e b55c 07bc 2309 35be e414 3a3d
000000c0: 73c4 38bd e46f 56be 9e27 2d3e 9267 4e3d
000000d0: c982 73be 8aca 55bd a0ab 3b3e 5c17 013e
000000e0: e1aa 483e 8713 08bd b49d bfbd 732c ffbd
000000f0: a460 44bc b7df 99bd 6d34 04be cdcc 4fbe
00000100: 1cf4 bd3d 4202 083e e1a3 103d a151 0abe
00000110: b3a9 583c 3241 9dbd 7024 5b3e 7707 953e
00000120: 3f51 cfbd 6cc4 053e 6ea4 513e e87a 33be
00000130: 29b6 0bbd a2ed 0c3e 28a5 603d 4ca3 c63d
00000140: 7e2d fa3d 60bd e7bd b120 45bd 7afd 2c3e
00000150: 29b4 a83b e78c 183e 07ab 853e 80cc d13d
00000160: e49c a9bd 88c5 68bd 9f35 193e 9e00 1b3e
00000170: 633e 9abd 9aef a03d 4963 e33d 6769 63be
00000180: a260 1ebe 66b5 68be e902 fc3c a9a7 8abd
00000190: 935d 0e3e cc9d e93d 5c02 0c3d 6651 553e
000001a0: 174e 6dbd 899d 7c3e 53e7 28be 5634 c43c
000001b0: cf13 fabc 312c 833c 75e0 c7bc 7597 35bd
000001c0: 308f 6bbd 1726 633c 69c6 3dbd a0e7 58bd
000001d0: 9266 b6bc c7f4 87bd 3780 0cbd 226e 35bd
000001e0: a8f4 ab3d a260 1abe 01b9 3d3d 84e1 d13d
000001f0: 228b 00be 2452 0dbd 59c5 223d 11c7 413b
00000200: 3d73 debc 4c71 7a3d 090b 393e 7526 1dbe
00000210: f682 c1bd 9daa 093e 8894 51bd 69f3 a3bd
00000220: 5de3 c93d e20e 623e 5c5f 0cbe f21f 13be
00000230: 1da4 663d 4b34 c83d d7b0 55be d2fc 37be
00000240: 708a 51be 38c4 993c e0e9 ed3d 79c2 36be
00000250: 7801 15bd 255a 77bd 0732 6b3c 99c1 33be
00000260: ceed 03be 0a9c 803c 359b 7abd 25fa 223e
00000270: 4830 623d e357 c43c 64f5 e3bd 950b 8abd
00000280: 2751 893e 10aa 223e d249 dabc 78fc 623e
00000290: 71b0 a8bd 2353 af3d 4ab1 2b3e e7ca 7f3d
000002a0: 92b4 253d cc69 a63d 9f6d 08be f142 25be
000002b0: fce1 b73d 62ad 9dbe 77c1 ccbd 3574 03be
000002c0: e16a 5fbe de29 78bd 085c 6a3e 93cb 743d
000002d0: 22ef 093e 3f41 3c3d 6a6f cc3b 99bc 39bd
000002e0: 5cd4 25be 6f90 adbe a8f1 3bbd db06 f4bd
000002f0: b1bc 423d 31ce d73d fab9 353e 79b5 01be
00000300: 5ef2 71be 0995 fabc 1914 ea3d dbf0 89bd
00000310: 7ef2 a03c 42bb dcbd bf0e 7abd ca48 4b3d
00000320: da75 b53d 66bf 093e eab9 ac3c 269f a73e
00000330: 1245 753d a283 8ebd 14e8 2ebe 44b5 b83c
00000340: db5d 60bd a8e2 f23d 1b98 593d 8fed 493d
00000350: 17ea f5bc 54c0 74bc 0cec 133b bc6f babd
00000360: f58d 5b3a 6ad3 2a3e 9487 24be 3540 debb
00000370: 11a7 d83a c274 de3d f2e4 26be d231 02bd
00000380: 1e94 263e 44a4 b93c e4a9 1bbe 8673 8e3d
00000390: 1f58 293e f0c0 61bd dd88 6a3e 8f74 21bc
000003a0: e886 1d3d 2029 0bbe 64a3 993d 6a2f 293d
000003b0: 5bed e73d adab dd3d bd2b 1e3d 0ba8 c7bb
000003c0: bf97 1e3e 5987 323d f302 30be dc37 afbd
000003d0: cdb1 99be 7ac4 febd 9c70 e8bd 3046 59be
000003e0: d7a5 59be 0b83 6abe ff6c 6ebe 5a05 f33d
000003f0: 5198 9fbd 3510 8dbc 3481 93bc bd3a acbd

layer1.0.bn2.weight f4 [16]
-0.09929014 -0.07944947 -0.12590338 0.092377014 -0.09597502 0.10693046 -0.10008118 -0.11304059
0.07419342 -0.10106455 -0.107787594 -0.10162297 -0.11156545 0.11951247 -0.098237045 0.1121115
00000000: a158 cbbd 67b6 a2bd d1ec 00be 2930 bd3d
00000010: 8d8e c4bd 5bfe da3d 5df7 ccbd d381 e7bd
00000020: b8f2 973d eefa cebd bebf dcbd b41f d0bd
00000030: 6d7c e4bd f4c2 f43d 8130 c9bd b79a e53d

layer1.0.bn2.bias f4 [16]
0.027297525 -0.018954713 -0.013438906 0.017657317 -0.01386571 0.043059867 -0.005623736 0.010167041
0.04057884 0.020676246 0.055546336 0.02055671 -0.0045226323 0.10065688 0.028703818 0.066695146
00000000: 0f9f df3c ea46 9bbc db2e 5cbc 14a6 903c
00000010: 012d 63bc 8b5f 303d 5147 b8bb a993 263c
00000020: ff35 263d 3b61 a93c 8e84 633d 8c66 a83c
00000030: 9732 94bb 3225 ce3d 4524 eb3c 7797 883d

layer1.0.bn2.running_mean f4 [16]
0.41893262 -0.62415576 -1.1349503 0.15391558 -0.39899376 -0.45587102 0.0061249593 0.012001798
-0.3210147 0.16914393 0.16705254 -0.7180051 0.24986726 0.28875786 -0.38577467 0.10217815
00000000: 567e d63e acc8 1fbf 0d46 91bf 0c9c 1d3e
00000010: e948 ccbe ed67 e9be e2b3 c83b 30a3 443c
00000020: 0a5c a4be 1134 2d3e d20f 2b3e 2fcf 37bf
00000030: 34dd 7f3e 12d8 933e 4284 c5be c742 d13d

layer1.0.bn2.running_var f4 [16]
0.72780675 0.38974252 0.3121949 0.970185 0.741254 0.4945168 0.3967461 0.4196064
0.54772884 1.0114223 0.37026826 0.5438691 0.4535293 0.41871017 0.77291936 0.6104622
00000000: 8b51 3a3f 558c c73e 03d8 9f3e 0b5e 783f
00000010: d2c2 3d3f 4e31 fd3e 4e22 cb3e a6d6 d63e
00000020: f537 0c3f 4976 813f cd93 bd3e 013b 0b3f
00000030: fe34 e83e 2e61 d63e 0bde 453f 4047 1c3f

layer1.1.conv1.weight f4 [16, 16, 3, 3]
-0.031781532 0.0702131 -0.020158552 -0.15282941 -0.0050433595 0.11566102 -0.037904102 0.10409508
0.06636019 -0.042119075 -0.049121894 -0.0701536 0.058517605 0.054654095 -0.07245241 0.043549217
0.041697167 0.10130837 0.07880577 -0.010072344 0.10470047 0.25128528 0.08168495 0.055242088
-0.012284268 -0.002775428 0.081567146 -0.2192674 0.005136865 0.061708126 -0.11261038 -0.06967356
0.09066419 -0.1995579 -0.2267111 -0.16129051 -0.103845514 -0.0409212 -0.041586004 0.026287535
-0.0445094 -0.023971656 -0.031157099 -0.07712935 -0.00026144492 -0.20300144 -0.0824552 -0.15683839
0.099347465 -0.20738319 0.063568875 -0.0051229955 -0.05615809 0.17850235 -0.17578948 -0.1591489
-0.029824274 -0.097266845 0.038817186 0.11342513 -0.0009837755 0.1458637 0.093215495 -0.09941892
0.19166148 -0.07234765 -0.06264415 0.33219123 -0.055048853 -0.06636695 0.042298492 -0.08071465
-0.0762193 0.040067635 -0.05372286 -0.15448302 -0.08042818 -0.13350223 0.0012527441 0.119827665
0.109624654 0.08129577 -0.15557802 0.100882635 -0.021051 0.1127623 0.33565918 -0.06934823
0.18258423 -0.005136099 -0.05447658 0.13146079 -0.18037595 0.033228662 -0.19445221 -0.07604396
0.016805159 0.025270907 -0.0284599 -0.049224693 -0.071657754 -0.121353514 0.16329011 -0.19643359
0.15433335 0.068504915 -0.058518548 0.012941685 0.0076613827 -0.316187 -0.09415414 0.10782749
0.014560661 -0.22035117 0.11732223 -0.04567112 0.09781228 -0.050390948 0.06381958 -0.05874935
0.14734142 -0.13035668 -0.14757156 -0.06772615 -0.039369732 -0.09308162 -0.010815416 -0.091906264
0.034543205 0.044969168 0.002624779 -0.11362155 -0.03284665 -0.15672562 -0.039359186 -0.17907114
-0.052283697 -0.08598043 -0.20016733 -0.20200396 -0.16740237 -0.07551269 0.030791504 0.10225728
-0.008758559 -0.1296667 -0.12427244 -0.013619807 0.036621343 -0.025531452 0.0945304 -0.2143748
-0.0026884882 -0.04189563 0.03144863 -0.070465975 0.23887855 0.14321089 -0.17258959 0.09257412
-0.07456395 -0.05773004 0.0051288577 -0.2728662 0.06407308 0.12473104 -0.15543917 0.028226916
0.17877933 -0.06620844 -0.21273567 0.03544622 0.22667393 0.1548719 -0.030677378 0.12774108
0.11999071 -0.14891548 -0.037489258 -0.1610151 -0.08251514 0.12414461 0.20511986 0.23910932
0.2338638 0.056670733 0.043030754 0.25372946 -0.11872253 0.049670562 0.059323695 0.1387467
0.04352989 0.2188801 -0.07499941 0.16648842 0.008579363 -0.3037594 0.026334915 0.015464381
-0.1111171 -0.01807745 0.06346663 -0.0776657 0.08772938 0.11580153 -0.13946739 -0.3072852
0.15253414 0.24700537 -0.05593777 0.2364403 -0.11704276 -0.035061203 0.15846883 0.22270301
0.05299962 0.06108013 0.05289643 0.06465264 -0.041770924 0.038370438 0.00901929 -0.015003122
0.06753687 0.0868902 0.025600402 -0.13714229 0.17012088 -0.09745464 0.078160875 0.054417703
0.090270825 -0.20703435 0.021984799 0.09569145 -0.082479976 -0.11444789 0.11274838 0.050071582
-0.10280777 0.05752474 0.10986685 -0.04586272 -0.0071781427 0.07400863 0.054087225 -0.20530598
-0.14805412 0.023274126 -0.0025430906 -0.016285824 0.12453667 0.19874997 0.121071585 0.3084371
00000000: 5a2d 02bd e3cb 8f3d 8c23 a5bc 507f 1cbe
00000010: c442 a5bb afdf ec3d 5541 1bbd cd2f d53d
00000020: dae7 873d 0d85 2cbd 0a34 49bd b1ac 8fbd
00000030: 28b0 6f3d f9dc 5f3d ee61 94bd aa60 323d
00000040: a6ca 2a3d c37a cf3d eb64 a13d 7906 25bc
00000050: 336d d63d 77a8 803e 704a a73d 8745 623d
00000060: f443 49bc f4e3 35bb ad0c a73d a287 60be
00000070: 2653 a83b a9c1 7c3d 45a0 e6bd 03b1 8ebd
00000080: 26ae b93d e858 4cbe f426 68be 5729 25be
00000090: f5ac d4bd fd9c 27bd 1656 2abd f558 d73c
000000a0: 7d4f 36bd 3560 c4bc 2c3d ffbc fef5 9dbd
000000b0: 8b12 89b9 9cdf 4fbe 46de a8bd 3e9a 20be
000000c0: af76 cb3d 425c 54be 6630 823d cdde a7bb
000000d0: 0606 66bd 52c9 363e 2802 34be eef7 22be
000000e0: 0952 f4bc d733 c7bd c5fe 1e3d 6f4b e83d
000000f0: 07f2 80ba 4b5d 153e c4e7 be3d 269c cbbd
00000100: e842 443e 012b 94bd 934b 80bd f814 aa3e
00000110: e87a 61bd 65eb 87bd 2f41 2d3d b94d a5bd
00000120: dd18 9cbd f61d 243d 800c 5cbd cc30 1ebe
00000130: 88b7 a4bd cfb4 08be 1e33 a43a 3568 f53d
00000140: e482 e03d 667e a63d d84f 1fbe 8e9b ce3d
00000150: 2673 acbc ecef e63d 85db ab3e 7206 8ebd
00000160: 5cf7 3a3e b94c a8bb d622 5fbd a89d 063e
00000170: 79b4 38be c71a 083d 7b1e 47be f0bc 9bbd
00000180: f9aa 893c ef04 cf3c bc24 e9bc d59f 49bd
00000190: 4dc1 92bd 3188 f8bd 8635 273e e325 49be
000001a0: 9009 1e3e 4e4c 8c3d 25b1 6fbd 5c09 543c
000001b0: 560c fb3b 43e3 a1be e3d3 c0bd a9d4 dc3d
000001c0: d78f 6e3c bda3 61be a346 f03d a411 3bbd
000001d0: ce51 c83d bd66 4ebd d7b3 823d 29a3 70bd
000001e0: abe0 163e 397c 05be 001d 17be 02b4 8abd
000001f0: 2842 21bd 94a1 bebd 2533 31bc 5a39 bcbd
00000200: 2d7d 0d3d 9731 383d 7c04 2c3b 6ab2 e8bd
00000210: 358a 06bd ae7c 20be 1937 21bd 6d5e 37be
00000220: 6e27 56bd 8216 b0bd aaf8 4cbe 20da 4ebe
00000230: 876b 2bbe 66a6 9abd 773e fc3c 446c d13d
00000240: 0f80 0fbc 59c7 04be 8d82 febd 9c25 5fbc
00000250: 4300 163d 5627 d1bc 2899 c13d 1185 5bbe
00000260: 5931 30bb c19a 2bbd 47d0 003d 7750 90bd
00000270: 949c 743e e0a5 123e 53bb 30be 8097 bd3d
00000280: fcb4 98bd 5676 6cbd fa0f a83b 1eb5 8bbe
00000290: bf38 833d fd72 ff3d 722b 1fbe 223c e73c
000002a0: ee11 373e 4a98 87bd 61d7 59be 0e30 113d
000002b0: 361d 683e bd96 1e3e 204f fbbc 8fce 023e
000002c0: b0bd f53d 4d7d 18be 568e 19bd 24e1 24be
000002d0: b3fd a8bd 873f fe3d f10a 523e 13d9 743e
000002e0: fe79 6f3e 921f 683d 0441 303d d4e8 813e
000002f0: cc24 f3bd 5c73 4b3d 67fd 723d 9d13 0e3e
00000300: 664c 323d 1b22 603e 4a99 99bd f17b 2a3e
00000310: 7590 0c3c 5a86 9bbe 52bc d73c 515e 7d3c
00000320: 5d91 e3bd 2917 94bc cbfa 813d 320f 9fbd
00000330: 76ab b33d 5a29 ed3d 8ad0 0ebe 7c54 9dbe
00000340: e931 1c3e faee 7c3e 011f 65bd 681d 723e
00000350: 1db4 efbd 569c 0fbd a745 223e 420c 643e
00000360: 2116 593d 292f 7a3d eda9 583d 9a68 843d
00000370: fd17 2bbd 522a 1d3d a5c5 133c a8cf 75bc
00000380: c550 8a3d 7df3 b13d efb7 d13c 076f 0cbe
00000390: 2b34 2e3e 4c96 c7bd cf12 a03d 19e5 5e3d
000003a0: e9df b83d d000 54be 7719 b43c e1f9 c33d
000003b0: 43eb a8bd a863 eabd 9fe8 e63d dc17 4d3d
000003c0: e18c d2bd 109f 6b3d df01 e13d 8cda 3bbd
000003d0: a036 ebbb d691 973d 918a 5d3d bb3b 52be
000003e0: 809b 17be 61a9 be3c fba9 26bb d969 85bc
000003f0: 150d ff3d 1d85 4b3e 61f4 f73d 78eb 9d3e

layer1.1.bn1.weight f4 [16]
1.0368418 0.99821293 1.0135151 0.9781687 0.96123797 1.0283163 0.95933104 1.034106
0.94050205 0.93278164 1.0136561 1.0002244 0.930224 0.96560407 1.053525 1.0066425
00000000: 3bb7 843f e28a 7f3f ddba 813f 4469 7a3f
00000010: b113 763f de9f 833f b896 753f 965d 843f
00000020: bec4 703f c7ca 6e3f 7cbf 813f 5a07 803f
00000030: 2923 6e3f d431 773f e8d9 863f a9d9 803f

layer1.1.bn1.bias f4 [16]
-0.03570383 0.023466378 -0.02847763 0.02140136 -0.025881207 0.01763207 -0.007691718 -0.034121215
-0.046044383 -0.047694072 -0.059361298 0.01452948 0.012500406 0.020248422 -0.027288882 0.04809179
00000000: 2e3e 12bd 903c c03c eb49 e9bc e851 af3c
00000010: d304 d4bc 2271 903c cf0a fcbb b0c2 0bbd
00000020: 0999 3cbd dc5a 43bd d524 73bd 0e0d 6e3c
00000030: 81ce 4c3c 05e0 a53c ef8c dfbc e6fb 443d

layer1.1.bn1.running_mean f4 [16]
-1.6938616 1.9076248 0.76340324 0.3242558 0.50132483 -1.7792559 -0.17796054 0.5840389
0.9323646 1.7557094 -0.593381 -0.06984073 1.0170871 1.8621533 -0.15718354 -0.080676004
00000000: 75d0 d8bf 0d2d f43f 656e 433f db04 a63e
00000010: d356 003f a8be e3bf 4a3b 36be 9383 153f
00000020: 72af 6e3f 16bb e03f d1e7 17bf a808 8fbd
00000030: e92f 823f 0a5b ee3f b9f4 20be 7639 a5bd

layer1.1.bn1.running_var f4 [16]
1.9449993 1.0419389 1.4516559 1.19745 2.5775528 1.2866606 0.5172099 0.70760757
1.8956357 1.0332816 0.5213404 0.524789 0.77031964 0.9410191 0.723732 0.60844254
00000000: bdf5 f83f 415e 853f dccf b93f 0b46 993f
00000010: a0f6 2440 4bb1 a43f de67 043f c525 353f
00000020: 31a4 f23f 9242 843f 9176 053f 9258 063f
00000030: ab33 453f a1e6 703f 8046 393f e4c2 1b3f

layer1.1.conv2.weight f4 [16, 16, 3, 3]
0.08982519 -0.05515023 0.012416975 -0.14823511 0.28807455 -0.040129807 0.10888055 0.05416121
-0.06456807 0.025628991 -0.075105935 -0.18561584 0.010750276 0.04292859 -0.026896855 -0.061392978
-0.012539294 0.020026416 0.018898075 -0.083234034 -0.040231273 -0.10270508 0.0898886 -0.10196386
-0.009304462 -0.27627376 0.17449848 0.21413773 0.07538792 -0.09425169 -0.0099358875 -0.13654184
-0.018372145 0.121330716 0.059134 0.057430316 0.1603972 -0.017155645 0.039780438 -0.091835886
0.24346443 0.11231141 -0.030128019 -0.10563194 0.011887971 0.09519812 0.13868922 -0.00022465739
0.06282339 0.019767752 0.10096404 -0.022631569 -0.1351532 0.005996689 -0.11227466 0.0065558157
0.12810951 0.12878878 -0.07188986 0.12689778 -0.045365486 0.024859397 0.10286213 -0.018150216
0.049332146 0.03064412 0.13271745 0.043125816 0.1347205 0.023090001 0.006882719 -0.18747444
-0.2924407 -0.12230587 0.2542408 -0.03296916 0.047057923 -0.08861847 -0.0104097435 -0.014130229
0.09099178 -0.006275239 0.0077690138 0.1763453 0.09736056 0.21059757 -0.25425968 -0.006542272
0.018636974 0.21796222 -0.13141054 -0.11009197 -0.015006121 -0.1248432 -0.24217018 0.019945703
-0.17288946 0.042389225 -0.13114107 0.12887672 0.13391525 0.046220314 0.04657042 -0.055177618
0.046337184 -0.05583336 0.42075196 0.049370624 0.04121834 0.01649488 0.04264997 0.1542085
-0.049122024 -0.071084306 -0.057671107 -0.0736284 -0.09225317 -0.1959388 -0.069268376 0.018065458
-0.0886273 0.08191691 0.07840499 -0.17606623 -0.048191123 -0.023362428 0.056122236 -0.05887577
0.04830741 -0.21565233 -0.12465986 -0.07425791 -0.1034439 -0.074960336 -0.1747818 -0.11110204
0.03997583 0.14297062 0.098677695 0.21186623 -0.047301345 -0.036161054 0.1613607 0.03157485
0.2467833 0.054679353 -0.18799298 0.020029863 0.19089438 0.10911067 -0.0035609049 0.060622692
0.12021715 -0.020618092 -0.08522147 -0.007003682 -0.20400365 0.110811 0.08660527 -0.015269481
0.039313413 0.05751032 -0.06602342 -0.14003806 0.23940437 -0.017478667 -0.21671128 -0.059803758
0.029616363 0.02746663 -0.27820814 -0.026964117 -0.1672912 -0.045351133 0.0027985657 -0.21985516
-0.059257496 -0.14978597 0.10793581 -0.024951812 0.06767646 0.15756585 0.13141875 0.034048602
-0.23028189 -0.025754867 -0.013171652 0.038496938 -0.0645695 -0.15729326 0.0031757348 0.02095219
0.32937038 0.05612288 0.077436484 0.32497606 0.21160273 -0.002462062 0.055626858 0.07781693
0.108321086 0.09566492 -0.09126511 -0.061864305 -0.07570584 -0.2019564 -0.20776083 -0.18662459
-0.07152135 -0.2143212 0.14256796 -0.0039140303 0.2059774 0.11215852 0.11689922 0.101712346
-0.1964835 -0.11494973 0.08958638 -0.07939553 -0.03007308 -0.094889544 0.04972226 0.059259683
-0.15424526 -0.03210417 -0.05906228 -0.026412232 0.06635207 0.0917885 0.13129438 0.052454617
-0.009952174 0.028776962 -0.01594468 -0.07588162 -0.0025625725 0.053889044 -0.037563615 -0.038141858
-0.24700539 0.09022251 -0.20914581 0.13147332 -0.01743789 0.08761042 0.1132604 0.060191594
0.03122886 0.04918644 -0.0011152455 -0.2422211 0.07525317 -0.033838384 0.23978746 -0.08964262
00000000: 45f6 b73d 35e5 61bd 9170 4b3c f2ca 17be
00000010: 827e 933e 275f 24bd c4fc de3d 25d8 5d3d
00000020: 443c 84bd e4f3 d13c 24d1 99bd 1412 3ebe
00000030: ed21 303c e4d5 2f3d cb56 dcbc 3477 7bbd
00000040: 9c71 4dbc 700e a43c 23d0 9a3c 9b76 aabd
00000050: 8cc9 24bd 0a57 d2bd 8417 b83d 6ed2 d0bd
00000060: be71 18bc c173 8dbe bbaf 323e ec46 5b3e
00000070: fb64 9a3d 0807 c1bd 22ca 22bc a0d1 0bbe
00000080: 2e81 96bc 3d7c f83d 7e36 723d 0d3c 6b3d
00000090: 2a3f 243e ff89 8cbc d0f0 223d 7414 bcbd
000000a0: bd4e 793e 8603 e63d 09cf f6bc 8f55 d8bd
000000b0: c4c5 423c 3bf7 c23d 8c04 0e3e 0292 6bb9
000000c0: 8da9 803d fbef a13c 3cc6 ce3d d765 b9bc
000000d0: 9a65 0abe e07f c43b 42f0 e5bd 2bd2 d63b
000000e0: 242f 033e 35e1 033e fe3a 93bd 7ef1 013e
000000f0: 29d1 39bd efa5 cb3c 61a9 d23d c3af 94bc
00000100: 8110 4a3d 6109 fb3c 15e7 073e b2a4 303d
00000110: 2cf4 093e 3e27 bd3c 6f88 e13b 4df9 3fbe
00000120: caba 95be 807b fabd da2b 823e ab0a 07bd
00000130: cfbf 403d 9a7d b5bd a18d 2abc 7a82 67bc
00000140: e659 ba3d 85a0 cdbb 3693 fe3b dd93 343e
00000150: f964 c73d e4a6 573e 532e 82be 8e60 d6bb
00000160: 91ac 983c 7d31 5f3e 7c90 06be e677 e1bd
00000170: 3cdc 75bc cbad ffbd 76fb 77be 2c65 a33c
00000180: ef09 31be 53a0 2d3d d849 06be 42f8 033e
00000190: 1421 093e 8351 3d3d a0c0 3e3d ed01 62bd
000001a0: 0fcc 3d3d 85b1 64bd cd6c d73e da38 4a3d
000001b0: 90d4 283d 4520 873c bcb1 2e3d d5e8 1d3e
000001c0: 2d34 49bd a694 91bd 8a38 6cbd 7dca 96bd
000001d0: 3bef bcbd 2ea4 48be 94dc 8dbd 03fe 933c
000001e0: 3b82 b5bd 0ec4 a73d cc92 a03d b54a 34be
000001f0: 0e64 45bd 9062 bfbc 6ee0 653d b827 71bd
00000200: fedd 453d f7d3 5cbe ab4d ffbd 8814 98bd
00000210: 65da d3bd ce84 99bd 00fa 32be 7789 e3bd
00000220: b2bd 233d e466 123e 8817 ca3d 76f3 583e
00000230: 0ebf 41bd 9d1d 14bd bd3b 253e a154 013d
00000240: c3b4 7c3e 75f7 5f3d 3b81 40be ab15 a43c
00000250: d179 433e 6a75 df3d 125e 69bb 804f 783d
00000260: 6934 f63d 46e7 a8bc 9888 aebd 257f e5bb
00000270: 55e6 50be e1f0 e23d 1b5e b13d d82c 7abc
00000280: 1a07 213d f18f 6b3d 4937 87bd 2366 0fbe
00000290: 6b26 753e 6c2f 8fbc 90e9 5dbe c9f4 74bd
000002a0: 049e f23c b301 e13c 4c71 8ebe dae3 dcbc
000002b0: 624e 2bbe 1cc2 39bd 2468 373b b621 61be
000002c0: fdb7 72bd 7e61 19be 730d dd3d be67 ccbc
000002d0: f599 8a3d f158 213e a392 063e 8c76 0b3d
000002e0: 04cf 6bbe dffb d2bc eacd 57bc f7ae 1d3d
000002f0: 043d 84bd 7c11 21be fd1f 503b eda3 ab3c
00000300: 3ca3 a83e 1be1 653d 0597 9e3d 4363 a63e
00000310: 63ae 583e 8c5a 21bb fdd8 633d 7c5e 9f3d
00000320: 72d7 dd3d f8eb c33d 34e9 babd 6d65 7dbd
00000330: aa0b 9bbd a9cd 4ebe 41bf 54be 841a 3fbe
00000340: c979 92bd 0477 5bbe 56fd 113e 4441 80bb
00000350: bdeb 523e 5eb3 e53d dc68 ef3d 904e d03d
00000360: f832 49be c46a ebbd 1079 b73d 209a a2bd
00000370: d25b f6bc 7355 c2bd 92a9 4b3d 48ba 723d
00000380: 78f2 1dbe aa7f 03bd 4aeb 71bd 775e d8bc
00000390: 98e3 873d 9cfb bb3d 0972 063e a7da 563d
000003a0: 710e 23bc aabd eb3c 6b9e 82bc d367 9bbd
000003b0: d5f0 27bb c2ba 5c3d 4edc 19bd a33a 1cbd
000003c0: fbee 7cbe 94c6 b83d 522a 56be f1a0 063e
000003d0: e8d9 8ebc 186d b33d 12f5 e73d 768b 763d
000003e0: abd3 ff3c b877 493d 6e2d 92ba cf08 78be
000003f0: 561e 9a3d 1e9a 0abd d88a 753e 8d96 b7bd

layer1.1.bn2.weight f4 [16]
0.12010895 -0.094871245 -0.11418871 0.11951848 -0.11202986 0.047373172 -0.085073374 0.12806894
0.10127903 0.09257781 -0.107568204 0.11486141 -0.1087877 -0.11903111 -0.112410866 -0.120337136
00000000: aefb f53d db4b c2bd c5db e9bd 1bc6 f43d
00000010: e96f e5bd 5f0a 423d f33a aebd 8124 033e
00000020: 616b cf3d 6f99 bd3d b84c dcbd 753c eb3d
00000030: 16cc debd 95c6 f3bd ab37 e6bd 5173 f6bd

layer1.1.bn2.bias f4 [16]
0.04567349 0.0047535063 0.011973743 0.029739745 -0.0088148 0.024241809 0.02123407 0.02497724
0.030858781 0.009716839 0.037936624 0.07785545 -0.0029568125 0.095194206 0.07534709 0.05747222
00000000: 2014 3b3d 4dc3 9b3b 852d 443c c4a0 f33c
00000010: f36b 10bc c296 c63c 13f3 ad3c 129d cc3c
00000020: 8ecb fc3c 6033 1f3c 6f63 1b3d ae72 9f3d
00000030: 15c7 41bb 2ef5 c23d 934f 9a3d fe67 6b3d

layer1.1.bn2.running_mean f4 [16]
0.15969807 0.11780609 -0.30705383 -0.044813517 -0.08617584 -0.1758938 -0.47649246 -0.329891
-0.32822067 -0.3065682 -0.009070514 0.3784971 0.46513522 0.45852342 -0.60145795 0.33892635
00000000: e487 233e 5244 f13d 2936 9dbe 618e 37bd
00000010: f57c b0bd 811d 34be d2f6 f3be 79e7 a8be
00000020: 8a0c a8be 82f6 9cbe 7e9c 14bc 5fca c13e
00000030: 3426 ee3e 95c3 ea3e 26f9 19bf c187 ad3e

layer1.1.bn2.running_var f4 [16]
0.30911192 0.47648528 0.51257753 0.39136901 0.49714646 1.0351602 0.7654554 0.41570753
1.6186949 1.6302298 0.38400722 0.63658035 0.58695865 0.53178084 0.40124437 0.587873
00000000: eb43 9e3e e1f5 f33e 4838 033f 8561 c83e
00000010: fb89 fe3e 2180 843f e3f4 433f 9ed7 d43e
00000020: 6531 cf3f 5fab d03f 989c c43e eef6 223f
00000030: ec42 163f ca22 083f e76f cd3e d87e 163f

layer2.0.conv1.weight f4 [32, 16, 3, 3]
0.008138287 -0.0025650745 -0.041884605 -0.001723846 -0.11187434 -0.13067643 -0.07220139 -0.05072233
-0.15512036 0.089824826 0.10915153 -0.0328503 -0.053627305 0.058185898 -0.08080699 0.034644485
-0.16101189 -0.018916156 -0.109312996 0.09980576 -0.15515907 -0.013475908 0.019502118 -0.023682704
0.048163492 0.037689786 -0.15767877 -0.027215624 -0.0934151 -0.028012171 -0.07335163 0.03939404
0.03602647 -0.06013413 0.03538009 0.09135198 -0.10561166 -0.011536578 0.15229079 -0.07297292
-0.088217124 0.0077694184 -0.07722629 0.087937765 -0.12961474 0.02462675 -0.17838871 -0.10801905
0.089519694 0.039257076 0.00039586864 0.09069607 -0.08880847 0.016924068 0.056241997 0.06389947
0.124607086 -0.06554634 0.021835681 -0.021844637 -0.036863476 0.009193858 -0.015912294 0.11835067
-0.0055249515 0.03965049 0.009279311 0.08352195 -0.089945555 0.14184336 -0.07008774 -0.08635723
-0.14467359 -0.0042352183 -0.104058675 -0.025897287 -0.06899349 0.057266664 0.04147395 0.19250529
0.23669972 0.1320661 -0.21279335 -0.010070855 0.00912965 -0.08203333 0.18827419 0.027492743
0.023048384 -0.08628877 -0.03425586 0.029575381 -0.06425645 -0.087013945 -0.057556104 -0.13759494
0.10110439 -0.062916264 -0.098831646 0.05790698 0.0722136 0.029320452 -0.0260073 0.008397163
0.07992421 0.16081268 -0.011468743 -0.06521475 -0.14926206 -0.078848585 -0.0040165186 0.022294035
-0.037749216 0.09822237 -0.21841057 -0.06513088 -0.03967753 0.09044806 0.09470485 -0.055133305
-0.1273431 -0.05894832 0.06956484 0.03508802 0.095646836 -0.07442091 0.089390345 0.075305074
0.031000981 -0.075648546 -0.09060727 0.018549163 -0.0010164352 0.008397667 0.08269786 -0.20079175
0.08069147 -0.012248643 0.063937545 -0.18922487 -0.07522936 -0.14909457 -0.07233516 -0.020883791
-0.18717358 -0.037195705 -0.10601249 0.07756281 -0.07618002 -0.16180785 0.017987622 0.026001355
-0.0752856 -0.037758972 0.109244086 -0.07428333 0.13428935 -0.05268925 -0.087409094 -0.061875887
0.054184537 -0.09465196 0.060289387 -0.02224638 0.052144594 -0.08098848 -0.097488485 0.062110417
-0.05467095 0.05537609 0.017553793 -0.07143892 0.03825406 -0.0062413965 0.009158851 -0.0015905426
0.12545827 0.013974604 0.040626947 -0.017412283 -0.010477498 0.013083101 0.12423699 -0.06962832
0.034605276 -0.041731216 -0.06965092 0.035315577 -0.067472525 0.010159453 0.089283735 0.0413722
0.07298425 0.035089437 0.10377141 0.12013721 0.0662994 0.08522428 -0.010265702 -0.017535778
-0.12174849 -0.07450394 -0.13960257 -0.15145822 -0.067761436 -0.089200586 -0.05239226 0.015027086
0.00046755167 0.031628303 0.043016456 0.09139001 -0.039080016 0.08689117 -0.018593542 -0.007458353
0.11340421 0.072831266 0.021171508 -0.10604185 0.01025915 0.05583518 0.08733026 -0.047573917
-0.07467317 -0.08689654 0.14233024 0.04106502 0.046006173 0.10377964 0.040551096 -0.04129246
0.16086356 -0.05001168 0.10378934 0.07190785 -0.11278381 0.06239435 0.10489742 0.031675726
0.1763298 -0.019076882 0.10662479 -0.08046025 0.07690295 -0.10423582 -0.013138724 -0.06010294
0.064792596 -0.03696893 -0.025473084 -0.10635753 -0.12971163 -0.023476655 -0.045707174 -0.13514365
00000000: 7356 053c cf1a 28bb 318f 2bbd acf2 e1ba
00000010: 601e e5bd 0bd0 05be 53de 93bd 38c2 4fbd
00000020: dfd7 1ebe 14f6 b73d d68a df3d 098e 06bd
00000030: 4ea8 5bbd 5654 6e3d 237e a5bd 60e7 0d3d
00000040: 4de0 24be 0ef6 9abc 7edf dfbd f666 cc3d
00000050: 05e2 1ebe 0eca 5cbc e8c2 9f3c 3b02 c2bc
00000060: 1547 453d 9b60 1a3d 8b76 21be 4df3 debc
00000070: 6a50 bfbd c879 e5bc 6139 96bd a55b 213d
00000080: 7e90 133d 354f 76bd b7ea 103d bf16 bb3d
00000090: ed4a d8bd ea03 3dbc 1ef2 1b3e d472 95bd
000000a0: 2eab b4bd 9b96 fe3b d128 9ebd b718 b43d
000000b0: bab9 04be 0abe c93c 88ab 36be 1739 ddbd
000000c0: 1a56 b73d 07cc 203d 978c cf39 dcbe b93d
000000d0: 37e1 b5bd 58a4 8a3c 025e 663d badd 823d
000000e0: 0032 ff3d 293d 86bd bee0 b23c 86f3 b2bc
000000f0: 28fe 16bd d6a1 163c 805a 82bc d661 f23d
00000100: a70a b5bb 8d68 223d 4008 183c 8e0d ab3d
00000110: 6035 b8bd 633f 113e 298a 8fbd 0fdc b0bd
00000120: 5025 14be 96c7 8abb b71c d5bd 8c26 d4bc
00000130: 754c 8dbd 7390 6a3d 97e0 293d 1b20 453e
00000140: 6961 723e 563c 073e 80e6 59be 3a00 25bc
00000150: 8794 153c 1701 a8bd f3ca 403e 7638 e13c
00000160: f7cf bc3c 2bb8 b0bd df4f 0cbd 1248 f23c
00000170: e398 83bd 5e34 b2bd f3bf 6bbd b0e5 0cbe
00000180: d20f cf3d 3eda 80bd 3f68 cabd df2f 6d3d
00000190: b9e4 933d 7231 f03c 430d d5bc 4194 093c
000001a0: 4eaf a33d 14ac 243e 65e7 3bbc 508f 85bd
000001b0: 27d8 18be 5e7b a1bd 009d 83bb fba1 b63c
000001c0: ec9e 1abd cf28 c93d 05a7 5fbe 5763 85bd
000001d0: e884 22bd d53c b93d 9ef4 c13d 76d3 61bd
000001e0: 3b66 02be cb73 71bd 0378 8e3d 75b8 0f3d
000001f0: 7de2 c33d fd69 98bd 4912 b73d 8c39 9a3d
00000200: c5f5 fd3c a0ed 9abd 4e90 b9bd 6af4 973c
00000210: e839 85ba 5e96 093c 7f5d a93d 5a9c 4dbe
00000220: 9241 a53d 88ae 48bc b0f1 823d 2ac4 41be
00000230: da11 9abd 3fac 18be 7524 94bd 7c14 abbc
00000240: 6eaa 3fbe 865a 18bd 141d d9bd 40d9 9e3d
00000250: 4504 9cbd f5b0 25be c75a 933c cb00 d53c
00000260: 562f 9abd 27a9 1abd 5dbb df3d dc21 98bd
00000270: 2683 093e afd0 57bd 8a03 b3bd 9271 7dbd
00000280: 9bf0 5d3d e3d8 c1bd 01f2 763d 0a3e b6bc
00000290: 9295 553d 4add a5bd 0ba8 c7bd 7e67 7e3d
000002a0: a5ee 5fbd 0ad2 623d f9cc 8f3c 924e 92bd
000002b0: 4ab0 1c3d a184 ccbb 010f 163c c179 d0ba
000002c0: 2278 003e bdf5 643c 7168 263d 34a4 8ebc
000002d0: d0a9 2bbc 815a 563c f76f fe3d 4b99 8ebd
000002e0: 43be 0d3d 5aee 2abd 24a5 8ebd 11a7 103d
000002f0: 092f 8abd d673 263c 64da b63d e575 293d
00000300: c478 953d f1b9 0f3d 1b86 d43d 7f0a f63d
00000310: fbc7 873d 118a ae3d 7a31 28bc 31a7 8fbc
00000320: 4657 f9bd 8695 98bd faf3 0ebe dd17 1bbe
00000330: 82c6 8abd ccae b6bd 4499 56bd 2b34 763c
00000340: b921 f539 ae8c 013d 0632 303d b02a bb3d
00000350: 5e12 20bd fff3 b13d 7c51 98bc 3365 f4bb
00000360: 7740 e83d 8f28 953d df6f ad3c 782c d9bd
00000370: fe15 283c 6eb3 643d 35da b23d dedc 42bd
00000380: 3fee 98bd d0f6 b1bd 05bf 113e cb33 283d
00000390: f870 3c3d 6b8a d43d e818 263d 4822 29bd
000003a0: 6bb9 243e 0cd9 4cbd 818f d43d 6c44 933d
000003b0: 33fb e6bd 3891 7f3d 75d4 d63d 68be 013d
000003c0: cd8f 343e 1f47 9cbc 195e da3d 58c8 a4bd
000003d0: 4b7f 9d3d 9779 d5bd cd43 57bc 802e 76bd
000003e0: fbb1 843d bc6c 17bd eeac d0bc fad1 d9bd
000003f0: 20d3 04be 1d52 c0bc 7237 3bbd 1963 0abe

layer2.0.bn1.weight f4 [32]
0.9841302 0.96500367 1.0753117 0.9413118 0.94768554 0.9979737 1.0558254 0.9443674
0.9940904 1.0238228 1.0039558 1.0321393 1.000582 1.1001796 0.92229694 0.975576
0.9519357 0.9158681 1.0868757 1.0208676 0.9940122 1.0552365 0.96040726 1.0436498
0.8911567 1.0054932 0.97887754 0.97143376 1.0357287 1.0364283 0.96694833 1.0456175
00000000: f5ef 7b3f 7b0a 773f d0a3 893f cff9 703f
00000010: 859b 723f 347b 7f3f 4925 873f 10c2 713f
00000020: b57c 7e3f a00c 833f a081 803f 241d 843f
00000030: 1213 803f afd2 8c3f a71b 6c3f 59bf 793f
00000040: 0fb2 733f 5576 6a3f be1e 8b3f caab 823f
00000050: 9577 7e3f fd11 873f 40dd 753f 5196 853f
00000060: d822 643f 00b4 803f b897 7a3f e2af 783f
00000070: c292 843f afa9 843f ed89 773f cbd6 853f

layer2.0.bn1.bias f4 [32]
-0.026288155 -0.018113222 0.05531564 -0.06733921 -0.026250795 -0.037926335 0.027242344 -0.055748
-0.008823476 -0.045942344 -0.03999568 0.0054734624 0.0034055358 -0.011597809 -0.05506811 0.06428864
-0.0071273907 -0.06642912 -0.047615256 0.0072381804 -0.053091925 -0.06717319 -0.021447212 0.015545312
-0.074885905 -0.014517735 -0.053319916 0.009292876 -0.049816567 -0.005331732 0.0003093429 -0.008237145
00000000: 425a d7bc 2e62 94bc a792 623d 24e9 89bd
00000010: e80b d7bc a558 1bbd 562b df3c 0458 64bd
00000020: 5790 10bc 0a2e 3cbd 83d2 23bd bb5a b33b
00000030: 692f 5f3b bd04 3ebc 198f 61bd c3a9 833d
00000040: e38c e9bb fe0b 88bd 3708 43bd 422e ed3b
00000050: eb76 59bd 1992 89bd 10b2 afbc c4b1 7e3c
00000060: c85d 99bd cbdb 6dbc fc65 5abd 2641 183c
00000070: 750c 4cbd cfb5 aebb 4d2f a239 17f5 06bc

layer2.0.bn1.running_mean f4 [32]
-1.1009128 -0.030820314 -0.954816 -0.09710866 1.1580731 -0.9512386 -0.52298665 0.097019546
-0.28545 -0.40845764 -0.42537865 -0.2550702 0.017298825 -0.29660043 -0.115965806 -0.58723575
-0.6198676 0.24545866 -0.62510157 -0.59400064 0.2510558 0.01678572 0.27300882 -0.22127093
1.8062239 -0.72106975 -0.43447366 -0.6375879 0.889809 -0.20535637 -0.15612443 -0.55754316
00000000: b6ea 8cbf e27a fcbc d26e 74bf e8e0 c6bd
00000010: bd3b 943f 5f84 73bf 74e2 05bf 2fb2 c63d
00000020: 8126 92be 5c21 d1be 3bcb d9be 9098 82be
00000030: 44b6 8d3c 03dc 97be 7b7f edbd 1555 16bf
00000040: a5af 1ebf 8459 7b3e a806 20bf 6d10 18bf
00000050: 638a 803e 3582 893c d0c7 8b3e d994 62be
00000060: 5832 e73f 0798 38bf 5573 debe f638 23bf
00000070: 86ca 633f f148 52be 15df 1fbe 26bb 0ebf

layer2.0.bn1.running_var f4 [32]
0.3845114 0.59573007 0.48283005 0.6643014 1.522311 0.34887883 0.65851444 0.88584995
0.5523702 0.49456158 0.36670253 1.6207805 0.6665755 0.5004561 1.4799981 0.72312766
0.7782393 0.6453525 0.3585418 0.7425691 0.19311212 0.43236557 0.41559622 0.634386
1.2430304 0.54103124 0.19016346 0.9280537 0.28385487 0.29562628 0.5362314 0.18863742
00000000: aede c43e c481 183f 8035 f73e a80f 2a3f
00000010: 16db c23f 3fa0 b23e 6794 283f 10c7 623f
00000020: 2268 0d3f 2d37 fd3e 6fc0 bb3e bc75 cf3f
00000030: b1a4 2a3f e41d 003f 9470 bd3f e51e 393f
00000040: b13a 473f d235 253f ca92 b73e 0219 3e3f
00000050: 2fbf 453e 055f dd3e 07c9 d43e 1f67 223f
00000060: 9f1b 9f3f 0681 0a3f 36ba 423e ed94 6d3f
00000070: 6d55 913e 545c 973e 7646 093f 2b2a 413e
