models/small_14_adam_1em3_bs128_/best_model.pth (torch, 363343 bytes, 77 tensors)

conv1.weight f4 [16, 3, 5, 5]
00000000: 2fe5 d93d 3eda 9a3d cbc1 033e 70b6 18bc
00000010: 40a2 783d f120 c03c aae9 b63d bd8f f03c
00000020: 9b5a 213e 2d5e a73c ec59 893d d7a8 67bd
00000030: 2001 953d c2aa 80bc 9cb5 23bb 52b9 143e
00000040: ae21 32bd 3de8 9ebc 92e3 c23d 64ee ab3c
00000050: 4459 99bd 962e b63c e54d bcbd 7886 31bc
00000060: da4a 8e3b 7c14 f33c 2536 983d 7963 9e3d
00000070: 0d32 3c3e 5b67 713c 6953 133d e0cd c33d
00000080: 31ea d43d 2baa 89bd 32af 74bd b830 1f3d
00000090: 80d5 e03c 3958 b9bc 8162 97bc 95ea 073e
000000a0: d2d4 d83c a0b4 603c b318 9e3d f0f7 14bd
000000b0: e36b 92bd 3eac 6bbd 046c 2fbd 6c3f 9abd
000000c0: 0466 11be fee6 883c 759c c4bd e777 773d
000000d0: 33f1 8d3c d014 3c3e 6c3f 9a3d 1258 473e
000000e0: de16 abbc e18f 013e 6480 3b3d 8846 873d
000000f0: b7cd ed3d 15f4 363e 7f2a 2e3e d005 873e
00000100: 081a 0c3e 0bcc 493e 1d4b 473e 272f 783e
00000110: acb2 373e 6c65 393d 1196 df3d 1537 3c3e
00000120: dc6d 063e cc99 043e 62e4 2e3e 58a0 663c
00000130: 207e e03d f5f2 2b3d 8f8b af3c 2ca2 4b3e
00000140: 6080 883d 50e9 eabc 6c06 dcbd 2147 05be
00000150: 03fc b03d 96a0 303e 5335 1c3d 86bd 96bc
00000160: 3151 4d3b 7b47 293d 1b50 5f3c 2a1f 7cbd
00000170: dde7 10be 5142 60bd 185a 8b3d 916c ccbc
00000180: aecb d13d 3505 62bd 3680 1d3d 0637 9c3d
00000190: 4828 463e 757c 1a3e 1fb0 653e 6b81 983d
000001a0: d997 d0bc cc8b 453e eaa8 e7bb 4c76 3e3e
000001b0: d0a1 243e c188 343d f2fd 6c38 1166 0d3e
000001c0: e0ab 683e b1c1 2e3e e9a1 b43d 1e23 a33d
000001d0: 40bb 1b3d c658 403e 57f9 513e 8280 a3bc
000001e0: 8225 993d 2051 b3bb a694 993d 0909 e53d
000001f0: 9dd3 673d d053 edbd dc12 9d3b bd0b a6bd
00000200: c777 9bbd 594e e2bd cacc 793a f21e db3d
00000210: a3d7 3d3e 6467 893d caf7 debd 3ddf f93d
00000220: aeec 88bd c6e6 d93d 6a18 173e 0ebe d4bd
00000230: c0b9 913c df6f 413e 698a 833d 91c9 1c3d
00000240: 20d3 31be e55c 93bd cd18 823b 0adf a2bc
00000250: fa31 f7bd a50d c6bd e5a6 f2bc 55c3 19bd
00000260: df8e cfbc 028a 0cbe fd92 bbbd 36c4 98bc
00000270: 2686 c3bd 3bfa 963c e30b 5c3b 940d 89bc
00000280: b93f 16bd 7f0f 32be 39a2 713d d40a 0bbd
00000290: 7b36 81bd cacc bcbb cd0f d23d 6f48 a73c
000002a0: 1b5d 3d3d 35a3 a83d d546 8bbb 35f5 d03c
000002b0: f8ec 8f3d 88c1 de3d caab a63c 3e98 97bd
000002c0: 9aac 4bbd c287 f1bb de93 49bd e3f0 9bbd
000002d0: 7deb 0c3e 6eef 96bc 594a 72bd 1001 e1bc
000002e0: d56a 66ba 6b3d 3c3d 8fdd bf3d 899e 183e
000002f0: 55b1 853d 55c3 ab3d a13a d1bd c09c 053e
00000300: e367 b73d f420 673c 17a7 7e3c 11de 0a3d
00000310: 1be6 903d e626 833c 1ebb 6a3d 68eb 153e
00000320: de6a 5d3c 9fb0 5abd 1682 903d 3ab2 e1b9
00000330: ea71 1abc 5882 dcbd 4817 5a3d a027 13bd
00000340: f427 65bd 8285 643d 383b 4ebd eca5 29be
00000350: 7e72 f4bd a18b 9ebd 77af 3e3d 8337 03be
00000360: 1973 18be 8a6e 2abe 6147 4fbe 217c 40be
00000370: e929 7fbe a985 a8be 9026 77be d342 73be
00000380: c50e 56be 9d96 a83d f710 013d 1bba 7f3d
00000390: d06a 903d 99b1 4e3c 9731 843b 2164 dcbd
000003a0: f59c 77be b88d d1bd 8482 9abd 4f3d aabc
000003b0: 1ff2 27be 8572 54be 7d3c 60be 4af9 abbd
000003c0: 9f6f 9f3d 01f1 72bd aea3 0dbe 0840 88be
000003d0: ab51 07be a04e abbc 7cbe 3dbd 809b fdbc
000003e0: f1e5 6cbd 83f9 d63a b76d f6bc 7e5f 653b
000003f0: b3bd e3bc cbb8 743c 7062 253d 0c23 043d
0.106394164 0.07561158 0.12866895 -0.00932084 0.06070161 0.023453208 0.08931287 0.029365415
0.1575722 0.020430649 0.06706604 -0.056557503 0.07275605 -0.015706424 -0.0024980074 0.14523819
-0.04348915 -0.01939785 0.09516062 0.020987697 -0.07487729 0.02223901 -0.09194545 -0.0108352825
0.004342419 0.029672854 0.07432202 0.07733817 0.18378468 0.0147341145 0.035968218 0.09560752
0.10396231 -0.0672191 -0.05973739 0.03886482 0.027445555 -0.022625076 -0.018479588 0.1327308
0.026468668 0.013714939 0.07719555 -0.036369264 -0.07149484 -0.05753731 -0.04282762 -0.07531628
-0.14199072 0.016711708 -0.09600154 0.060417082 0.017326927 0.18367314 0.07531628 0.1946719
-0.020884927 0.12652542 0.04577674 0.0660525 0.116115026 0.17866547 0.17008398 0.26371622
0.13681805 0.19706742 0.19462247 0.24236737 0.17939252 0.04526274 0.10917295 0.18380387
0.13127846 0.12949294 0.17079309 0.014076315 0.109615564 0.04197975 0.021428851 0.19886082
0.066651106 -0.028675705 -0.107434124 -0.13015415 0.086418174 0.17248759 0.03813679 -0.018400919
0.0031328911 0.041327935 0.0136299385 -0.061553158 -0.14150949 -0.054750744 0.068042934 -0.024954112
0.10243927 -0.055180747 0.03845235 0.076276824 0.19351304 0.15086539 0.22430466 0.074465595
-0.025463032 0.1929161 -0.0070696967 0.18599814 0.16077352 0.04407573 5.650329e-05 0.13808466
0.22721815 0.17066075 0.088199444 0.079656824 0.038020372 0.18783864 0.20505272 -0.019958738
0.07477857 -0.0054723173 0.074990556 0.11183364 0.056598295 -0.115882516 0.004793508 -0.08107708
-0.07591205 -0.110501 0.0009529112 0.10699262 0.1853929 0.06709173 -0.10887106 0.122007824
-0.06685768 0.1063972 0.14755407 -0.103878126 0.017788768 0.18890332 0.06422884 0.038278166
-0.17365694 -0.071954526 0.0039702416 -0.019881744 -0.12070079 -0.09670571 -0.029620597 -0.0375398
-0.025336681 -0.13724521 -0.09158895 -0.018648248 -0.09547071 0.018429866 0.003357642 -0.016730107
-0.036681864 -0.17388724 0.0589926 -0.033945873 -0.063092194 -0.0057617174 0.1025692 0.020420281
0.04623137 0.08234254 -0.004250387 0.025507549 0.0702762 0.10876757 0.020345587 -0.07402085
-0.049725153 -0.00737092 -0.049213283 -0.07614305 0.13761707 -0.018424716 -0.059152935 -0.027466327
-0.0008789723 0.04595701 0.09368431 0.14904226 0.06527964 0.08386866 -0.10216261 0.13048077
0.08955362 0.014106978 0.015542767 0.033903185 0.07075139 0.01600976 0.057307355 0.14640582
0.013514249 -0.053391095 0.07056062 -0.00043048133 -0.009426573 -0.107670486 0.05324486 -0.03592646
-0.055946305 0.055791385 -0.050349444 -0.165672 -0.119359 -0.07741476 0.046554055 -0.12814145
-0.14887656 -0.1664373 -0.20242073 -0.18797351 -0.24918331 -0.32914475 -0.24135804 -0.2375596
-0.20904072 0.08231852 0.03151032 0.062433343 0.07051623 0.012615585 0.004034232 -0.107612856
-0.24180968 -0.10232109 -0.07544425 -0.020781187 -0.16400956 -0.2074681 -0.21898074 -0.083971575
0.07784962 -0.05931187 -0.1383197 -0.26611352 -0.13214748 -0.020911515 -0.04632424 -0.030957937
-0.057836477 0.0016401265 -0.030081613 0.0034999545 -0.027800417 0.014936636 0.04037708 0.032259986

bn1.weight f4 [16]
00000000: 490a 633f 9b04 603f 723f 523f 15e4 923f
00000010: 5845 593f 8155 443f d6d0 383f 18eb 4a3f
00000020: bb8e 493f 767d 423f 162c 4a3f 8d38 943f
00000030: d4ba 383f a963 523f d350 7d3f 64a9 543f
0.8868757 0.8750703 0.8212806 1.1475855 0.84871435 0.7669297 0.7219366 0.79264975
0.78733414 0.7597269 0.7897352 1.1579758 0.7216008 0.8218332 0.9895145 0.8307097

bn1.bias f4 [16]
00000000: 4bc5 85bc 0d52 81bd c2b8 51be f04d 993e
00000010: 01df 03be f129 8f3d fff5 043d 570c b83d
00000020: b5ef ac3e e184 4dbd 69da 663e 18a2 9b3e
00000030: dbf4 6fbd 0c61 65bc e0d0 b8bb eed4 1fbd
-0.016329428 -0.06314478 -0.20480636 0.29942274 -0.12878038 0.069904216 0.032461163 0.08986729
0.33776632 -0.05017555 0.22544254 0.30397105 -0.05858312 -0.014000189 -0.005640134 -0.039021425

bn1.running_mean f4 [16]
00000000: cfb1 c8bf dee7 8cbf b617 3c3f c7b6 923b
00000010: c5ff 6f3f a1b2 33be b5be 9c3d b79b 1cbf
00000020: 5094 453d 8eaa 20bf e96a 343f 012f 1f3d
00000030: de9d 8abf 4220 1b3f df08 243f 8ef9 adbf
-1.5679263 -1.100826 0.7347368 0.004477355 0.9374965 -0.1754861 0.07653562 -0.611751
0.048237145 -0.62760246 0.7047563 0.038863186 -1.0829427 0.60596097 0.64076036 -1.3591783

bn1.running_var f4 [16]
00000000: 1130 c440 be87 4640 01ce bc3f 4e48 3e3e
00000010: cc31 1040 24b3 de3d 5a9a c73e d71c 7a3f
00000020: 03da 913e 617d a83f 6dd1 b33f 6d0a 8d3e
00000030: 4d53 4440 d92a 793f 5699 963f 788a 9a40
6.1308675 3.102035 1.4750367 0.1858227 2.2530394 0.10874012 0.38984948 0.97700256
0.28486642 1.3163263 1.4048287 0.27547017 3.0675843 0.97331005 1.1765544 4.829403

layer1.0.conv1.weight f4 [16, 16, 3, 3]
00000000: b075 163e 4c89 5a3d d8bc aebd a27f 393d
00000010: 29fb 693d 63a5 32be 4ede 173d 193e ea3d
00000020: 551e 113e 7d4c cf3d bd2f 793e c955 07bb
00000030: 6372 7e3e dbd7 82bd c6f2 fabd 1915 db3d
00000040: 6b43 103e 1d61 1ebc 2afc bbbd efa8 a3be
00000050: 1253 24be f203 0fbe 1d7a 59be e66e 2cb9
00000060: a1fe 653e 81f5 37be 5a28 a9bd 90f1 883c
00000070: 69e5 63bb 501d fe3d 9e4e da3b 25e2 80bd
00000080: 5142 663d d60b 2e3d 1437 5ebd e6d2 1dbe
00000090: 8335 6abe ab67 35bc b8b5 46bc f179 0b3d
000000a0: b451 7bbe 2b99 4a3e 32fc cdbd eddd 25be
000000b0: fd5d bbbd fe9d 05be 3ee4 22be 7bb4 35be
000000c0: 1d55 16be 2a55 b23b 3052 cfbd dfc5 913d
000000d0: af0a 6d3e bfa4 433e e447 edbc da5a 5b3e
000000e0: f017 11bd 2405 3dbd 4a22 83bd c446 1cbd
000000f0: da20 3dbe 0e86 5fbe a05b 15bd 19a9 3f3e
00000100: 6680 403c 5ab3 833d 4a9c e5bd a435 62be
00000110: d00b 0fbd 4ba6 edbd 1450 d8bd 98f6 b4bd
00000120: dea8 bbbd 0579 543d b701 16be 1235 8dbd
00000130: f0de 83bd 2ec6 85be 6c70 03be 893d 64bd
00000140: d9a7 fbbd 4c2f b9bc 15f1 873e f939 06bd
00000150: a8b1 9b3d 9c93 09be 5f64 a03d 5c6e 9bbd
00000160: fbe3 90bd b026 e9bd ba89 debe b4dd 58be
00000170: 07d1 393e e113 c2be 3f24 553e bc0f 433e
00000180: 27fb 8cbe 89a2 babe 2a56 cabd 98d3 99bd
00000190: 84a6 8f3d e2ae 523d 54cb c33c 0197 e43d
000001a0: b9d0 a63e d306 4a3c 7342 283d 586e 0e3c
000001b0: b4d8 2b3d 5c93 e53d f0a4 503d 4348 9e3d
000001c0: 84a0 ec3d d0c1 e0bd a2dd 8b3d 5e90 413d
000001d0: af47 8cbd 5753 72bd 0eee e8bd 49c4 d8bd
000001e0: 2644 a4be 48a8 bebd 471b 823d 45c9 efbd
000001f0: b021 0dbe 78ba a4be 0416 c0be 7bcb 7cbe
00000200: 0bd5 98bd 1f95 b5bd e689 34be 07a6 37bd
00000210: dd8c b73d 6ae0 77bd 40b1 f83c db6a c1bd
00000220: 4b99 33be 9d67 24be e3e1 a33d adcd 223e
00000230: d966 dcbd 1523 8a3c 9b60 093e fd05 8c3c
00000240: ed7f 93bd d4e0 27be a048 0b3d 7e6d 983d
00000250: d6e9 05be d488 883d 01bc 0d3d bb66 4f3d
00000260: e548 783b b2ac 3fbe b4c4 35be 9ac0 ccbd
00000270: efb7 aebc 0863 02bd 84fa 283a 12bd 00be
00000280: 56b3 163e 2a8a 183e e2a6 84bd 3c48 b1bd
00000290: 802f 7e3d 3b53 78bd e6b3 94bd 0285 c2bd
000002a0: 7fec 2a3e f8b8 61be 1da2 a33c 8629 8bbe
000002b0: 1eee 8abe 854f 45bf 1d62 18b9 8b4a 36be
000002c0: 9f34 f0be 8823 13bd 559c 9bbd a4ee 823d
000002d0: 9eb5 d5bd 98c2 52bd b861 00be d2f0 34be
000002e0: 9a1f 05be 5b73 41be 8677 6abe b587 84be
000002f0: 8ef1 36be 4525 ebbd f91f ecbc ed6f 45bd
00000300: 2ac2 133e eb28 84be 22f0 913e 7216 333e
00000310: c30b 8d3b 304b c23d d7cd 403d 26fe 3dbe
00000320: 4147 b6bd ea63 6e3d 0f34 e83d 1863 953b
00000330: 2c78 14bd 94a8 593c 693f 1f3e 47fb bc3d
00000340: 371d aabd 3172 903d 40b2 b5bd 96a3 703d
00000350: 72ce 843e 849d 11be 48a3 753d 0b0b 173d
00000360: e740 f9be 7e08 c23b 27b7 3fbc 643a 8c3c
00000370: db45 393e a754 123e 508b 923c a597 a53d
00000380: 4736 a83e 6dc2 c6bc df66 9abd 4ee7 1f3d
00000390: 63aa 72be d5fd 143d a349 9ebd 10ea 243e
000003a0: b8da 2dbd 9f78 27be 6a02 2fbe 1d4d 733d
000003b0: 6413 d83c 3763 08bb a875 8d3d 192e 563d
000003c0: ddae bc3d 86bc 45bd 2630 713a 28c0 35bd
000003d0: c3ab fa3d eaac 003e 263c 163e f9e9 d0bc
000003e0: 26d8 123e 0b26 783e d756 08bd d92d d03c
000003f0: c866 14bd 3765 5fbd 4125 53be 49ef 023e
0.14693332 0.053353593 -0.08532113 0.045287736 0.05712429 -0.17445903 0.03707724 0.114376254
0.14171727 0.10122011 0.24334617 -0.0020650497 0.24848323 -0.063888274 -0.122533366 0.106973834
0.14088218 -0.009666708 -0.09178956 -0.31964824 -0.16047314 -0.13966349 -0.21237989 -0.00016444511
0.22460414 -0.17964746 -0.082596496 0.016716748 -0.003477419 0.12407935 0.006662204 -0.06293134
0.056215588 0.042491756 -0.054251745 -0.15412483 -0.22871976 -0.01107208 -0.012128286 0.03405184
-0.24542886 0.19784991 -0.10057868 -0.16197939 -0.09148786 -0.1304855 -0.1590738 -0.17744629
-0.14680906 0.0054422813 -0.10123098 0.07117819 0.23148607 0.19105814 -0.028964944 0.21421376
-0.03542322 -0.04614748 -0.064030245 -0.038153425 -0.18469563 -0.21828482 -0.036464334 0.1871685
0.011749363 0.06430693 -0.112114504 -0.22090775 -0.034923375 -0.116039835 -0.10562149 -0.088360965
-0.09163068 0.051873226 -0.14649092 -0.06894888 -0.06439006 -0.26127762 -0.12835854 -0.055722747
-0.12287874 -0.02260556 0.26551118 -0.03277013 0.076022446 -0.13435215 0.07831644 -0.07589409
-0.07074734 -0.11384332 -0.43464452 -0.21178323 0.18146144 -0.3790579 0.20814608 0.19048971
-0.27535364 -0.3645213 -0.09879716 -0.075110614 0.07014182 0.051436312 0.023900665 0.11161614
0.32581118 0.012330729 0.041078996 0.0086933 0.04195471 0.11209747 0.050938547 0.077286266
0.115540534 -0.10974467 0.068293825 0.04725682 -0.0684961 -0.05916151 -0.1137353 -0.105843134
-0.32083243 -0.09309441 0.06352859 -0.11708311 -0.13782382 -0.32173514 -0.37516797 -0.24686997
-0.0746251 -0.08866333 -0.17630729 -0.04483607 0.089624144 -0.060516752 0.030357957 -0.09444209
-0.17538945 -0.1605515 0.08002069 0.15898772 -0.10761804 0.016862432 0.13415758 0.0170927
-0.07202134 -0.16394359 0.034004807 0.07442759 -0.13077483 0.06666723 0.034603123 0.05063508
0.0037885245 -0.18718222 -0.17750818 -0.09997673 -0.02132794 -0.031832725 0.0006446021 -0.12572125
0.14716849 0.14896455 -0.06477143 -0.08656356 0.06205702 -0.06062625 -0.072608754 -0.094980255
0.16691779 -0.22043216 0.019974763 -0.27180117 -0.27134794 -0.7707446 -0.000145324 -0.17801873
-0.46915147 -0.035922557 -0.07598177 0.06393173 -0.10435031 -0.05145511 -0.12537277 -0.1766999
-0.13000336 -0.18891661 -0.22897157 -0.25884786 -0.17865583 -0.11481718 -0.02882384 -0.048202444
0.14429536 -0.25812468 0.2850352 0.17489031 0.0043043806 0.09486997 0.047071304 -0.18553981
-0.08900309 0.058200754 0.113380544 0.004558932 -0.036247417 0.013284821 0.15551533 0.09227615
-0.083063535 0.0705303 -0.08871889 0.058749758 0.25938755 -0.14220244 0.05997017 0.036875766
-0.4868233 0.0059214225 -0.011701382 0.017117687 0.18093054 0.14290105 0.017888695 0.080855645
0.3285391 -0.024262631 -0.07539152 0.03903895 -0.2369781 0.036374886 -0.07728889 0.16104913
-0.042444915 -0.16354607 -0.17090765 0.059399713 0.026376434 -0.002081109 0.06907207 0.052290056
0.0921304 -0.048275493 0.0009200595 -0.044372708 0.12239792 0.12565961 0.14671382 -0.025502192
0.14340267 0.24233262 -0.033285942 0.025412487 -0.036230832 -0.054539885 -0.2061968 0.12786593

layer1.0.bn1.weight f4 [16]
00000000: b90c 7e3f 27e7 783f 2901 803f 903b 913f
00000010: 16dc 7e3f cb3b 7c3f 6203 773f 497e 833f
00000020: 0648 893f a690 803f 4a1e 803f 96c4 653f
00000030: 5adf 753f e4a9 7a3f 01fb 903f ccfb 763f
0.99238163 0.9722771 1.0000354 1.1346302 0.99554574 0.98528737 0.96489537 1.0272914
1.0725105 1.0044143 1.0009243 0.8975309 0.9604393 0.9791548 1.13266 0.9647796

layer1.0.bn1.bias f4 [16]
00000000: cb81 70bd dc40 203e 7e07 b13d 4e0d 153e
00000010: 7eaa 36bc 8810 b43d 4437 0fbe 186c a83d
00000020: 8c65 d6bd 00e8 1b3e 6e07 683e fb99 1ebe
00000030: 3a97 50be d686 863d 13d5 07be 8287 66bd
-0.05871753 0.15649742 0.08644007 0.14555857 -0.011149047 0.087922156 -0.13985926 0.08223742
-0.10468587 0.1522522 0.22659084 -0.15488426 -0.20370188 0.06568687 -0.13264875 -0.056281574

layer1.0.bn1.running_mean f4 [16]
00000000: efa0 0ac0 de71 c0bf 08b3 193f 3a85 67bf
00000010: fbd4 a2be bdfe c3be fb7a 833e ae14 dbbe
00000020: d58a b7be 3138 64c0 6982 54bf 2022 b23d
00000030: f78e a0bc cebf 1c3f 2ef7 80be 3980 cbbe
-2.1660726 -1.503475 0.60038805 -0.9043766 -0.31803116 -0.38280287 0.25679764 -0.42789215
-0.35848108 -3.5659297 -0.8301149 0.08697915 -0.019599421 0.6123017 -0.25188583 -0.39746264

layer1.0.bn1.running_var f4 [16]
00000000: 69fb 8240 cb15 a440 4733 ad3f 1285 d63f
00000010: 9812 6e3f 806a 563f edb2 0340 5ba0 6a3f
00000020: 10b7 bf3f 3625 9b40 819d 0240 f1cf 813f
00000030: 40a7 153f 66a9 7040 5a3e 813f c127 c83f
4.0931897 5.1276603 1.3531274 1.675936 0.9299712 0.83756256 2.0577958 0.91650933
1.4977741 4.8482924 2.0408633 1.0141584 0.5845833 3.7603393 1.0097153 1.5637132

layer1.0.conv2.weight f4 [16, 16, 3, 3]
00000000: 5dbf 21be 35d1 963d 469c 8a3e 85bc e43d
00000010: 3198 f0bd 79b1 fc3b 8276 69bd ab3d 54be
00000020: a703 2bbd 3763 993e 3ba7 ba3e 8d68 963e
00000030: d4cc 963d 17bc 423c 7d42 46be 9b85 d2bd
00000040: f3df bebd 48a7 8abe 0324 f03b 5da8 243e
00000050: e3ea c6bc d1b6 12bc 7c60 bc3d d76e 92b9
00000060: 69c4 83be 6b00 69be 0ca6 a5bd c49f f1bd
00000070: 2b25 e0bd 837b 8dbd 420f 203b 0aaf 813d
00000080: 4510 d53c b2f8 52bd b42f 1b3e 12f1 4bbd
00000090: 58c7 44be 29e7 2a3e 56cc cdbd 5456 033d
000000a0: e02b 453d 085d e2bc 0a70 01be d170 8bbb
000000b0: 14ee 083b 39c2 943e 8f87 dc3d 4fa3 273e
000000c0: 219a 25bd 53f6 ee3d f6e8 f43b 702e 8d3b
000000d0: 35fb bdbd 6250 0a3e d1bf 68bc ff7a 56be
000000e0: 87e9 f3bd f4e8 5cbd dbda edbc 2d59 8f3c
000000f0: ad61 fc3d 9789 5d3e cbd4 5a3e c832 073e
00000100: 4ec4 4ebe 1b9a c8bd 4fb5 82bd bb22 61bc
00000110: 7af7 3bbe 6564 8abd 560b 953e 7e30 aabd
00000120: e106 8cbd a5c0 a23d c767 cbbd 0a2b 153e
00000130: be9b 88bb ac89 a7bd 9096 613e 01ff 833e
00000140: 5fdd b73d 8207 84bd 6cc4 c33e 1cf4 443e
00000150: 3aed 9c3e aef9 c73d b57f 603e 66fe 823e
00000160: fe2e 243c 8a75 a2bc d3ac 5c3c 8537 913d
00000170: 8a72 d3bd 63ca 5f3e e9d4 56bc e8cb 223d
00000180: 3d1a aa3c c839 c4bd b45c 76bd f0f5 cb3d
00000190: bbde 9c3d 6977 98bd a8da 6ebc bb48 213e
000001a0: 29e0 07be 2c04 e5bd 86ac f3bc 37d0 d03d
000001b0: 385b a3be 4c57 9fbe fbee 8ebe 112f 1d3e
000001c0: 3cad b6be d236 2abe 182c e9ba dad1 673c
000001d0: e50c 733e d2fd 3cbe 280d edbd dbb1 86be
000001e0: bd1a 0cbe 2383 3a3b 7d21 b8be ccf3 15bd
000001f0: beb7 ed3c dfc1 b3be 187b 623e 1d80 c6bd
00000200: 14d8 1f3e 7057 613d 5e77 173e dd2b 223d
00000210: f331 ca3d b85a 64bc b780 6dbd 6ca0 0f3e
00000220: ab78 bfbc 57c2 483c 05a6 9f3d 3307 c43e
00000230: d8f5 553e 9eb7 003c 6f9a be3e ad8c e63a
00000240: cc61 e63d 9f03 bf3c 6a29 0b3e 698b 9d3c
00000250: db3f 3abd 8a20 fd3c a0ea 5f3c 6db1 183e
00000260: 5447 42be 8446 67be 365b 813d 0af5 4f3c
00000270: 8a3b 803d 553e d2bd b188 8fbd caab bebd
00000280: b0c7 70be f698 32bd 9897 2f3e 234e c23d
00000290: 8ba9 bfbd 73dd f6b9 5513 8cbb a041 92bd
000002a0: 9658 3f3e 9232 203e e4cd 52bd fb53 3d3d
000002b0: 4d14 5f3d 9644 cd3d aa47 c33d 1f19 14be
000002c0: bc4d ed3d ae3e 463e 4b3b afbd c7ca 3d3e
000002d0: 36d2 ef3d e06b 0a3e 165c 703d 1884 16bd
000002e0: 8e9f 563e 1125 dabd af7b 77be c8f2 8a3d
000002f0: 7bac 73bd a5a8 ae3e 43fb ed3e c158 6c3e
00000300: 9584 3d3c b59a 6ebd 878d 803e 4ae6 a63c
00000310: b7b4 ee3d 58e1 cbbd 9ad7 d83d cbd4 5abd
00000320: 62bd 313e 014f 393e 2557 c53d d7a4 40be
00000330: 03b6 5e3e a7c6 3bbb 14ec a5bd 66e5 553e
00000340: 2058 9c3e e693 503a b0e9 67be 7917 0dbe
00000350: 23b8 1a3b 4384 5bbd bc6f 85bd 9234 b4bd
00000360: 8c82 04be 3a7f f6bd 452a c8bd 9931 2dbe
00000370: 8a8c a7bd eb1c 03bd aac8 cebd 898e 31bd
00000380: 0ddc 19be 4ac8 c8be f556 06bf 62ca 91be
00000390: 4259 f73d 34f2 65be 3480 00bd 3a4a 533d
000003a0: f9cd 98be 944a 11be b243 57be d36f c2bd
000003b0: 4bb5 0c3e 9186 473d 933a 64bb 57aa 56bd
000003c0: 518d 85bd 7866 1a3c 9ee4 1bbc fb6c 493d
000003d0: 6b55 0fbd 6310 943d ea97 27bd 89d7 1c3d
000003e0: 58bb 5fbe 7501 3bbd af6a f13d 043d 26be
000003f0: d579 e03c bcf2 5a3d 8f10 943e 9158 74be
-0.15795656 0.07364122 0.27072352 0.1116877 -0.11747778 0.007711586 -0.056997783 -0.2072665
-0.04175153 0.29958507 0.36455712 0.2937664 0.073632866 0.011885664 -0.19361301 -0.102793895
-0.09320059 -0.2708075 0.0073285117 0.1607985 -0.024281925 -0.00895472 0.091980904 -0.00027929872
-0.25735787 -0.22754066 -0.080883116 -0.11798051 -0.10944589 -0.069083236 0.0024423157 0.06332214
0.026008734 -0.051506706 0.15154916 -0.04979045 -0.19216669 0.16689743 -0.100487396 0.03206475
0.048137546 -0.027632251 -0.12640396 -0.004255392 0.0020893859 0.2905443 0.10768043 0.16370891
-0.040430192 0.11668076 0.00747406 0.0043085143 -0.092764296 0.13507226 -0.014205889 -0.20945357
-0.11909776 -0.0539331 -0.029035022 0.017498577 0.12323318 0.21634518 0.21370237 0.13202965
-0.20192072 -0.09795018 -0.06382238 -0.013741191 -0.18356124 -0.0675743 0.2911021 -0.083100304
-0.068372495 0.079469 -0.09931903 0.145672 -0.0041689565 -0.08180556 0.22030091 0.2578049
0.0897777 -0.064467445 0.38235795 0.19233745 0.3064974 0.097644195 0.21923716 0.25584716
0.010020969 -0.019831438 0.013468939 0.07090668 -0.10324581 0.21854548 -0.013112285 0.03974524
0.020764465 -0.095813334 -0.060147002 0.09959018 0.0765967 -0.07444651 -0.014578499 0.157504
-0.13269104 -0.11182436 -0.029745352 0.10195964 -0.31905532 -0.3112129 -0.27916703 0.15349986
-0.35679042 -0.16622475 -0.001778963 0.014149154 0.23735388 -0.184562 -0.11574775 -0.26307568
-0.13682075 0.0028459511 -0.3596305 -0.036609456 0.02901828 -0.3510885 0.22117269 -0.096924044
0.15609771 0.055015028 0.14791629 0.039592613 0.09872808 -0.013937645 -0.05798408 0.1402604
-0.023372969 0.0122533655 0.077953376 0.38286743 0.20894563 0.007856278 0.37227198 0.0017589532
0.11249122 0.023317156 0.13590017 0.019231515 -0.045471054 0.030899305 0.013666779 0.14911433
-0.18972522 -0.22585493 0.06316225 0.012692699 0.06261356 -0.10265795 -0.07008494 -0.0931011
-0.23513675 -0.043602906 0.17147672 0.0948756 -0.0935851 -0.0004708577 -0.0042747655 -0.07141423
0.18686137 0.15644291 -0.051465884 0.04622267 0.05446272 0.10022847 0.09535153 -0.14462708
0.11587092 0.19359848 -0.08556231 0.18534385 0.117100164 0.13517714 0.05868157 -0.03674707
0.20959303 -0.10651601 -0.24168275 0.06784588 -0.059490662 0.3411304 0.4648076 0.23080732
0.011567255 -0.05825301 0.25107977 0.020373482 0.11655562 -0.0995509 0.10587998 -0.05342559
0.173574 0.18096544 0.09635762 -0.18812881 0.2174912 -0.0028652342 -0.08101669 0.2088829
0.30535984 0.0007956609 -0.22647738 -0.13778485 0.002360829 -0.05359293 -0.06515452 -0.087990895
-0.12940425 -0.12035985 -0.09773687 -0.16913451 -0.081811026 -0.03201 -0.100968674 -0.043348823
-0.15025349 -0.39215308 -0.52476436 -0.28474718 0.120775715 -0.22455674 -0.031372264 0.05158446
-0.29844645 -0.14188606 -0.21021917 -0.09493985 0.13741033 0.048712317 -0.0034824952 -0.052408542
-0.065210946 0.0094238445 -0.009514956 0.049176197 -0.03499357 0.07229688 -0.04091636 0.038291488
-0.2184881 -0.045655686 0.117879264 -0.16234213 0.027401844 0.053454146 0.28918883 -0.2386191

layer1.0.bn2.weight f4 [16]
00000000: 1e1c 713e 99c8 3cbe d072 1abe 6a46 b2be
00000010: 20d3 ab3e 84be 96be 352f 2cbe 48f0 99be
00000020: 9bfb bdbe ec13 8fbe 56ba 6bbe 51e4 a53e
00000030: 4b72 a43e 8f70 8bbe bb00 303e 96a3 4d3e
0.23545882 -0.18435897 -0.1508286 -0.34819347 0.33559513 -0.29442227 -0.16814883 -0.30066133
-0.37106022 -0.27944887 -0.230203 0.32400754 0.3211845 -0.27234313 0.17187779 0.20081934

layer1.0.bn2.bias f4 [16]
00000000: 41a3 0cbd 542d debd 2c44 043e 0e23 033d
00000010: 2d8c fe3d a04a b8bc 18c4 15be c0bd ac3d
00000020: 4439 1ebe 081e c3bd 18c0 6dbd 91ac 55bd
00000030: da56 573d 21e8 423e 7c55 213e 177a ee3d
-0.03433538 -0.108484894 0.1291663 0.032015853 0.1242908 -0.022496521 -0.14625585 0.084346294
-0.15451533 -0.095272124 -0.058044523 -0.052166525 0.052573062 0.19033863 0.15755266 0.116443805

layer1.0.bn2.running_mean f4 [16]
00000000: 30d9 1e3f b98e aa3d 5a8c d83e 21c8 853d
00000010: b752 c83e 8e00 8d3f b3e2 d93e 9681 3fbf
00000020: 3c48 41bf d82b 4f3e 6348 e9be 36c2 3f3e
00000030: 6194 d4bf 76be 7fbe 0c07 073f a09e aebf
0.6205015 0.083280034 0.4229458 0.06532312 0.39125606 1.1015794 0.4255577 -0.7480711
-0.75500846 0.20231569 -0.4556304 0.1872643 -1.6607782 -0.24974999 0.5274513 -1.3642159

layer1.0.bn2.running_var f4 [16]
00000000: c3e7 2540 aa85 5340 3504 1740 3983 4a3f
00000010: d745 bb3f d88d 0540 f97b 813f 6d70 4240
00000020: 882a 5d3f 9158 e93f 3a73 0740 c57d c03f
00000030: edff 3740 e197 893f 88f8 1a40 22a9 2840
2.5922706 3.3050332 2.3596318 0.7910648 1.4630688 2.0867825 1.0115958 3.038112
0.8639302 1.8230153 2.1164079 1.5038382 2.8749955 1.0749475 2.4214191 2.635323

layer1.1.conv1.weight f4 [16, 16, 3, 3]
00000000: 8dc8 d9bd 05eb 02be d503 83be 762e 43be
00000010: ce0d 9b3e cbbe 363e cacc 27bd 0dde 453e
00000020: 62be c83d e684 e5bd 1e74 1ebc 7156 0a3e
00000030: 1a61 1c3e ff25 793d 92b1 fcbd ba63 953d
00000040: 009f 263d d0a6 303e 75a4 f8bd 2349 8bbe
00000050: 4250 d1be baad f0bc 23f4 973d 8299 8dbb
00000060: 7257 b63e 3dd7 94bd 6d5a d5bc d92c 733e
00000070: 75be 79be 931b bebd 5594 f5bd 19d8 493e
00000080: 3c9e 9fbd 2780 e13d ed1b 283e 83ea 02be
00000090: fb5f 35be 4647 3cbd eb45 80bc b39d 163d
000000a0: 7319 28be 05ff 2cbe 1218 37be cca4 863d
000000b0: 3844 cebc 1edb 16be bbb4 c9bd 0832 893c
000000c0: afe4 dfbc 75c3 1ebd 26b1 ddbd c12e adba
000000d0: d507 803a 96eb 443d 1b46 133e 1f5d 083e
000000e0: 14aa 863e 1d17 a4bd 52f8 d63d 20a9 c23d
000000f0: 3b9e 2fbd 999f 70bd 13fa d1bb a143 fcbd
00000100: 082e 9d3b 2407 0a3e 7d62 c1bd b1db 86ba
00000110: 81fa ffbd c9da 3dbe 6016 f5bd d4b6 65bb
00000120: eb08 e03d 1178 2dbe e6a6 c0bd 8bae a0be
00000130: af21 91be 907a b8bd a52e 713e 7fde 9ebe
00000140: 653d 97bd 28b5 683e cc38 103e ab1f 5c3d
00000150: 6f20 853d e51a 273e fa31 25bd a2eb 463d
00000160: 5961 773e 652f 463d c7ad c53d 134b 60bd
00000170: 3fde 89be 7a1f 7f3d 2afc dd3b 4610 5d3d
00000180: 61e0 4f3e c759 14bd 6689 113e a6b4 26be
00000190: 2a2e 71be 8e63 37be c457 39be d6b7 f8bd
000001a0: 3824 9ebe f33b 053e 8ad8 2bbe b7d8 0dbe
000001b0: 94f2 7abd d860 02bd 24fc 2dbd 4f1a 613d
000001c0: 8668 933e c990 bb3c 79cf ff3d 60ae 5a3e
000001d0: d236 3a3b daa0 5fbd 51ca 60be 95c8 efbd
000001e0: 6db3 5e3c e6d2 c33d a224 80bd fce3 1a3e
000001f0: 9d65 ac3d a845 633c 7a43 0ebe 5427 14be
00000200: 0769 dfbd 58d6 11be abe4 40bd ab4e 99bd
00000210: c44a fc3b 7a3d ff3c a864 26bd c851 5dbe
00000220: dc82 673d 6814 39bd 46b5 5a3d fcfd 003e
00000230: b42d 60be 78fb 8f3d f45e 543e 1f2c 953d
00000240: 2251 023e 81c8 79bd 3f12 e9bd e449 503e
00000250: 7555 0abd 95b9 bcbd 429b 773c eb7f 75be
00000260: 9d28 4bbe 0fef 0ebe 7a58 543d c093 8abd
00000270: f745 3dbd 1dcb 8f3d 7696 00be 3d88 633e
00000280: a22e a7be 21e8 f8bd 157a 49bb 92b4 4d3d
00000290: 9f80 1fbe 91cd 203e ec44 6d3d 5261 a1bd
000002a0: 2a39 c43d 644c b7bd 1fea 02be b3e3 ba3d
000002b0: 6c8c ce3c 873b f63c 8acb 1a3e 3d3d 07be
000002c0: 4a41 99ba efa3 a93d 776b 8f3d b259 733d
000002d0: fd57 593e 0a85 373e e509 fdbc 2e5a 583d
000002e0: 1499 3abd 8895 19be ecad ff3d 237e 183d
000002f0: 7842 49be 7795 05be 03d5 22be bb3e ae3c
00000300: e984 673e f288 4f3d 93c6 913d 5410 e1bd
00000310: de7c 2b3d f37c 3e3e 0886 5c3d bf42 5d3d
00000320: 96f9 063e 109f 843c 82fa db3d 7cc8 15be
00000330: a1a8 d13d 7668 883d eba6 023d 66bb f53d
00000340: 230b 20be 6c31 11be 559d b33d ee26 763d
00000350: 5f90 79bc a78c 053e b9b4 66be 606a c8be
00000360: 6436 bbbd 9fbb 313d d8e3 48be 8a12 233d
00000370: 46c3 21be acae 70be aec8 cf3d b203 9abd
00000380: dda6 b3be f102 80bd 387d c6bd df4e ae3d
00000390: a6f3 de3d 8cf9 89bd 801b 273d e948 5f3d
000003a0: b5e2 2bbe cd81 89be a409 d43c c32d 063d
000003b0: 222d 1b3e 6a2e a5be 6509 a13d d299 1d3e
000003c0: 7731 b5be d9a5 333e f13e 4b3e e5f0 5ebe
000003d0: f8e4 273d c34b 323e 97ff 40bd a868 1f3e
000003e0: b335 103e c9fe 9cbd 1ced edbe 3111 aabe
000003f0: 0937 a6bc be32 cfbd da5a 0ebd afb9 383e
-0.10633955 -0.12784965 -0.2558886 -0.19060692 0.3028397 0.17846219 -0.040966786 0.19322987
0.09801938 -0.11206989 -0.009671239 0.13509537 0.15271416 0.06082725 -0.12338556 0.07294412
0.040678978 0.17251134 -0.12140743 -0.27204236 -0.40881544 -0.029379714 0.07419612 -0.004321278
0.3561359 -0.07267616 -0.026044095 0.23747577 -0.2438906 -0.09282603 -0.11991183 0.19711341
-0.07793853 0.11010771 0.16416903 -0.12784772 -0.17712395 -0.04596641 -0.01565834 0.036771487
-0.16415958 -0.16894157 -0.17880276 0.06574401 -0.025179014 -0.14732024 -0.09848925 0.01674749
-0.027330725 -0.03876062 -0.10824804 -0.0013212786 0.0009767959 0.048076235 0.14382212 0.13316773
0.26301634 -0.08012221 0.10496582 0.09504914 -0.04287551 -0.058745954 -0.006407985 -0.12317587
0.004796747 0.13479286 -0.09442613 -0.0010288862 -0.12498952 -0.18540491 -0.11967158 -0.00350516
0.10939201 -0.16940333 -0.09406833 -0.31383166 -0.2834601 -0.09007752 0.2355295 -0.31029126
-0.07384757 0.22725356 0.14084166 0.05374114 0.06500327 0.16318853 -0.040330864 0.04856456
0.24158229 0.048385043 0.09652286 -0.054759096 -0.26927373 0.062285878 0.006774445 0.053970598
0.20300438 -0.03621843 0.1421257 -0.1627985 -0.23552766 -0.17909071 -0.18099886 -0.12144439
-0.30887008 0.1301115 -0.16781822 -0.13852201 -0.061266497 -0.03183064 -0.04247679 0.05495673
0.28790683 0.022896187 0.12490744 0.21355581 0.0028414023 -0.05459676 -0.21952178 -0.1170818
0.013592583 0.0956171 -0.06256987 0.15126032 0.08417819 0.013871588 -0.13892928 -0.14468127
-0.10908704 -0.14241922 -0.047093075 -0.07485708 0.0076993424 0.031157244 -0.040623337 -0.21613228
0.05652128 -0.045185477 0.053395532 0.12596887 -0.21892434 0.07030386 0.20739347 0.07283806
0.12726262 -0.06098223 -0.11380433 0.20340687 -0.033772904 -0.092150845 0.0151127 -0.23974578
-0.19839711 -0.13958381 0.05184219 -0.06766462 -0.0462093 0.07021163 -0.12557396 0.2221994
-0.32652766 -0.1215365 -0.0030742933 0.050221033 -0.15576409 0.15703417 0.057927057 -0.078798905
0.09581216 -0.08950117 -0.12784623 0.091254614 0.025213443 0.030057682 0.15116706 -0.13206954
-0.0011692431 0.08283221 0.07002919 0.059411712 0.21224971 0.17921844 -0.030888507 0.052820377
-0.045556143 -0.14998448 0.12484345 0.03722967 -0.19654262 -0.13045298 -0.1590157 0.021270147
0.22609295 0.05066771 0.07117953 -0.109894425 0.04186713 0.18602352 0.05383876 0.054018732
0.13181147 0.016189128 0.1074114 -0.1462726 0.102372415 0.06660549 0.031897467 0.11998634
-0.15629248 -0.14179009 0.08770243 0.06009572 -0.015232175 0.13041936 -0.22529878 -0.39143658
-0.091412336 0.04339182 -0.19618165 0.039812602 -0.15797147 -0.23504132 0.101456985 -0.07520236
-0.35088244 -0.06250561 -0.09691852 0.08511137 0.10886316 -0.067370504 0.04079771 0.054512892
-0.167857 -0.26856843 0.025883503 0.032758486 0.15153936 -0.32261974 0.0786312 0.15390709
-0.353893 0.17543735 0.19848229 -0.21771581 0.040989846 0.17411713 -0.04711875 0.15567267
0.14082985 -0.07665784 -0.46469963 -0.3321624 -0.020289915 -0.101171 -0.03475461 0.18039583

layer1.1.bn1.weight f4 [16]
00000000: 76a4 533f ec4f 7c3f 2184 6f3f 740f 643f
00000010: 3cbb 6a3f ed7d 943f f3a2 703f e28d 5f3f
00000020: 44f6 7e3f 975b 6d3f a5f0 963f 9cdc 783f
00000030: cbe2 4f3f d92d 923f 4cab 863f a541 623f
0.8267282 0.9855945 0.9356099 0.8908608 0.91691947 1.160093 0.9399864 0.8732587
0.9959452 0.9271788 1.1792189 0.97211623 0.81205434 1.1420242 1.0521026 0.88381416

layer1.1.bn1.bias f4 [16]
00000000: 9835 40be 671b 16be 0d20 a83d 59f4 64be
00000010: 4bf0 91be b8ca d7bd 4f55 4fbe 125e ffbd
00000020: 28e8 51be 3cdc 01be ca93 57be afaa 37be
00000030: 67ed acbd bf21 64be 0b99 cebe 463f 98bd
-0.18770444 -0.1465889 0.08209238 -0.22358836 -0.2850364 -0.105367124 -0.20247386 -0.12469114
-0.20498717 -0.12681669 -0.21052471 -0.17936204 -0.084437184 -0.22278498 -0.40351138 -0.074339435

layer1.1.bn1.running_mean f4 [16]
00000000: c7a9 c7bf c1cf 8bbf fbc5 b7bf c039 30bf
00000010: bd5c 81be 7ac4 81be 7019 07c0 c615 3ebf
00000020: dbf4 36bf 6b99 563e 2fc6 c3bd bd75 b9bc
00000030: f8ed 1dbf 097c 61be 64a3 03bf ba74 a73f
-1.5598687 -1.0922776 -1.4357294 -0.6883812 -0.25266066 -0.25345212 -2.1109276 -0.74251974
-0.7146737 0.20956962 -0.09559285 -0.02263915 -0.61691236 -0.22019972 -0.5142119 1.3082497

layer1.1.bn1.running_var f4 [16]
00000000: dfc2 1940 b3b2 c43f c08c 863f 06e4 b23f
00000010: 208e 3040 f095 ab3f 627b 3140 48fd 7140
00000020: a2a9 933f 9326 a43f 82ea 803f 989b 713f
00000030: 63c6 bc3f c4ed a13f 398e 383f 49b5 cd3f
2.402519 1.5367035 1.0511703 1.3975837 2.7586746 1.3405132 2.7731557 3.781084
1.1536143 1.2824272 1.0071566 0.9437804 1.4748043 1.2650685 0.72092015 1.6070949

layer1.1.conv2.weight f4 [16, 16, 3, 3]
00000000: 828d 1ebe c66a 4e3e 0d87 f6bb 6dba 503b
00000010: 307f 3e3c cfe8 723d dc6f 8dbc d9bf 2bbe
00000020: 14a4 d83b 4153 743d 5a93 77be c8dd ad3c
00000030: 702a 7dbe 3d5a 4cbe 6548 cf3c 0479 78be
00000040: 139e 96be 051c aabe f67b f9bd 5699 95be
00000050: f985 d63d 6481 23be 5797 60be e573 933e
00000060: e65e 78be 8c44 2dbd 9d03 793e e815 65be
00000070: c9e6 4fbe f7b9 9f3e d0c7 573e 5ec6 87bd
00000080: a507 8f3e df7e 7bbd e1fa d6bd ea56 b4bd
00000090: 8a4e 913d e936 0bbe 1867 9bbc 1a25 82bb
000000a0: 6a69 8f3d 9b95 fc3c df55 b2bd dad1 85bc
000000b0: 904d 553e a25f adbd ca87 a8bd a310 18be
000000c0: b127 50bc 6d75 fabc 795e 4cbd 01f2 1a3e
000000d0: b123 d43d 7e67 eb3d 5418 dd3d c43e b93d
000000e0: 7cf5 20be bd21 693e 7cc4 9b3d e2d1 c2be
000000f0: 958e 763e fc9c 853d c257 59be c67a f0bd
00000100: 12dc aa3d 5b49 bc3d 615c b4bd a93c 3dbb
00000110: 9549 9ebd c9bc ddbd 56a3 e5bd fa63 bfbc
00000120: d253 5bbd 1513 26bc cf43 143e c8f9 48be
00000130: 4013 47be 19fa af3d a4dd 41bd 130b 11be
00000140: db3f 143d b0ce 85be 8a90 38be b17e 94bc
00000150: 8345 35be a7ba 48be 4e69 25bd 741a 04be
00000160: 483b fcbd cb57 7c3d 2472 13be ddbf 13be
00000170: bfe1 603e 4fb6 22bd b55a 15be 2ee7 e9bd
00000180: 8649 2dbe 06fb 55be 9f11 6e3d 5f6b a0be
00000190: 2481 e5bd 50de 93bd 42cf ec3d 69b1 d6be
000001a0: 5e5b 78be 998b 02be efa4 30bd a93f 19be
000001b0: 90df e3bd a26f efbd 1183 37be 2118 3cbd
000001c0: e15d 1dbd 6c97 8bbd 473e 153e 922e cc3d
000001d0: b3bb 283e aa76 87be d623 c33d 7900 373e
000001e0: 80bf bcbd 38af b23c 7f3d e7bd 45d4 dfbd
000001f0: b178 07be 437f 593d a344 74be 5f63 28be
00000200: 3516 78be ddaa b23d 9ab5 a43d 98cf d43d
00000210: 47ef 463e 388c 4c3e cd0d 1d3e 64ff e7bd
00000220: da46 81bd e205 3c3e 5fa2 4b3d efb8 213e
00000230: a6f0 ac3d 0f69 543e bcb9 6abc d793 6d3e
00000240: 9564 a7be ca1e 9cbe b11b 9bbe e409 dbbc
00000250: cff7 a1bc 74de 0fbe eaad 1e3e 080f c9bd
00000260: d3e5 9ebc 6b19 24bb b0f6 cdbc bdf1 d4bd
00000270: c681 0e3d d3fb a7bc 70de af3d 90e6 b83e
00000280: 60b9 773d 5c31 193e 77b2 813e 7c53 c8bc
00000290: eab7 7c3e 3559 00bd 7631 4abe 20a9 103d
000002a0: e2e3 92bd 42ba 793d 0162 fb3d bbe5 343b
000002b0: 8fba 9b3e 95de fdbc 37bc 5b3e c93b c43e
000002c0: ec31 773e 236a cd3d f3e6 213e c89e 3ebe
000002d0: 22ec 213e 7e13 6abd a397 073c 809f 983d
000002e0: 75ad 213e b9c0 bebc c538 343e b948 413c
000002f0: f2a2 fabd c5b8 38be 750a db3d ca11 a63b
00000300: f318 9bbe 21b4 f9bc 1663 e13d 1aaa e53c
00000310: 6e8a dd3d f46b 193e c158 5b3e e263 4ebe
00000320: bc76 50be f1e7 553e da3b 0ebd fcc2 4e3e
00000330: 1b6d 4dbd c8e0 3c3c 60f5 89bd 74a8 423d
00000340: a684 93bc 7331 063d 7565 5abc 700a 0e3e
00000350: d69a cc3d 9d40 333e 2af5 553e 830c 183e
00000360: 3896 c4bd a545 a2bd b8cb 65be 1ca9 a13e
00000370: 1d7c eebc 171a 9cbd a89b 623c b023 2bbc
00000380: 7598 7d3d a4a7 443e 020e 533e dc6b 273e
00000390: 65a6 323d 7db8 153d 9d94 343e f051 ce3d
000003a0: 1505 8abe a5ed 8fbd 67fd b7bd 8d4b be3d
000003b0: 8f79 ecbc 7d41 3ebe da04 f0bd 5d0c 4dbd
000003c0: d5f6 a33d 12e0 0dbd 3c24 dabd 38ed 1f3d
000003d0: 6f2d 173e 0da4 903e b5c0 8ebe 7521 133e
000003e0: 018f 20be c60f 9abe 972f 75bd 7ba2 1cbe
000003f0: 5381 e8bb f68f 4dbe a18b 8bbb a18a 473e
-0.15483668 0.20157918 -0.0075234235 0.00318494 0.011627004 0.059304055 -0.017265253 -0.16772403
0.0066113565 0.05964971 -0.24177304 0.021223918 -0.2472322 -0.19956298 0.025303075 -0.24264914
-0.29417476 -0.33224502 -0.12181847 -0.2921855 0.10474772 -0.15967327 -0.21932732 0.28799358
-0.24254951 -0.0423017 0.24317785 -0.22371638 -0.20302881 0.31196567 0.21072316 -0.066296324
0.2793552 -0.06140029 -0.1049707 -0.0880564 0.07095058 -0.13595165 -0.018970057 -0.003971708
0.07002528 0.030833056 -0.08707785 -0.016335417 0.20830369 -0.08465506 -0.08229025 -0.14850096
-0.012704776 -0.030573571 -0.049894784 0.1513138 0.1035837 0.11494349 0.10795656 0.09045175
-0.15718645 0.22766776 0.07605836 -0.38050753 0.24077828 0.06524083 -0.21224883 -0.11742167
0.08342756 0.09193679 -0.088066824 -0.0028875268 -0.077288784 -0.108270235 -0.112127945 -0.023363102
-0.053546734 -0.010136385 0.14478992 -0.19626534 -0.19440937 0.08592624 -0.047330514 -0.1416438
0.03619371 -0.26134253 -0.18023887 -0.018126817 -0.17702298 -0.19602452 -0.04038363 -0.12900716
-0.123159945 0.061607163 -0.1439901 -0.14428659 0.21961115 -0.039724644 -0.14585383 -0.11421047
-0.16922578 -0.20896539 0.058122274 -0.31331918 -0.11206272 -0.07220137 0.11562969 -0.41932228
-0.24253604 -0.12748565 -0.043126043 -0.1496569 -0.111266255 -0.11691214 -0.17921092 -0.04592145
-0.038419608 -0.06815991 0.14574538 0.0996982 0.16477852 -0.2645772 0.095283195 0.17871274
-0.09216213 0.021812066 -0.11291026 -0.10929159 -0.13229634 0.05309988 -0.23854308 -0.16444157
-0.24227221 0.08723996 0.0804245 0.10391158 0.19427215 0.19975364 0.15337296 -0.11328009
-0.06312342 0.18361619 0.049715396 0.15793203 0.084443375 0.20743202 -0.014326509 0.23200928
-0.32693925 -0.3049224 -0.30294564 -0.026738115 -0.019771485 -0.14049703 0.1549603 -0.0981732
-0.019396698 -0.0025039564 -0.025142044 -0.103976704 0.03479173 -0.020505821 0.085873485 0.36113405
0.06047952 0.14960235 0.2533147 -0.024453871 0.24679533 -0.031335074 -0.1974543 0.03531754
-0.071723714 0.060968645 0.12274552 0.002760275 0.3041577 -0.030989924 0.21458517 0.38326862
0.24140137 0.100300096 0.15810756 -0.18615258 0.15812734 -0.057147495 0.008275899 0.07452297
0.15788825 -0.023285257 0.17599781 0.011797124 -0.122381106 -0.18039234 0.10695354 0.0050680386
-0.30292472 -0.0304814 0.11005227 0.028035212 0.10817419 0.14982587 0.21420576 -0.2015529
-0.20357794 0.2088926 -0.034725048 0.20191568 -0.05015288 0.011528201 -0.06736255 0.04752393
-0.018007588 0.032762002 -0.013329853 0.13871169 0.0999047 0.17505117 0.20894304 0.14848523
-0.095989645 -0.0792344 -0.22440994 0.31574333 -0.029111916 -0.07622164 0.013831057 -0.01044552
0.061912972 0.19204575 0.20610812 0.16349739 0.043615717 0.036552895 0.17634816 0.10074222
-0.26957002 -0.07027749 -0.089838795 0.09291754 -0.028866557 -0.1857967 -0.11719675 -0.05006062
0.08006064 -0.03463752 -0.106514424 0.03904459 0.14763425 0.2825016 -0.278814 0.14368232
-0.15679552 -0.3009016 -0.05985984 -0.15296356 -0.007095495 -0.20074448 -0.0042585884 0.19486476

layer1.1.bn2.weight f4 [16]
00000000: 13c2 8abe b11e 8f3e 208e 013f 98d5 99be
00000010: 3da1 dfbe 3842 333e 99f4 89be 00cb 75be
00000020: 6a10 ef3e 5cec 3b3e 4747 12bf 34dc b8be
00000030: 872a a8be 2255 523e 2e22 30be 3701 403e
-0.27101192 0.27953103 0.5060749 -0.30045772 -0.43677703 0.17505729 -0.26944426 -0.2400322
0.4669221 0.18351883 -0.5714001 -0.36105502 -0.32844946 0.20540288 -0.17200539 0.18750463

layer1.1.bn2.bias f4 [16]
00000000: d290 00bd 1d29 86be 378d c63d 0b49 90bd
00000010: 532d 3d3d c18b b13d 84f2 20bd 40e8 673e
00000020: 8ca3 e7bd 2b48 803d 354c 8b3d b924 56bd
00000030: d042 373e 66c9 e13d 9f2c 6f3e aa49 8e3d
-0.03138811 -0.26203242 0.09694903 -0.07045182 0.046185803 0.08669234 -0.03929378 0.2264719
-0.11310491 0.06263765 0.06801645 -0.052281115 0.1789658 0.11024742 0.23356865 0.06947644

layer1.1.bn2.running_mean f4 [16]
00000000: bc93 a9bf f813 133f b44e 94bf 48b9 14bf
00000010: c96e f53e 6aef f2be 0a4c 8e3e 63e4 48be
00000020: 64f7 213f 14e6 ae3e 276c 513f 7afd d1be
00000030: c472 fc3e 769e 413d 84c5 0a3f 8c53 1dbe
-1.324821 0.57452345 -1.1586518 -0.58095217 0.47936085 -0.47448283 0.27792388 -0.19618373
0.63268113 0.3415991 0.8180565 -0.410137 0.4930631 0.04727026 0.54207635 -0.15363902

layer1.1.bn2.running_var f4 [16]
00000000: cd82 913f 0368 1a3f 1af4 1140 9783 833f
00000010: aa17 0c40 656a 633f 8f19 513f 47c5 a33f
00000020: 2641 213f bd05 8c3f 0db0 a73f 2675 b23f
00000030: cef4 d13f 331c a03f cce9 8e3f 3fcb 833f
1.1368042 0.6031496 2.2805238 1.0274533 2.1889443 0.8883422 0.81679624 1.2794579
0.62990034 1.0939251 1.3100601 1.3942001 1.6402833 1.2508606 1.1165099 1.0296401

layer2.0.conv1.weight f4 [32, 16, 3, 3]
00000000: 7088 72bd 31b4 9dbb ee44 dcba 4997 ecbd
00000010: e4b3 6fbd 6497 56bd 8662 96bd 797c 9cbc
00000020: b801 b6bd e168 bbbd cf1d 6f3d 4c4a 62bd
00000030: 9496 50be 877b 3e3c a32f f4bd 04bb e43c
00000040: ba24 ebbc 42c2 7f3d 1005 abbd 6189 39be
00000050: 9bef 16be cccc 853d 9383 cc3d 344a 093b
00000060: 73a9 273e 8f8d 083e 0ac1 f53d 3d7c 8abd
00000070: 7edd e13d 2718 2b3e 860a 13be 1317 0ebe
00000080: 6044 ae3c a536 01be b75b 80be d83d 8fbe
00000090: 0446 88be a41f dcbe 388c 1cbe 3b08 a3bd
000000a0: 4d46 32be 6ee6 efbd 0858 3bbc 45aa 2b3d
000000b0: 1d1b c0bc 68ca 48bb f958 babd 90ee 21be
000000c0: e261 6abb 5142 d93d d303 cbbc 5eda ff3d
000000d0: 10be 30bd 9279 593d 21c4 acbd 4029 e9bc
000000e0: c9a7 ed3d cd72 9d3d da1b abbd 9c8d 8cbd
000000f0: f2da 71bd bda2 cabd 6c00 2c3d a4b9 2e3e
00000100: a1f5 3d3c f86a 823d 631d 6c3e 3af5 14bd
00000110: ed61 1fbc 902f 5b3e d7ac 803e 30fa b43e
00000120: 4936 ea3d 1a4b 853c 97b1 153d aa7d 12be
00000130: 4849 90bd a349 f1bd 7c63 91bd f65e 953d
00000140: 83fe 7bbb effb 49be f377 7cbe 75f5 cb3a
00000150: 6708 51be 8623 7d3d eae2 193d 4a3b 27be
00000160: 5ed4 4abe 21dd f3bd 5cea 82bd 3c6b 803c
00000170: d74a 0ebd 3a9d bd3d 8d64 e3bd f390 073d
00000180: 9aa0 63bd f73c 4fbe ec16 22be add5 4bbc
00000190: 184a c83b 0848 75bc 2882 723b 8138 c03d
000001a0: 0e75 893d 8a40 353d a786 213d ee5b 09bd
000001b0: 725c 49bd 4b33 5dbd b654 bdbd 7eca 41be
000001c0: 5554 753c 5a9e 99bd b37b 433d d41f 4fbe
000001d0: f996 b03c 8f15 a1bd 4745 873c 53a3 23bd
000001e0: 16f6 6a3b 0041 19be 4376 b8bd 6732 17be
000001f0: 2d1c a4be a7ff b5bd 4742 2a3d a06a 093e
00000200: 80ee 2dbd 4320 4dbd e0ee 693d b667 d6bc
00000210: 4877 cd3d 21d3 093c 35bf 26bd 33ad b43c
00000220: 2b2b 62bd 8015 a0bd 7a50 9bbd 9b7b f13d
00000230: 3caa 603d 4e54 4abd b13a a73d f21d 3b3d
00000240: 4fd6 a13d af29 11be 3de0 923d 0565 153d
00000250: 863a b93c 737c 4a3b 2836 563e a91a 743e
00000260: 840e 8a3e 9de9 553d 0d2c 543e 831e 473e
00000270: a515 ef3c 680e 1e3e b791 e73d 3462 493e
00000280: 0db2 c3bb 0082 8fbc 2935 513b ab47 a8bd
00000290: edfd d73c ac4c 99bd 9a9a fabd c222 57bd
000002a0: 0968 86be ec66 01be 1a35 6ebe f326 cf3d
000002b0: 035a ee3b 2508 d6bd 099d b3bc 94d6 8f3d
000002c0: 0b05 26bd d491 10bd a6e1 34bb 3408 08be
000002d0: c883 24be 7f09 fdbd 0d3d d2bc 3e0c f83c
000002e0: 22db 653d d248 ae3b c767 ab3d 7e7e 5ebd
000002f0: 799d 15be a221 91bd 5c10 a0bc d071 e5bd
00000300: 92e9 ae3d 6021 613d f0ac 2e3d 0ec4 50bc
00000310: 7603 443e f657 09be 1b45 f3bd ba64 71bc
00000320: 69f7 f73c 4bf1 28be 4180 23bc 3102 34be
00000330: 8807 92be 0971 a53c 3680 0ebe 221d 3abd
00000340: bbba b0bd fcde ee3d bc5a 7c3c 29ed b93d
00000350: d27d 84bc c34d 333d 8218 aa3d f8c9 d43b
00000360: cf75 95be 210c bbbd 441f 613a b60c 3fbe
00000370: 11f4 00be a157 21bd 61c3 e1bd 8cc2 f6bd
00000380: b847 97be 88ed 06be 4010 80bd 9aaf 1cbe
00000390: 524a eabd 54d5 2ebe daae 3dbe 2e5f 93bd
000003a0: 0ac5 00be 592b b4be 7a52 3d3e afc6 07be
000003b0: 18d1 63be d8ba d9bb d50c 23be f83a 9ebd
000003c0: a745 75be e165 c6be 1b0e f1bd b97e 50bd
000003d0: 1080 1e3e aa25 303d 9c62 21bd 878d 82bd
000003e0: c77a 82bd 49b4 2cbe f034 463e 207f 353a
000003f0: f6a5 f8bd 7676 453d 011f 663e 0e21 553d
-0.05921215 -0.0048127403 -0.0016805211 -0.11552293 -0.058521166 -0.05239047 -0.073430106 -0.019102322
-0.088870466 -0.091508634 0.058378037 -0.055246636 -0.20369941 0.011626131 -0.119231485 0.027921207
-0.028704036 0.062441118 -0.08350575 -0.18118812 -0.1473984 0.065332025 0.09986033 0.002094877
0.16373233 0.1333525 0.1199971 -0.06761978 0.110285744 0.16708432 -0.14359483 -0.1387599
0.021272838 -0.12618501 -0.25069973 -0.2797687 -0.26615918 -0.4299289 -0.15287864 -0.07960554
-0.1740963 -0.11713873 -0.0114345625 0.04191043 -0.023450429 -0.0030638222 -0.090990014 -0.1581366
-0.003576391 0.10608352 -0.024782097 0.12492822 -0.043150008 0.053094454 -0.08435846 -0.028462052
0.11604268 0.07687912 -0.08354922 -0.06862947 -0.059046693 -0.09894321 0.04199259 0.17063004
0.011594207 0.06368059 0.23058085 -0.03636668 -0.009727937 0.21404862 0.25131866 0.35347128
0.11436135 0.016271163 0.036546316 -0.1430575 -0.07045227 -0.11781623 -0.07099053 0.07293503
-0.0038451261 -0.19725011 -0.24655132 0.0015560823 -0.20413361 0.061801456 0.037569918 -0.1633121
-0.19807574 -0.11907411 -0.06392357 0.015676133 -0.03473934 0.09258504 -0.11103163 0.03309722
-0.055573083 -0.202381 -0.15829057 -0.012441081 0.0061123483 -0.014970787 0.0037003849 0.09385777
0.067117795 0.044251002 0.039435055 -0.033534937 -0.04916043 -0.054003995 -0.09244673 -0.18924901
0.01497372 -0.07500906 0.04772539 -0.20226985 0.021556364 -0.0786544 0.016512526 -0.03995068
0.0035852245 -0.14966202 -0.09006932 -0.1476532 -0.32052746 -0.088866524 0.041567113 0.1341958
-0.04246378 -0.050079595 0.057112575 -0.0261725 0.10032517 0.008412153 -0.040709693 0.022055244
-0.05521695 -0.07816601 -0.07583709 0.11791154 0.05484985 -0.049396805 0.08165491 0.045682855
0.07902204 -0.14176057 0.07171676 0.036473293 0.022610914 0.0030896931 0.20919096 0.23838295
0.269642 0.052224744 0.20719929 0.19445233 0.029185126 0.15435183 0.1130709 0.19666368
-0.005972153 -0.017518044 0.0031922555 -0.082167946 0.026366198 -0.07485327 -0.12236519 -0.052523382
-0.26251248 -0.12636918 -0.23262444 0.10114851 0.007273914 -0.10450772 -0.021925466 0.070233494
-0.040532153 -0.035295323 -0.0027600317 -0.13284379 -0.16065896 -0.12355327 -0.025663877 0.030279275
0.056117184 0.0053187395 0.08369403 -0.05431985 -0.14610852 -0.07086493 -0.01953905 -0.11203349
0.08540644 0.05496347 0.042645395 -0.012742056 0.19141945 -0.1341246 -0.11878415 -0.014733488
0.030269342 -0.16498296 -0.009979309 -0.17578961 -0.2852137 0.0201955 -0.13916096 -0.04543794
-0.08629366 0.11663625 0.015402492 0.09078438 -0.016173277 0.04377533 0.08305456 0.006493803
-0.29191443 -0.09133173 0.0008587728 -0.18657193 -0.12593104 -0.03939021 -0.11023594 -0.120488256
-0.29546905 -0.13176548 -0.062530994 -0.15301362 -0.11439957 -0.17073566 -0.18523732 -0.071958885
-0.12575164 -0.35189322 0.18488494 -0.13259386 -0.22247732 -0.006644588 -0.15922864 -0.07726091
-0.23952352 -0.38749602 -0.117702685 -0.050902102 0.1547854 0.04300467 -0.03940068 -0.063746504
-0.06371074 -0.16865648 0.19356132 0.0006923545 -0.121410295 0.048208676 0.22472765 0.052033477

layer2.0.bn1.weight f4 [32]
00000000: 8fdd 843f ad6d 533f 49d5 863f 29c2 703f
00000010: 12e0 903f 4474 723f 0f45 953f bfed 653f
00000020: 936e 5d3f dab6 783f 7f9e 833f ec28 5f3f
00000030: ba9b 603f 6cf3 723f d3b7 833f 1eda 723f
00000040: 1ab8 8e3f 252b a13f 26e0 803f dd60 573f
00000050: 632f 5f3f f598 653f 57cd 673f b83a 6f3f
00000060: b132 813f e6b7 933f 8e8e 803f eeec 523f
00000070: f204 8a3f 66ea 693f aed8 7d3f c260 993f
1.0380114 0.82589227 1.053384 0.94046265 1.1318381 0.9470866 1.16617 0.89815897
0.8649685 0.9715401 1.0282744 0.87171817 0.8773762 0.9490268 1.0290474 0.9486407
1.1149933 1.2591292 1.0068405 0.84132177 0.8718168 0.8968652 0.905477 0.9344897
1.0093595 1.1540496 1.0043504 0.82392776 1.0782759 0.9137329 0.9915875 1.1982653

layer2.0.bn1.bias f4 [32]
00000000: 0440 debd 271c 49be 574d a3bd 76c4 22be
00000010: 089a 33be 6af0 34be 70e9 aebd 6e20 433c
00000020: f10f 4abe 6126 86be 8c90 18be f900 a7be
00000030: 1754 9dbe 2bbe 60bd 1360 be3d f04e ba3c
00000040: 3aec 31be 46d2 5abe 7763 94be 4962 91bd
00000050: 412a fcbd 2105 cfbd 5a88 4abe 893a 52be
00000060: 88bd f2bd 2080 6fbe d098 d9bc 3e1a 9dbe
00000070: 1622 ddbd 3c75 92be b03f d13d b03b 18be
-0.10852054 -0.19639646 -0.07973736 -0.15895256 -0.17539227 -0.17669836 -0.085406184 0.011909587
-0.19732644 -0.26201156 -0.1489889 -0.3261793 -0.30728218 -0.05486886 0.092956685 0.022742718
-0.1737527 -0.21369275 -0.28982136 -0.070988245 -0.12312747 -0.101084 -0.19778576 -0.20530142
-0.118525565 -0.2338872 -0.026562124 -0.30684084 -0.10797517 -0.28605068 0.102172256 -0.14866519

layer2.0.bn1.running_mean f4 [32]
00000000: 0105 fbbf 5377 16c0 8fec 89bf c119 23c0
00000010: 0dca a13f 370f 1abf bd15 c6bf 6dfb 153f
00000020: 6be2 c03f c9c1 65bf dbc6 82bf 4584 9abf
00000030: aaab 3cbf 4cae 84c0 6838 d8bf 850f 09c0
00000040: 7d84 76be 1a42 4d3e 58fb 73bf 7b50 9fbf
00000050: 520d bdbe edf2 06c0 82d8 473e 71a4 473d
00000060: 5e82 18c0 5b06 d3bf 3148 9dbf 6bce 093f
00000070: 4e91 983e 3d5f 0abf b0dc 253f 7528 a0bf
-1.9610902 -2.351033 -1.0775317 -2.548447 1.2639786 -0.60179466 -1.5475384 0.5858677
1.5069097 -0.8974882 -1.0216936 -1.2071615 -0.7369944 -4.1462765 -1.6892214 -2.1415722
-0.24073978 0.20044747 -0.95305395 -1.2446436 -0.36924225 -2.108577 0.19516185 0.048740808
-2.382957 -1.6486315 -1.2287656 0.53830594 0.2979836 -0.5405157 0.6478987 -1.2512347

layer2.0.bn1.running_var f4 [32]
00000000: 4953 c83f 8684 3940 6632 833f 36b2 2b40
00000010: 9480 603f f8af 933f f196 aa3f cc7a 3040
00000020: d02b 0240 4c49 963f f81e ac3f 0d91 943f
00000030: d640 d63f a887 0140 931e 0d40 0114 1f40
00000040: 7657 b73f 4949 413f 41a5 733f 37aa b13f
00000050: 262c d93f 1b5a 9d3f 35d2 893f 6baf 1440
00000060: d344 2240 ee67 bf3f b263 8740 37a8 de3f
00000070: 97fb 573f 9002 4c3f ad36 a03f 4ab3 5b3f
1.5650417 2.8987136 1.0249755 2.6827521 0.87696195 1.1538076 1.3327314 2.757495
2.033924 1.1741118 1.3446951 1.1606766 1.6738536 2.0239048 2.204991 2.485596
1.4323566 0.7550245 0.9517403 1.388007 1.6966598 1.2293123 1.0767275 2.3232067
2.5354507 1.4953592 4.23092 1.7395085 0.8436827 0.7969141 1.2516686 0.8582045
