models/small_14_adam_1em3_bs128/best_model.pth (torch, 363343 bytes, 77 tensors)

conv1.weight f4 [16, 3, 5, 5]
0	0xbdab05a4	-0.08350685
1	0x3d8f1553	0.06986489
2	0xbd8f8af0	-0.07008922
3	0xbdd62e65	-0.10458068
4	0x3d68a1bd	0.05679487
5	0x3c73d16e	0.014881475
6	0xbd438163	-0.047730815
7	0x3e5da384	0.21644408
8	0x3be4632d	0.0069698305
9	0xbd2b86da	-0.04187665
10	0x3cdb94c4	0.026804335
11	0x3d2fe196	0.042939745
12	0x3cb62deb	0.022238692
13	0x3db856cd	0.09000931
14	0x3cca0c37	0.024664028
15	0xbd011c0a	-0.03152088
16	0x3e35cd3c	0.17754072
17	0x3e1b01c8	0.15137398
18	0x3d56939d	0.05238687
19	0xbd8d0375	-0.06885425
20	0x3db2826b	0.087162815
21	0x3e069222	0.13141683
22	0x3cf9192d	0.030407513
23	0x3d8b59bf	0.06804227
24	0x3d7982a8	0.06091562
25	0xbd25febe	-0.040526144
26	0x3cdbf875	0.026851872
27	0x3cab18f6	0.020885926
28	0x3cdab6c2	0.026698474
29	0x3d05bef6	0.032652818
30	0x3cca5ad7	0.024701519
31	0x3e004e3c	0.12529844
32	0x3d940ad9	0.072286315
33	0x3d38f462	0.045154937
34	0x3d5878fd	0.05284976
35	0x3de5e70a	0.11225708
36	0x3d07d6b9	0.03316376
37	0x3c228f1a	0.009921813
38	0x3dd95db6	0.10613577
39	0x3c9d8e51	0.0192329
40	0x3d086ae7	0.033305075
41	0x3dab901a	0.083770946
42	0x3e00f7fa	0.12594596
43	0x3d5a28b4	0.053261474
44	0x3cefdc22	0.029279772
45	0x3d981e75	0.07427684
46	0x3cdc6ce9	0.026907401
47	0x3dcc56eb	0.09977516
48	0x3e0b3af0	0.13596702
49	0xbd8d08a9	-0.068864174
50	0x3d996064	0.07489088
51	0xbd1db051	-0.038498227
52	0x3c8d3736	0.01723824
53	0xbdab2879	-0.08357329
54	0x3c03f2b8	0.008053474
55	0xbd036cd8	-0.032086223
56	0xbd8c987a	-0.0686502
57	0xbe227418	-0.15864599
58	0xbd820a81	-0.0634966
59	0xbdb9a896	-0.09065358
60	0xbd097416	-0.033557974
61	0xbe0dc5cb	-0.13844983
62	0xbe255bc6	-0.1614829
63	0xbe1325d3	-0.14369898
64	0xb9a0f1e7	-0.0003069781
65	0xbe12114c	-0.1426441
66	0xbe43bf00	-0.1911583
67	0xbe307cef	-0.17235158
68	0xbe0cbbf6	-0.13743576
69	0xb8eb3e12	-0.00011217235
70	0xbe031dbe	-0.12804314
71	0xbe9c2cdf	-0.30502984
72	0xbe0ef54e	-0.13960764
73	0xbe5b64f0	-0.21425223
74	0xbd14ff37	-0.036376204
75	0xbd4ee7ef	-0.050514158
76	0xbdb92e28	-0.09042007
77	0xbd80557e	-0.06266306
78	0x3ccfc324	0.025361605
79	0x3d86381d	0.065536715
80	0xbdbf33cf	-0.093360536
81	0xbe3edfe7	-0.186401
82	0xbd9e2c5a	-0.07723303
83	0xbc90e12f	-0.0176855
84	0x3df757d8	0.12077302
85	0xbe3ce1d9	-0.18445529
86	0xbd7868bd	-0.06064676
87	0xbd8d7216	-0.06906526
88	0xbdad381e	-0.08457969
89	0xbba89588	-0.0051447786
90	0xbd93717b	-0.07199379
91	0xbd8737a1	-0.06602407
92	0xbda30d4d	-0.07961521
93	0xbe189219	-0.14899482
94	0xbe13efbc	-0.1444692
95	0xbd44b2b8	-0.048022002
96	0xbe39e4ae	-0.1815364
97	0x3d1b9a31	0.037988845
98	0x3c174dc8	0.009234853
99	0x3d8e3c3f	0.06945085
100	0x3ca4dcf0	0.020124882
101	0x3c4a4be5	0.012347196
102	0x3b5454b4	0.003239912
103	0x3dc34666	0.09534912
104	0xbc0d4e82	-0.008624675
105	0x3e0a4d5b	0.13506071
106	0x3dfa5a8d	0.122243024
107	0x3deff159	0.11715955
108	0x3d4f1a39	0.050562117
109	0xbdbc45c3	-0.091929935
110	0x3e1509b5	0.14554484
111	0x3e003962	0.1252189
112	0x3e135cf6	0.1439093
113	0xbc8e30d0	-0.01735726
114	0xbd0d8f33	-0.034560394
115	0x3da5aa4e	0.08089124
116	0x3dc640cc	0.09680328
117	0xbd692c8a	-0.05692724
118	0x3ddd2049	0.107971735
119	0x3c99cb67	0.018773748
120	0xbc947c00	-0.018125534
121	0x3d444db3	0.047925662
122	0xbceb38d6	-0.028713625
123	0xbc8cd7ba	-0.01719271
124	0x3c2dcf27	0.010608471
125	0xb9f192a4	-0.00046076358
126	0xbc081f40	-0.008308232
127	0xbc00747f	-0.007840275
128	0x3bd9c7b9	0.0066461232
129	0x3ccb5f32	0.024825666
130	0xbd4c64a1	-0.049900655
131	0xbd628b13	-0.055308413
132	0x3daf7bcd	0.08568535
133	0xbcd4966a	-0.02595063
134	0xbc498ee4	-0.012302134
135	0x3d52fc8a	0.05151037
136	0xbd32b4d8	-0.043629497
137	0xbd3186af	-0.043341335
138	0x3d011c98	0.03152141
139	0xbce98e95	-0.028510371
140	0xbcfe34dd	-0.031031067
141	0xbd675db3	-0.056485843
142	0x3b2d0c98	0.0026405212
143	0xbc917e84	-0.017760523
144	0xbc47c9a1	-0.012194068
145	0xbd891dd1	-0.0669514
146	0xbd042654	-0.032263115
147	0xbe001fec	-0.12512177
148	0xbd830d3d	-0.063990094
149	0xbd209295	-0.03920229
150	0x3d848f95	0.064726986
151	0xbd58f780	-0.05297041
152	0xbd851222	-0.06497599
153	0x3d5dd816	0.054161154
154	0x3d13c2e3	0.03607453
155	0xbdbcba31	-0.09215201
156	0x3d3e211a	0.046418287
157	0x3e627742	0.22115806
158	0x3e449dec	0.19200867
159	0x3c8cc04c	0.017181538
160	0x3de7783a	0.11302228
161	0x3d8ca63e	0.06867646
162	0x3cca4787	0.02469231
163	0x3d15cda7	0.03657308
164	0xbc1ab169	-0.009441712
165	0xbd83b133	-0.064302824
166	0x3dda0443	0.10645344
167	0xbd369f36	-0.04458543
168	0xbc95fce2	-0.01830906
169	0x3dbe4289	0.09290034
170	0xbd8e41f5	-0.06946174
171	0xbde500e4	-0.111818105
172	0xbda23b39	-0.07921452
173	0xbd2a98df	-0.041649695
174	0xbce43c0d	-0.027860666
175	0xbd324d29	-0.043530617
176	0xbe27baa1	-0.16379787
177	0xbe62aa1f	-0.22135209
178	0xbd32adf5	-0.04362293
179	0xbd91a805	-0.07112125
180	0xbcccf002	-0.025016788
181	0xbd9cef49	-0.076628275
182	0xbe80ef3d	-0.25182524
183	0xbe4cd275	-0.20002158
184	0xbdfd4da0	-0.123683214
185	0xbd3e1293	-0.046404433
186	0xbe30ee55	-0.17278416
187	0xbe6769ac	-0.22598904
188	0x3b767f2d	0.0037612424
189	0xbd8e9589	-0.06962115
190	0x3c2aafeb	0.010417919
191	0xbcc14d4b	-0.023596426
192	0xbd798186	-0.06091454
193	0xbd6d6b26	-0.057963513
194	0xbd8fcb1a	-0.070211604
195	0xbdd6948e	-0.10477553
196	0x3d2461bc	0.04013227
197	0x3dc85b5c	0.097830504
198	0xbdba1815	-0.090866245
199	0xbbbe2ccf	-0.0058036814
200	0x3d2144a1	0.03937209
201	0x3c6fd605	0.014638429
202	0xbc80dfcc	-0.015731715
203	0x3cf81e2f	0.03028783
204	0xbc9b7d71	-0.018980714
205	0xbb695069	-0.0035600907
206	0x3d87e345	0.06635145
207	0xbdaea34d	-0.08527241
208	0xbc410c49	-0.011782714
209	0xbd7ea646	-0.06217029
210	0x3d9b28bf	0.07576131
211	0xbc9f8c28	-0.019476011
212	0x3dc094eb	0.09403404
213	0xbce8babc	-0.028409354
214	0x3d43e5e4	0.047826663
215	0xbd3e144b	-0.04640607
216	0xbd80757b	-0.062724076
217	0xbd81aa9f	-0.063313715
218	0x3d3dc190	0.046327174
219	0xbb1f265f	-0.0024284346
220	0x3d97d833	0.074142836
221	0x3d780c14	0.060558394
222	0xbd43ba19	-0.0477849
223	0xbde3a672	-0.11115731
224	0x3dd0a1af	0.10187089
225	0x3dddae99	0.108243175
226	0x3da975a2	0.0827439
227	0xbd168272	-0.036745496
228	0xbe020c59	-0.12700023
229	0xbddc0dfb	-0.10744854
230	0x3da8642d	0.08222232
231	0x3d12e7ee	0.035865717
232	0xbd242aa0	-0.040079713
233	0xbe26893e	-0.16263291
234	0x3d991f0f	0.07476627
235	0xbcf66e7d	-0.030081982
236	0xbdb02e47	-0.08602577
237	0xbd299203	-0.041399013
238	0xbdddabe8	-0.10823804
239	0xbdf2e5c0	-0.118602276
240	0x3dc84276	0.097783014
241	0xbdca2cd4	-0.098718315
242	0xbc07b30b	-0.008282433
243	0xbd6a1c41	-0.05715585
244	0x3da2e1fa	0.07953258
245	0x3d589292	0.052874155
246	0x3e0964ab	0.13417308
247	0xbd89e63f	-0.06733369
248	0xbcff8608	-0.03119184
249	0xbd49d315	-0.04927357
250	0x3e40b249	0.1881801
251	0xbc85a165	-0.01631231
252	0xbb44562f	-0.0029958596
253	0xbe3b64fb	-0.1830024
254	0xbd9ca3d1	-0.07648433
255	0x3de9f7da	0.11424227

bn1.weight f4 [16]
0	0x3f56c053	0.83887213
1	0x3f735c99	0.9506317
2	0x3f640f6b	0.89086026
3	0x3f64c18c	0.8935783
4	0x3f38bd67	0.72164005
5	0x3f611dee	0.87936294
6	0x3f7570ef	0.9587545
7	0x3f5e7f52	0.86913025
8	0x3f58b5a1	0.84652144
9	0x3f89057e	1.0704801
10	0x3f506bbd	0.81414396
11	0x3f4de552	0.8042804
12	0x3f59a23d	0.8501318
13	0x3f5c16fd	0.8597258
14	0x3f8e5cbe	1.1122053
15	0x3f6885d0	0.9082918

bn1.bias f4 [16]
0	0x3da1adbb	0.078944646
1	0xbdb136be	-0.08653019
2	0xbceb7ff2	-0.028747533
3	0xbcab6582	-0.020922426
4	0x3d92fb7f	0.07176875
5	0xbd149d0f	-0.036282595
6	0x3d6acef6	0.05732628
7	0x3d664c22	0.05622495
8	0xbdea5862	-0.11442639
9	0x3e1ac8bc	0.15115637
10	0x3c158257	0.009125314
11	0xbd37fa30	-0.04491633
12	0xbc449781	-0.011999012
13	0x3cbd726f	0.023125855
14	0x3dfaeb3c	0.12251899
15	0xbdde8b8d	-0.10866461

bn1.running_mean f4 [16]
0	0x3de35b7c	0.11101434
1	0x3e9f1cec	0.31076753
2	0x3f1711a4	0.5901129
3	0x3f208256	0.62698877
4	0xbdb0006e	-0.08593832
5	0x3f643c2b	0.8915431
6	0x3f2e7b74	0.68157125
7	0xbcbd6ed7	-0.023124142
8	0x3f44cb75	0.7687295
9	0x3b10f385	0.0022117805
10	0x3ec345fd	0.38139334
11	0xbf1a19b4	-0.6019547
12	0xbfba81ae	-1.4570825
13	0xbec9a26d	-0.39381734
14	0xbae9ebb7	-0.0017846738
15	0xbf8d0588	-1.1017313

bn1.running_var f4 [16]
0	0x3e9e9b23	0.30977735
1	0x3eb7155a	0.35758477
2	0x3f65fa30	0.8983488
3	0x3f7b466e	0.9815434
4	0x3d41a00e	0.04727178
5	0x40062302	2.0958867
6	0x3fb4b413	1.4117454
7	0x3e30dfd1	0.17272879
8	0x3fc36479	1.5265037
9	0x3e8d21a5	0.2756473
10	0x3f0f8c60	0.5607357
11	0x3f88bf6b	1.0683416
12	0x40a755a4	5.229204
13	0x3edfbbd7	0.43697998
14	0x3db9eb0e	0.09078036
15	0x404262c8	3.0372791

layer1.0.conv1.weight f4 [16, 16, 3, 3]
0	0x3ea9ce49	0.33165196
1	0x3be94865	0.007119226
2	0xbe9af36f	-0.3026385
3	0x3d53d2f5	0.051714856
4	0x3dc26db0	0.094935775
5	0x3e0b5c01	0.13609315
6	0x3ced779b	0.028987696
7	0x3dd7bef7	0.105344705
8	0x3e1b07e6	0.15139732
9	0x3e57e922	0.21085027
10	0xbd91ba87	-0.071156554
11	0xbd9f96f6	-0.077924654
12	0xbdcf0ec2	-0.10110237
13	0x3d8f0d52	0.069849625
14	0x3bc66105	0.006054046
15	0x3e153968	0.1457268
16	0xbbf4caad	-0.00747045
17	0x3dce2348	0.10065323
18	0xbd1f7bba	-0.038936354
19	0x3d854def	0.06509005
20	0x3e892247	0.26783964
21	0xbeb1d5d2	-0.34733444
22	0xbe321742	-0.17391685
23	0x3dc3a9ff	0.095539086
24	0x3e03979b	0.12850802
25	0xbca9d5e9	-0.020731883
26	0xbd168e8e	-0.036757044
27	0x3e2378d7	0.15964065
28	0x3d9a5c50	0.075371385
29	0x3e29a8c7	0.1656829
30	0x3d001dfc	0.031278595
31	0xba300938	-0.0006715241
32	0x3d8cce7c	0.06875321
33	0xbe303d7a	-0.17210951
34	0xbc95f7bd	-0.018306607
35	0x3e4b2875	0.19839652
36	0xbb110d32	-0.002213311
37	0x3cd134f1	0.02553794
38	0xbd7afa40	-0.061273813
39	0x3e4f46b0	0.20241809
40	0x3d185c2c	0.037197277
41	0xbc7c636a	-0.015404562
42	0x3dee6f75	0.116423525
43	0x3de18f4f	0.11013662
44	0x3e3bbd4e	0.18333933
45	0xbda600a8	-0.08105594
46	0x3d730e4f	0.059339818
47	0xbd842acf	-0.064534776
48	0x3e17ce9b	0.14824907
49	0x3bd54659	0.0065086302
50	0x3dd03f10	0.10168278
51	0x3db32dc6	0.08748965
52	0x3db4713e	0.08810662
53	0x3dab0c0a	0.08351906
54	0x3c9c1375	0.019052247
55	0xbe5fb624	-0.21846825
56	0xbd1344b3	-0.03595419
57	0xbdfbf44c	-0.12302455
58	0xbda64412	-0.08118452
59	0xbe3dfaf8	-0.18552768
60	0xbbaf9401	-0.0053582196
61	0xbe7107b5	-0.23538096
62	0xbe715983	-0.23569302
63	0xbce21a7e	-0.027600523
64	0x3e205c8e	0.15660307
65	0x3e26d24d	0.16291161
66	0xbe5357d1	-0.20638968
67	0x3e8c1cc4	0.27365696
68	0x3dc2e4dc	0.09516308
69	0x3cb8a213	0.02253822
70	0xbe7f23e1	-0.2491603
71	0xbe4ec64a	-0.20192829
72	0xbcb4ccde	-0.022070345
73	0xbd73cb75	-0.059520204
74	0xbda93844	-0.08262685
75	0x3d08f96a	0.033440985
76	0xbdcd0fc4	-0.10012773
77	0xbe09b1f9	-0.13446797
78	0x3dd06848	0.1017614
79	0x3d917ccf	0.071038835
80	0xbe88bd5c	-0.2670697
81	0x3d0ef755	0.034903843
82	0x3d2f9bb3	0.042873096
83	0x3e80dea2	0.25169855
84	0xbcb62a4a	-0.022236962
85	0xbe115331	-0.14191891
86	0xbd4b9378	-0.049701184
87	0xbe0b5992	-0.13608387
88	0xbe1681f2	-0.14698008
89	0xbe47f694	-0.19527656
90	0xbe27a835	-0.1637276
91	0x3ea79f87	0.32738897
92	0x3ddd0abf	0.10793065
93	0xbe1450be	-0.14483926
94	0xbe6755ad	-0.22591276
95	0x3de822cb	0.11334761
96	0xbe12dde8	-0.14342463
97	0xbe6e290d	-0.23257847
98	0xbc4a9116	-0.012363693
99	0x3de114f1	0.109903224
100	0xbe7d7ec0	-0.24755383
101	0x3e77f055	0.24212773
102	0x3d8d4fb0	0.06899965
103	0xbc921d6f	-0.0178363
104	0xbd2dca70	-0.042429388
105	0x3ddd6172	0.10809602
106	0x3d0715d7	0.032979812
107	0x3d427a88	0.047480136
108	0x3decca78	0.11562055
109	0x3df7a232	0.12091483
110	0xbd6ef8fa	-0.05834291
111	0xbe40903c	-0.18805021
112	0xbe5f64dc	-0.21815819
113	0xbe0d4498	-0.13795698
114	0x3dccfe12	0.100093976
115	0xbe02f23a	-0.12787715
116	0xbe0d3d61	-0.13792945
117	0x3ddd35ea	0.10801299
118	0x3e7c97ef	0.24667333
119	0xbc9b36ec	-0.018947087
120	0x3cf4cc5c	0.029882602
121	0xbdd9f6de	-0.10642789
122	0xbded87c9	-0.115981646
123	0x3e8b0ca2	0.27158076
124	0xbe7c4185	-0.24634369
125	0x3d7ad754	0.06124051
126	0x3c868017	0.0164185
127	0x3c396d5a	0.011317575
128	0x3e4195fc	0.18904871
129	0x3deed202	0.116611496
130	0x3c3ef2e1	0.0116545865
131	0x3e222c17	0.15837131
132	0x3d457059	0.048202846
133	0xbd7783b4	-0.060428336
134	0xbed16516	-0.40897435
135	0x3e870382	0.26369864
136	0xbcb5f4ba	-0.022211421
137	0xbe60d281	-0.21955301
138	0xbe0c5447	-0.13704024
139	0x3db8c690	0.09022248
140	0xbe073b33	-0.13206176
141	0xbd385425	-0.04500212
142	0x3de5bdd8	0.112178504
143	0x3cb7c542	0.022432927
144	0xbddb3080	-0.1070261
145	0xbe03dd70	-0.1287744
146	0xbe7e4d1b	-0.24834101
147	0x3d244a8d	0.04011016
148	0xbda405ea	-0.080089405
149	0xbe11f78b	-0.14254586
150	0xbe89b2cf	-0.26894233
151	0xbe003b4a	-0.12522617
152	0x3b270008	0.0025482196
153	0x3e009203	0.12555699
154	0x3dc13c7c	0.094353646
155	0x3e0218c5	0.12704761
156	0x3c81d88d	0.01585033
157	0x3e18b193	0.14911489
158	0xbcf73dd2	-0.030180845
159	0xbd77c7ed	-0.0604934
160	0xbcd91fc2	-0.026504401
161	0x3d4b622f	0.049654182
162	0xbe02d149	-0.12775148
163	0x3e5d944d	0.21638604
164	0x3dbbdcb0	0.09172952
165	0xbd62bc17	-0.055355158
166	0xbdd3372b	-0.10313257
167	0x3eafa3e7	0.34304735
168	0xbd19ebb5	-0.037578303
169	0x3dacff52	0.08447136
170	0xbd8634a6	-0.06553011
171	0x3d35d83e	0.044395678
172	0x3c66fd48	0.014098473
173	0x3d8dd620	0.06925607
174	0xbca2c880	-0.019870996
175	0x3d36c679	0.044622872
176	0x3cad9768	0.02119036
177	0x3a8b95ae	0.0010649466
178	0x3e404b62	0.18778756
179	0x3d32a192	0.043611117
180	0x3e2fcad0	0.1716721
181	0xbdc10331	-0.09424437
182	0xbda4c8ad	-0.08046088
183	0x3d63ef6f	0.055648264
184	0xbd4f7e27	-0.050657418
185	0xbd9df8f4	-0.077135
186	0x3e270718	0.163113
187	0x3e8aad3d	0.27085295
188	0x3e07e5f4	0.13271314
189	0xbda382b7	-0.07983916
190	0xbe3808fc	-0.17972177
191	0xbe04d9b3	-0.1297367
192	0x3b449ff8	0.0030002575
193	0xbbd29c93	-0.0064273565
194	0x3ad2922d	0.0016065292
195	0x3e174e8c	0.14776057
196	0x3d86a3ab	0.06574186
197	0xbde75357	-0.11295193
198	0xbd66785b	-0.056267124
199	0xbe84bf96	-0.25927418
200	0xbb05c0cf	-0.0020409112
201	0x3c4d12b3	0.012516665
202	0x3db6918f	0.08914482
203	0xbd9a949a	-0.07547875
204	0x3e1664fd	0.14686961
205	0x3e919f8b	0.28442034
206	0xbdf1c377	-0.1180486
207	0xbc93f71b	-0.018062165
208	0x3d2cfa4f	0.0422309
209	0xbd400300	-0.04687786
210	0x3e0d5edd	0.13805719
211	0x3dc7a718	0.097486675
212	0x3ae53dda	0.0017489747
213	0x3e2ce463	0.16883998
214	0xbdf36d7c	-0.11886117
215	0xbdf94ad7	-0.12172478
216	0xbe6d475f	-0.23171757
217	0xbd862ab4	-0.06551114
218	0xbdd781b3	-0.10522785
219	0xbcf368a9	-0.029712992
220	0x3e0c05f0	0.1367414
221	0x3b6d95fa	0.0036252723
222	0x3e1a89f3	0.15091686
223	0xbe2081c3	-0.156745
224	0xbdf1a201	-0.11798478
225	0x3c5cf3ab	0.013485829
226	0xbe6466d9	-0.22304858
227	0x3de33b2a	0.11095269
228	0x3dfc7164	0.12326315
229	0xbe84d269	-0.2594178
230	0xbd8cf841	-0.06883288
231	0xbe518a3b	-0.20462887
232	0xbd940770	-0.07227981
233	0xbea45be4	-0.32101357
234	0xbe273bd6	-0.1633142
235	0xbe38722a	-0.180123
236	0xbb172502	-0.002306283
237	0x3d2eee30	0.042707622
238	0xbe910155	-0.2832133
239	0xbe1fabf7	-0.15592943
240	0xbe0108be	-0.12600991
241	0xbeb79320	-0.35854435
242	0x3cb1aeb1	0.021689745
243	0x3dffe64b	0.12495097
244	0xbe411baa	-0.18858209
245	0x3ca10b1e	0.019658621
246	0x3e02cedf	0.12774228
247	0xbd65d505	-0.056111354
248	0xbe4ad5c5	-0.19808109
249	0xbc93d4e3	-0.018045848
250	0x3d6a341c	0.0571786
251	0x3dc71fc2	0.09722854
252	0xbdcca5c8	-0.09992558
253	0x3e117eb8	0.14208496
254	0xbd67309b	-0.05644284
255	0xbdcd2b82	-0.10018064

layer1.0.bn1.weight f4 [16]
0	0x3f6a0c50	0.9142504
1	0x3f67a20f	0.90481657
2	0x3f7d4f76	0.9894937
3	0x3f78e37e	0.97222126
4	0x3f72b1b8	0.9480243
5	0x3f8e0c57	1.1097516
6	0x3f74e028	0.95654535
7	0x3f83acf3	1.0287155
8	0x3f6951f7	0.91140693
9	0x3f742a2f	0.9537687
10	0x3f8246d7	1.0177869
11	0x3f846c1b	1.0345491
12	0x3f77c039	0.96777683
13	0x3f68a282	0.9087297
14	0x3f8ca9aa	1.0989277
15	0x3f89ef1f	1.0776099

layer1.0.bn1.bias f4 [16]
0	0x3b420cdc	0.0029609716
1	0x3cbfd6f2	0.023417924
2	0x3e640a29	0.22269501
3	0xbe034caf	-0.12822221
4	0x3b2b31c9	0.0026122204
5	0x3e873d4b	0.2641395
6	0xbe1e655c	-0.15468353
7	0xbe2162ef	-0.15760396
8	0xbd9940b9	-0.07483048
9	0xbdc70b3f	-0.09718942
10	0x3c84dec3	0.016219502
11	0xbd870785	-0.06593231
12	0x3e68c67a	0.22731963
13	0xbdf12388	-0.11774355
14	0x3cb99106	0.02265216
15	0xbe577900	-0.21042252

layer1.0.bn1.running_mean f4 [16]
0	0x3dc4a839	0.096023984
1	0xbf725f3a	-0.94676554
2	0xbf91a165	-1.1377379
3	0xbf100051	-0.5625048
4	0xbb8362e2	-0.0040095905
5	0xbf1a202f	-0.6020536
6	0xbf1d24ce	-0.61384284
7	0xbf6cfd62	-0.9257413
8	0xbf854087	-1.0410317
9	0xbef03e4f	-0.46922538
10	0xbfa0b6b2	-1.2555754
11	0xbed9fe7d	-0.42576972
12	0xbe870ac8	-0.26375413
13	0xbe73f5c5	-0.23824222
14	0xbf009bf1	-0.5023795
15	0xbe5d419c	-0.21607059

layer1.0.bn1.running_var f4 [16]
0	0x3f836a2f	1.026678
1	0x402e79d8	2.7261868
2	0x401000b0	2.250042
3	0x3f5237d4	0.82116437
4	0x3ff41fed	1.9072243
5	0x3f9b8669	1.2150394
6	0x3f2a93ce	0.6663178
7	0x3fab66b1	1.3390714
8	0x4070f6d7	3.765066
9	0x40506909	3.2564108
10	0x3fd6b678	1.6774435
11	0x3fa46eb1	1.284628
12	0x3fb8d951	1.444132
13	0x3fde5303	1.7369083
14	0x3f13fa9d	0.5780428
15	0x3f5805b1	0.84383684

layer1.0.conv2.weight f4 [16, 16, 3, 3]
0	0xbe408b54	-0.1880315
1	0xbbeb73d7	-0.00718544
2	0x3e38f28a	0.18061271
3	0x3dc96bb1	0.09834994
4	0x3e647121	0.2230878
5	0x3de01bed	0.109428264
6	0x3e519995	0.20468743
7	0x3e3835dd	0.17989297
8	0x3d8c3883	0.06846716
9	0xbc116392	-0.008873837
10	0xbb759658	-0.0037473645
11	0xbcbcba44	-0.023038037
12	0xbd9fbea7	-0.07800036
13	0xbdfc3d95	-0.12316433
14	0x3d2721bc	0.040803656
15	0x3d1488f3	0.036263417
16	0x3b25995a	0.0025268407
17	0xbbbde2f2	-0.0057948763
18	0xbdaf0bf5	-0.085472025
19	0xbe146e7c	-0.14495271
20	0x3e372221	0.17884113
21	0xbde5d70b	-0.11222657
22	0xbe1f5763	-0.15560679
23	0xbd8b9b23	-0.06816699
24	0xbec0962c	-0.37614572
25	0xbddc545b	-0.10758277
26	0x3c21a2ad	0.009865445
27	0xbde7132f	-0.11282956
28	0xbe31eed5	-0.17376263
29	0xbddffa28	-0.109363854
30	0x3e5f87de	0.21829173
31	0xbd426668	-0.047460943
32	0x3cb38561	0.021914186
33	0x3dceb887	0.100937895
34	0x3c96a6b1	0.018390032
35	0x3dc66681	0.0968752
36	0xbddb4aac	-0.10707602
37	0x3d99e6a1	0.07514692
38	0x3ccc1e13	0.024916684
39	0xbdec79f6	-0.115467
40	0x3d23fe4c	0.04003744
41	0xbd36915e	-0.044572227
42	0x3d819bdf	0.06328558
43	0xbdb81b88	-0.08989626
44	0xbda214e7	-0.07914143
45	0x3cb6d8c3	0.022320157
46	0x3d8b7b15	0.068105854
47	0x3c32127c	0.010868665
48	0x3e96acba	0.29428655
49	0xbe65103c	-0.22369474
50	0x3d93c9ba	0.07216211
51	0xbdf18d3a	-0.11794515
52	0x3e006b1a	0.12540856
53	0xbddc32b5	-0.10751859
54	0x3dc2f825	0.09519986
55	0xbcd4b58c	-0.025965475
56	0x3e15d8c7	0.14633475
57	0xbc9df353	-0.019281065
58	0xbc125ed4	-0.008933742
59	0x3dbc8307	0.09204679
60	0xbb7ff902	-0.0039058332
61	0xbe2b848c	-0.16749781
62	0xbe740f89	-0.23834051
63	0xbe9d79fc	-0.3075713
64	0xbe49e6e7	-0.19716989
65	0xbe07e2da	-0.13270131
66	0xbd95b9e7	-0.07310849
67	0xbe375ebf	-0.17907237
68	0xbe24f993	-0.1611083
69	0x3def9c95	0.116997875
70	0xbd8ce956	-0.06880443
71	0x3e219c4b	0.15782277
72	0xbdf5cd57	-0.12002056
73	0xbd50ff1e	-0.05102455
74	0xbe453f1e	-0.19262359
75	0xbdff289f	-0.1245892
76	0x3df1ddfc	0.11809918
77	0xbcc5e305	-0.024156103
78	0x3e6220f7	0.22082888
79	0xbd03ba86	-0.032160304
80	0x3d9bed06	0.07613568
81	0x3e7e2bc7	0.24821387
82	0x3ddf0701	0.10890008
83	0x3c5f3927	0.013624466
84	0xbe1ff534	-0.15620881
85	0xbd23095b	-0.039803844
86	0x3c0040b2	0.007827925
87	0xbdb0ab81	-0.08626462
88	0xbca4c6ae	-0.02011427
89	0x3e28176e	0.16415188
90	0xbe0d0c9c	-0.13774341
91	0xbecf842d	-0.4053053
92	0xbdab7eff	-0.08373832
93	0xbca9beae	-0.020720806
94	0xbd90a3a5	-0.07062463
95	0xbe7f8f0b	-0.2495691
96	0x3dfd5ce7	0.12371235
97	0x3dc88b45	0.097921886
98	0x3e569532	0.20955351
99	0xbcb4c59d	-0.022066886
100	0x3e075c8e	0.132189
101	0x3e7fc504	0.24977499
102	0xbe3964c2	-0.18104842
103	0x3e085443	0.13313393
104	0xbcf68db2	-0.030096862
105	0x3d451826	0.048118733
106	0x3d536bfb	0.05161665
107	0x3d74ebcb	0.059795182
108	0xbe025fd0	-0.12731862
109	0x3dc43d4f	0.09582006
110	0x3d922d24	0.07137516
111	0x3cabc041	0.020965697
112	0x3d1fea4b	0.0390418
113	0xbd8f1a89	-0.06987483
114	0x3cbd291e	0.023090895
115	0x3afcc515	0.0019284809
116	0x3de9d167	0.114168935
117	0xbd218372	-0.039431997
118	0xbd42881d	-0.04749309
119	0xbdeee38f	-0.11664497
120	0xbdb3b81b	-0.0877535
121	0xbd27623c	-0.040865168
122	0xbd0e8283	-0.034792434
123	0xbe63685f	-0.22207783
124	0x3dd3e6cd	0.10346756
125	0xbd9abfce	-0.07556115
126	0x3de3d013	0.111236714
127	0x3e8eaba0	0.27865314
128	0x3e79d49e	0.24397513
129	0xbccc037a	-0.024904002
130	0xbbdaf967	-0.006682563
131	0xbe914354	-0.2837168
132	0xbe243d22	-0.16038945
133	0xbe8d4e75	-0.2759892
134	0xbe24b0f9	-0.16083135
135	0x3d06a4c4	0.032871976
136	0xbd2a5cde	-0.04159247
137	0xbd9190a1	-0.07107664
138	0xbdd9e513	-0.106393956
139	0xbdb027c3	-0.08601334
140	0x3e52d1a5	0.20587786
141	0xbd05e241	-0.032686476
142	0x3df3e881	0.11909581
143	0xbc91d7cf	-0.0178031
144	0x3b97a605	0.0046279454
145	0xbd4ca129	-0.04995838
146	0xbc102933	-0.008798885
147	0x3d54b8da	0.0519341
148	0xbd617401	-0.05504227
149	0x3c71d61e	0.014760522
150	0x3ddeb127	0.10873633
151	0x3e2904ea	0.16505781
152	0xbe0af16a	-0.13568655
153	0xbe14bc09	-0.14524855
154	0xbdca19c6	-0.09868197
155	0x3e05520a	0.13019577
156	0x3e12131b	0.142651
157	0x3caf51ff	0.021401403
158	0x3db89eec	0.09014687
159	0x3da7d64b	0.0819517
160	0x3d65f772	0.056144185
161	0x3d6e1155	0.058121998
162	0xbe073b9f	-0.13206337
163	0x3c3be55d	0.011468259
164	0x3dbb6f26	0.09152059
165	0xbe243b76	-0.16038308
166	0xbd36e557	-0.04465231
167	0xbda3ae8c	-0.079922765
168	0xbdfabe0f	-0.12243282
169	0x3d6c2cb4	0.05765982
170	0x3e0a6fb5	0.13519175
171	0xbe473367	-0.19453202
172	0x3d82b3a3	0.06381919
173	0x3d34b36d	0.044116426
174	0x39cf820a	0.00039579003
175	0xba757fc9	-0.000936505
176	0x3e7741ef	0.24146245
177	0xbe4361ae	-0.1908023
178	0xbda240ae	-0.07922493
179	0xbd91cdd3	-0.07119336
180	0x3b98e9bc	0.004666535
181	0xbde3a955	-0.11116282
182	0xbd5642a3	-0.052309643
183	0xbb2b8306	-0.0026170625
184	0x3e865d92	0.26243263
185	0x3d1e4cde	0.038647525
186	0x3cb0b379	0.021569954
187	0x3d906af1	0.070516475
188	0xbe20e7f2	-0.1571348
189	0x3dd6a3ac	0.10480437
190	0xbe2ceaa2	-0.1688638
191	0xbca1d883	-0.019756561
192	0x3d365745	0.04451682
193	0xbdc0a165	-0.094057836
194	0xbe53848a	-0.20656028
195	0xbc441d66	-0.0119699
196	0xbd557278	-0.05211112
197	0x3e3a986e	0.1822221
198	0x3d1d2f14	0.038374975
199	0x3d408b2d	0.04700773
200	0x3e40a3cd	0.18812485
201	0x3d8ab23f	0.06772279
202	0xbda57cb0	-0.08080423
203	0x3d277744	0.040885225
204	0x3d03c486	0.03216984
205	0xbe75a388	-0.23988163
206	0x3d51f9ae	0.051263504
207	0x3d3a7cdd	0.045529235
208	0xbdd9c8e9	-0.10634024
209	0x3e196a58	0.14981973
210	0x3d93ed64	0.07223013
211	0xbc9472b5	-0.018121103
212	0x3befcb2c	0.007317921
213	0xbc800226	-0.015626024
214	0xbe615b40	-0.22007465
215	0x3d750de6	0.059827708
216	0x3d88c08b	0.0667735
217	0x3d78a3d2	0.060703106
218	0xbd5b9e50	-0.053617775
219	0x3c19f10b	0.009395848
220	0xbe9c3ab2	-0.3051353
221	0x3d4557b5	0.048179347
222	0xbe00d876	-0.12582573
223	0x3c808f45	0.015693316
224	0xbe974d9b	-0.29551396
225	0xbeb03815	-0.34417787
226	0xbe79c85c	-0.24392837
227	0x3d620bf3	0.055187177
228	0x3d9d3115	0.07675377
229	0xbd8355a2	-0.064128175
230	0xbd8cc6cf	-0.06873857
231	0xbe13fc21	-0.14451648
232	0xbdd6e897	-0.10493582
233	0xbd2d36a9	-0.042288456
234	0x3c729b4b	0.014807533
235	0x3d8564c2	0.06513359
236	0x3e4edf78	0.20202434
237	0xbe28a39f	-0.16468666
238	0x3e965ab5	0.2936608
239	0x3e553835	0.20822223
240	0xbd237794	-0.03990896
241	0xbdbe6054	-0.09295717
242	0x3d04f329	0.032458458
243	0xbdb341b9	-0.0875277
244	0x3e1db15a	0.15399686
245	0xbd0c6920	-0.034279943
246	0xbe38a10b	-0.18030183
247	0xba4ed774	-0.00078903814
248	0x3d5a3a2a	0.053278126
249	0xbd7899c6	-0.060693525
250	0xbd61b552	-0.05510456
251	0x3e0b14f1	0.13582207
252	0xbdcad891	-0.09904588
253	0x3d38036a	0.04492513
254	0x3c181289	0.009281763
255	0x3dc750c4	0.09732202

layer1.0.bn2.weight f4 [16]
0	0xbec43e09	-0.3832858
1	0x3deccc0e	0.11562358
2	0x3eb24757	0.34820053
3	0xbd9b0d6e	-0.07570921
4	0xbedb3bbb	-0.42819008
5	0x3e3e21ed	0.18567629
6	0xbdee7824	-0.11644009
7	0x3e6af616	0.22945437
8	0xbd0e9618	-0.03481111
9	0x3ebc8808	0.36822534
10	0x3eb7870a	0.35845214
11	0x3e846569	0.2585862
12	0xbe4e9d81	-0.2017727
13	0x3e8ba006	0.27270526
14	0xbec9e549	-0.39432743
15	0xbe50c354	-0.20387012

layer1.0.bn2.bias f4 [16]
0	0xbe26261c	-0.16225475
1	0xbc11e08c	-0.008903634
2	0x3cd2779f	0.025691805
3	0xbd092e74	-0.033491567
4	0xbce2f79e	-0.027705964
5	0xbd87031c	-0.0659239
6	0x3c661a04	0.014044289
7	0xbcfb4946	-0.030674588
8	0xbde54243	-0.11194279
9	0xbccfd530	-0.02537021
10	0xbd5bf288	-0.053698093
11	0xbdbfaf87	-0.09359651
12	0x3c071285	0.0082441615
13	0x3dc05828	0.093918145
14	0xbe020a44	-0.12699229
15	0xbdc093ad	-0.09403167

layer1.0.bn2.running_mean f4 [16]
0	0xbf07c9f8	-0.53042555
1	0x3e11bc9a	0.14232102
2	0xbe169708	-0.14706051
3	0xbe56b15c	-0.20966095
4	0xbe137c40	-0.14402866
5	0x3f4151a9	0.7551523
6	0xbf3d0c15	-0.7384656
7	0x3e0de129	0.13855423
8	0xbf40eebc	-0.7536428
9	0xbf462206	-0.77395666
10	0xbf7e6bc6	-0.993832
11	0xbfadfb41	-1.3592302
12	0x3ead0f88	0.33800912
13	0xbed7350c	-0.4203266
14	0x3eb41bd2	0.35177475
15	0x3e791f98	0.24328458

layer1.0.bn2.running_var f4 [16]
0	0x3f2713e1	0.6526471
1	0x3f06bb77	0.526298
2	0x3ef22712	0.47295433
3	0x3f9f0567	1.2423524
4	0x3f1eb5bf	0.6199607
5	0x3f4a8170	0.79103756
6	0x3fd9bf7f	1.7011565
7	0x3ef09540	0.4698887
8	0x3f97b94a	1.1853421
9	0x3f2e6b95	0.6813291
10	0x3f87bd3c	1.0604625
11	0x3fa7570c	1.307344
12	0x3f9f635f	1.2452201
13	0x3f97240b	1.1807874
14	0x3f347107	0.70484966
15	0x3fa6a405	1.3018805

layer1.1.conv1.weight f4 [16, 16, 3, 3]
0	0x3dac98db	0.08427592
1	0xbd90f257	-0.07077473
2	0x3d503e55	0.050840694
3	0xbd10b2b3	-0.03532667
4	0xbe9161e3	-0.28394994
5	0x3e0605d6	0.13088164
6	0x3ce1f4d2	0.02758256
7	0x3de247ce	0.11048852
8	0x3e7a5af1	0.24448754
9	0x3dc7dd81	0.097590454
10	0xbd4d2de6	-0.0500926
11	0xbd6d4a4f	-0.057932194
12	0xbdb17387	-0.08664613
13	0x3e12be8d	0.14330502
14	0x3c0bd152	0.008533793
15	0x3da1371c	0.078718394
16	0xbc8135df	-0.015772758
17	0xbd8bf9a5	-0.06834725
18	0x3d690feb	0.056899946
19	0xbe4d358d	-0.20039959
20	0xbcabda37	-0.020978076
21	0xbe285dbc	-0.16442007
22	0xbe238da7	-0.15972005
23	0x3cf0d0d5	0.029396454
24	0x3de81410	0.113319516
25	0x3bf0f08c	0.007352894
26	0xbe7aa5d8	-0.24477327
27	0x3c5c7650	0.013455942
28	0x3d2f97f5	0.042869527
29	0x3d0902bd	0.033449877
30	0x3e4ca376	0.1998423
31	0x3d9efec9	0.0776344
32	0x3cf259e2	0.029583875
33	0x3e182c78	0.14860713
34	0xbde99a25	-0.11406354
35	0x3982efeb	0.00024974285
36	0x3c7ccfb1	0.015430377
37	0xbcd7aaa3	-0.026326483
38	0xbdaee3dd	-0.08539555
39	0xbe429605	-0.1900254
40	0xbcdb1724	-0.026744433
41	0xbdacfff6	-0.08447258
42	0xbdee186c	-0.11625752
43	0xbe1e7058	-0.15472543
44	0xbcd223dc	-0.025651865
45	0xbe29ce46	-0.16582593
46	0xbe198e9b	-0.14995806
47	0xbe66a830	-0.22525096
48	0x3e258783	0.16164975
49	0x3e0e9863	0.13925318
50	0x3b981fc9	0.004642461
51	0xbdf5baed	-0.11998544
52	0x3de0e6cd	0.10981522
53	0xbe00052c	-0.12501973
54	0x3c0ab0d0	0.008465007
55	0xbdbf63b6	-0.0934519
56	0xbe29cd63	-0.16582255
57	0x3de689ca	0.1125675
58	0xbe38a140	-0.18030262
59	0x3d909e11	0.07061399
60	0x3bcada3c	0.0061905663
61	0x3d86babb	0.06578585
62	0x3d7e1903	0.06203557
63	0x3e737658	0.23775613
64	0xbd0eb830	-0.034843624
65	0xbe06ca5f	-0.13163136
66	0x3a9b0ed5	0.0011829982
67	0xbe98a549	-0.29813603
68	0x3dece80b	0.11567696
69	0x3caa0056	0.020752113
70	0xbe31c5c0	-0.17360592
71	0xbd685b77	-0.056727853
72	0xbc1b0b25	-0.009463106
73	0x3d9ed3f2	0.07755269
74	0x3dcece06	0.100978896
75	0x3c5127c0	0.012765825
76	0x3d35c14e	0.044373803
77	0xbe9eba63	-0.31001577
78	0x3e43725e	0.19086596
79	0xbe286a50	-0.16446805
80	0x3d7e39cc	0.06206684
81	0x3e577f2f	0.2104461
82	0x3e273b50	0.1633122
83	0x3d226f82	0.039657123
84	0x3df0a8dd	0.11750958
85	0x3b818fb1	0.003953897
86	0x3ddb8144	0.10718015
87	0xbdd45dfb	-0.10369488
88	0xbeb7b999	-0.35883787
89	0xbe270f6f	-0.16314481
90	0x3eb6b150	0.35682154
91	0x3db0503c	0.086090535
92	0xbde3515e	-0.11099504
93	0xbccb0f84	-0.024787672
94	0x3d181bc5	0.037135858
95	0x3daefbd2	0.08544125
96	0x3e5b9904	0.2144509
97	0xbe0d15a7	-0.13777791
98	0x3e2b6754	0.16738635
99	0xbe13c838	-0.14431846
100	0x3e121ce5	0.14268835
101	0x3e789f07	0.24279414
102	0xbeacb017	-0.33728096
103	0x3def676b	0.11689647
104	0x3e6bf8d4	0.23044139
105	0xbce8a68b	-0.028399726
106	0x3ed4a18b	0.41529498
107	0x3dd36a4e	0.103230104
108	0xbea7406c	-0.32666337
109	0xbdd01bf7	-0.10161584
110	0x3da69337	0.08133548
111	0x3cfd9e77	0.030959351
112	0xbd846540	-0.064646244
113	0xbdfc0938	-0.12306446
114	0xbba68d9c	-0.005082799
115	0xbd154888	-0.036446124
116	0x3da518ed	0.08061395
117	0x3ce0672d	0.027392948
118	0x3e6b6267	0.22986756
119	0xbd1d7efc	-0.03845118
120	0xbd4203a9	-0.04736677
121	0xbe1e16c0	-0.15438366
122	0xbc8fac05	-0.01753808
123	0xbeb71e27	-0.35765192
124	0xbe2cd2ca	-0.16877285
125	0x3e3c860f	0.18410514
126	0xbe4ba3d7	-0.19886719
127	0xbd1500b6	-0.03637763
128	0x3cdb9d9a	0.026808549
129	0xbcf7b64a	-0.03023829
130	0xbe2d2105	-0.16907127
131	0xbd1a04b1	-0.03760213
132	0xbe42b1db	-0.19013159
133	0xbe39d25e	-0.18146655
134	0x3d712bc6	0.058879636
135	0x3d994071	0.07482994
136	0x3de4a332	0.111639395
137	0xbd330465	-0.043705363
138	0xbd91a344	-0.071112186
139	0x3d1f974e	0.038962655
140	0xbda9ef41	-0.08297587
141	0x3bfb7f85	0.0076751136
142	0x3c91c7ef	0.017795531
143	0xbd246fb7	-0.040145602
144	0xbde84b44	-0.11342481
145	0x3cf4797e	0.029843088
146	0xbe8122eb	-0.25221953
147	0xbcd033a0	-0.025415242
148	0xbdaee764	-0.08540228
149	0xbeea783b	-0.45794854
150	0x3d92a6dc	0.07160732
151	0xbd57ab11	-0.052653376
152	0xbdf71a81	-0.12065602
153	0xbcfb40b1	-0.030670496
154	0xbe42c4dc	-0.19020408
155	0x3d8728c5	0.06599573
156	0xbcdca72b	-0.02693518
157	0xbdff7aae	-0.12474571
158	0xbe0ccc38	-0.13749778
159	0x3d1beaf5	0.03806587
160	0xbddc9868	-0.10771257
161	0xbe797d7f	-0.24364279
162	0xbd871af4	-0.06596938
163	0x3d668bde	0.05628573
164	0x3d5a74c2	0.053334005
165	0xbd361cbe	-0.044461004
166	0x3e60c2f0	0.21949363
167	0x3de53dfa	0.11193462
168	0xbbecd309	-0.007227306
169	0xbbc0996d	-0.005877665
170	0x3e1be48b	0.15223901
171	0x39db7d3c	0.00041864242
172	0x3e1800a8	0.14844
173	0xbe4b0330	-0.19825435
174	0xbe00ab2b	-0.12565295
175	0x3d5a61bb	0.05331586
176	0xbd0eac5c	-0.034832343
177	0xbadf3910	-0.0017030556
178	0x3dd4f174	0.10397616
179	0xbd91e58b	-0.0712386
180	0x3e0d1dd2	0.13780907
181	0xbdb2b878	-0.08726591
182	0x3dda4d8f	0.106593244
183	0x3e189093	0.148989
184	0x3ded9dc6	0.116023585
185	0xbdc937eb	-0.09825119
186	0x3e6916be	0.22762582
187	0x3cd39f95	0.02583293
188	0xbe9cf64e	-0.30656666
189	0xbd94142d	-0.07230411
190	0xbc108d07	-0.008822686
191	0xbdc7ee85	-0.09762291
192	0xbd7fe5b0	-0.062474906
193	0x3db37f05	0.087644614
194	0xbdeca9cf	-0.11555826
195	0x3cf3ade1	0.029745998
196	0x3e2a87f1	0.1665342
197	0x3e7616c2	0.24032119
198	0xbdd409bd	-0.1035342
199	0xbe1cccf0	-0.15312552
200	0x3c309579	0.010777825
201	0x3c67a5ee	0.014138682
202	0xbbe8d352	-0.0071052695
203	0xbe0b449a	-0.13600388
204	0xbd39753a	-0.04527781
205	0xbdd1229c	-0.10211679
206	0x3d4e4c65	0.050365824
207	0xbb82636b	-0.0039791367
208	0xbe0c07b1	-0.13674809
209	0xbdcb30f0	-0.099214435
210	0xbe0648fd	-0.1311378
211	0xbd8ea71f	-0.069654696
212	0xbd9143f1	-0.07093037
213	0xbc160570	-0.00915657
214	0xbd2c3f3a	-0.042052485
215	0xbd081368	-0.033221632
216	0x3e05336d	0.13007899
217	0x3e08682e	0.13320991
218	0xba6b8ee4	-0.0008985831
219	0x3e1daa44	0.15396982
220	0x3d23a80a	0.039955176
221	0xbc8a7221	-0.016900124
222	0xbe587641	-0.2113886
223	0x3e1a6cde	0.15080592
224	0x3c1b86af	0.00949256
225	0x3a04ec14	0.0005070579
226	0x3c9ee33b	0.019395461
227	0x3e8b7a8d	0.27241936
228	0xbd29f78b	-0.04149584
229	0xbddcf420	-0.10788751
230	0x3e48444e	0.19557306
231	0x3da987dc	0.08277866
232	0xbd82ff9c	-0.0639641
233	0x3c7e2398	0.015511416
234	0xbe5d8e61	-0.21636344
235	0x3dcbfa2c	0.09959826
236	0x3e68453c	0.22682661
237	0xbc74acdc	-0.014933791
238	0xbd8a19fe	-0.06743239
239	0x3e41140a	0.188553
240	0xbe31b409	-0.17353834
241	0x3d7be068	0.061493307
242	0x3e72f3d8	0.23725832
243	0x3d81893d	0.06325004
244	0xbe2ab64f	-0.16671108
245	0xbde319b0	-0.11088884
246	0x3dc18cae	0.09450661
247	0xbe054c9e	-0.13017508
248	0xbe7c5e7e	-0.24645421
249	0x3e57337c	0.21015733
250	0x3de048d2	0.10951389
251	0x3d2eda3d	0.042688597
252	0xbe049d75	-0.1295069
253	0x3d80b992	0.06285395
254	0x3d149ca9	0.036282215
255	0xbd66f9e2	-0.05639065

layer1.1.bn1.weight f4 [16]
0	0x3f894dbc	1.0726848
1	0x3f81a682	1.0128939
2	0x3f85ff21	1.0468484
3	0x3f683caa	0.90717566
4	0x3f853b02	1.0408633
5	0x3f6b6981	0.9195786
6	0x3f712831	0.9420195
7	0x3f61b1b0	0.88161755
8	0x3f81f023	1.0151409
9	0x3f7e0951	0.99232966
10	0x3f8f38c8	1.1189203
11	0x3f7edd14	0.9955609
12	0x3f632e93	0.8874294
13	0x3f450b51	0.7697039
14	0x3f78e6ab	0.9722697
15	0x3f827f1b	1.019504

layer1.1.bn1.bias f4 [16]
0	0xbd9082b6	-0.07056181
1	0xbdd72d39	-0.105066724
2	0xbe52b686	-0.2057744
3	0xbdafdf19	-0.085874744
4	0xbde3f8ed	-0.11131463
5	0xbd729412	-0.059223242
6	0x3d233baf	0.03985184
7	0xbe105b47	-0.1409732
8	0xbd1c7c49	-0.038204465
9	0xbdb8b93f	-0.09019708
10	0xbe7a05c3	-0.2441626
11	0xbd867257	-0.06564777
12	0xbd880290	-0.06641114
13	0xbdfca64e	-0.123364076
14	0xbc291ef0	-0.0103223175
15	0x3de464a3	0.111520074

layer1.1.bn1.running_mean f4 [16]
0	0xbf6e6b1e	-0.931322
1	0xbf6800d8	-0.9062629
2	0xbe87f512	-0.2655416
3	0xc0085329	-2.1300757
4	0xbdcf7593	-0.101298474
5	0xbfb3572c	-1.4010978
6	0xbf82db27	-1.022313
7	0x3ec1526b	0.37758192
8	0xbe90d1e0	-0.28285122
9	0x3d1ea569	0.038731966
10	0xbf017bee	-0.50579727
11	0xbe16077b	-0.14651291
12	0xbfb0e6b0	-1.38204
13	0xbfbffcbe	-1.4999006
14	0xbf3e4a81	-0.74332434
15	0xbefb69ed	-0.49104252

layer1.1.bn1.running_var f4 [16]
0	0x3fcb1d87	1.5868386
1	0x3fa1db95	1.2645136
2	0x3f853a42	1.0408404
3	0x40160855	2.3442585
4	0x3f5139b4	0.81728673
5	0x3f365d8d	0.712365
6	0x3ffabd44	1.9589009
7	0x3faa9c2d	1.3328911
8	0x3f80132a	1.0005848
9	0x3f92974c	1.1452422
10	0x3f1ab938	0.6043887
11	0x3fe557e9	1.7917453
12	0x3fe2fb8b	1.7733015
13	0x406c3ee8	3.6913395
14	0x407d3987	3.9566362
15	0x4016db93	2.3571517

layer1.1.conv2.weight f4 [16, 16, 3, 3]
0	0x3dcb04dc	0.09913036
1	0xbcae0f56	-0.021247547
2	0xbe346b02	-0.17618945
3	0x3e22d9c2	0.1590338
4	0x3dabfef3	0.08398237
5	0xbce35057	-0.02774827
6	0x3cd743db	0.026277473
7	0xbda1fae8	-0.07909185
8	0xbdb5a272	-0.088688746
9	0xbd9aa306	-0.075506255
10	0xbe050f2b	-0.12994067
11	0xbdc7d899	-0.097581096
12	0xbe28b5e3	-0.16475634
13	0x3d8b65ff	0.068065636
14	0x3e1860e9	0.14880718
15	0x3c92c8b8	0.017917976
16	0xbdb6c22b	-0.08923753
17	0xbcf207f6	-0.029544812
18	0x3d3dc070	0.0463261
19	0xbde126a4	-0.10993698
20	0xbe0c118a	-0.13678566
21	0x3ddbbd54	0.10729471
22	0xbe6f8812	-0.2339175
23	0xbe37a796	-0.17935023
24	0x3e066e09	0.13127913
25	0x3e13fa3e	0.14450929
26	0xbe0fd36b	-0.14045493
27	0xbdb6843d	-0.08911941
28	0x3dc52f70	0.096281886
29	0xbe2097d6	-0.15682921
30	0x3e39052d	0.1806838
31	0xbd1bbb94	-0.038020685
32	0x3cae9c4d	0.021314764
33	0xbdfaf720	-0.122541666
34	0xbe2ada2d	-0.1668479
35	0xbd465e2e	-0.04842966
36	0x3e0f9e31	0.14025189
37	0x3ae297e4	0.0017287699
38	0xbd8adc3e	-0.06780289
39	0x3e0a3909	0.1349832
40	0x3e89de93	0.26927623
41	0x3cf3d926	0.02976663
42	0x3dd35eec	0.10320839
43	0x3e9a35a2	0.30119044
44	0x3e8e294b	0.2776588
45	0xbe00d664	-0.12581784
46	0xbdb4ecf5	-0.088342585
47	0x3cd503a2	0.026002709
48	0xbb532a20	-0.0032221153
49	0xbe70959c	-0.23494571
50	0x3dc8cd70	0.09804809
51	0x3d284f6c	0.041091368
52	0x3e1988f4	0.1499365
53	0x3e19a190	0.15003037
54	0x3cb04fab	0.021522364
55	0xbdfec4b3	-0.12439861
56	0xbd446f5e	-0.04795777
57	0xbe2fe0dc	-0.17175621
58	0x3d045e70	0.032316625
59	0x3d21c0a6	0.039490364
60	0xbe9fcca1	-0.31210807
61	0xbe113062	-0.14178613
62	0xbd184e16	-0.037183844
63	0x3df1ed87	0.11812883
64	0x3db8647a	0.090035394
65	0xbc74e839	-0.014947944
66	0x3e597dc7	0.21239386
67	0xbd64cf4b	-0.055861752
68	0x3c21edf9	0.009883397
69	0xbe5fa0aa	-0.21838632
70	0x3be1d13b	0.0068913973
71	0xbe3f3f61	-0.18676521
72	0xbd51d6b0	-0.051230133
73	0x3e0031bb	0.1251897
74	0x3b1987f9	0.0023426993
75	0xbdeb78b6	-0.11497633
76	0xbda05bff	-0.07830047
77	0x3d139e15	0.03603943
78	0xbd8f8cbd	-0.070092656
79	0xbdab2561	-0.08356739
80	0xbd9eff00	-0.07763481
81	0x3de6f689	0.112774916
82	0x3d9403dc	0.072272986
83	0x3d265d4d	0.040616322
84	0xbd3b27a6	-0.04569211
85	0xbdf16bb8	-0.11788124
86	0xbd8da8e8	-0.06916982
87	0x3e133221	0.14374591
88	0x3b59014e	0.003311235
89	0x3e30eb82	0.17277339
90	0xbde6a3d9	-0.1126172
91	0xbcc2eaa3	-0.023793524
92	0xbec6cef8	-0.3882978
93	0xbc67d968	-0.014150955
94	0xbe1a2f31	-0.15057065
95	0xbe25aa55	-0.16178258
96	0xbc966174	-0.018357016
97	0x3e8b2efe	0.2718429
98	0x3dd91031	0.105987914
99	0x3e0b3a1d	0.13596387
100	0x3d5f9af3	0.05459113
101	0x3d64849e	0.055790536
102	0x3dc6cad9	0.09706659
103	0x3e875c72	0.26437718
104	0x3e779431	0.24177624
105	0x3d099697	0.03359088
106	0xbdb23317	-0.08701151
107	0x3eb82116	0.35962743
108	0xbe2854cd	-0.16438599
109	0xbdba27c9	-0.0908962
110	0xbd8008c6	-0.062516734
111	0xbdc14d3c	-0.094385594
112	0x3be0ed4d	0.006864226
113	0xbd5e8292	-0.05432374
114	0xbde32b8c	-0.1109229
115	0x3d0a1b59	0.033717487
116	0xbd3f00b1	-0.04663152
117	0x3e2c8732	0.16848448
118	0xbe7697b0	-0.24081302
119	0x3e1cd6d2	0.15316322
120	0x3dbc5ec7	0.09197765
121	0x3d9a65f5	0.07538978
122	0xbdd88e89	-0.105740614
123	0xbddac297	-0.10681646
124	0xbd8fa0df	-0.070131056
125	0x3ba85960	0.0051376075
126	0xbdccb18a	-0.099948004
127	0xbdbaea52	-0.09126724
128	0x3e122251	0.14270903
129	0x3dfaeae0	0.1225183
130	0x3d3c4ecd	0.045973588
131	0x3d6b1dcd	0.057401467
132	0x3df72ee0	0.120694876
133	0x3da10836	0.07862894
134	0x3da50247	0.08057075
135	0x3d920f49	0.07131822
136	0x3e0cb594	0.13741142
137	0x3dadbcf2	0.08483304
138	0x3e64031c	0.22266811
139	0xbcdd3333	-0.027001953
140	0x3e85d590	0.26139498
141	0x3d27a15d	0.040925372
142	0xbe3a6541	-0.18202688
143	0xbd8be924	-0.068315774
144	0x3d358da2	0.044324525
145	0xbd1e7f4b	-0.038695615
146	0xbd26d5cb	-0.040731233
147	0xbe105769	-0.14095844
148	0x3dae9124	0.08523777
149	0xbbce0112	-0.0062867487
150	0xbd871668	-0.065960705
151	0xbe2dc216	-0.16968569
152	0xbe7f8358	-0.24952447
153	0xbd026a50	-0.03183967
154	0x3d43d246	0.047807954
155	0x3c4263f0	0.011864647
156	0xbda47fa0	-0.08032155
157	0x3b3ce37d	0.0028822117
158	0xbce3304e	-0.027732994
159	0x3d02a79a	0.03189812
160	0xbd72d817	-0.05928811
161	0x3da43a59	0.080189414
162	0x3e3fc854	0.18728763
163	0x3e4b5db0	0.19859958
164	0x3e68bcdf	0.22728299
165	0xbd6101b2	-0.054933257
166	0x3ebde2f6	0.3708722
167	0x3e5cff15	0.21581681
168	0x3e322884	0.17398268
169	0x3e93e172	0.2888294
170	0x3e8ba1fc	0.27272022
171	0x3d9326f1	0.07185162
172	0x3d376df9	0.044782612
173	0xbc48217c	-0.012215015
174	0x3dbb86e4	0.09156588
175	0xbd0b10d8	-0.03395161
176	0xbccab79f	-0.02474576
177	0x3e16c473	0.14723377
178	0x3dd9bc59	0.106316276
179	0x3d7da6a2	0.06192649
180	0x3db7edeb	0.08980926
181	0x3e822a8b	0.25423083
182	0xbd3492fa	-0.04408548
183	0x3d190be5	0.03736486
184	0x3e084183	0.1330624
185	0x3ccf321f	0.025292454
186	0xbe2c85bb	-0.16847889
187	0x3da3e767	0.08003121
188	0x3e36a6da	0.17837086
189	0xbe18143b	-0.14851467
190	0x3de67401	0.11252595
191	0xbddd5916	-0.108080074
192	0xbd3454c7	-0.044026162
193	0xbccc7d73	-0.024962163
194	0xbe444041	-0.19165136
195	0xb857c00e	-5.143886e-05
196	0x3dba6205	0.09100727
197	0x3c9173d3	0.017755425
198	0x3e3298a5	0.17441042
199	0xbe95efc6	-0.29284495
200	0x3ddc2cd6	0.10750739
201	0x3e2f3c34	0.1711281
202	0x3e61aa4a	0.22037616
203	0xbda158b2	-0.078782454
204	0xbda75718	-0.08170909
205	0x3da3393b	0.079699
206	0xbcc0db99	-0.023542212
207	0xbdac47ab	-0.08412107
208	0xbc27f3af	-0.01025097
209	0x3de892de	0.11356138
210	0x3dd39e8b	0.10332974
211	0xbda4aca8	-0.08040744
212	0x3de85144	0.11343625
213	0xbe11d3f5	-0.14241011
214	0x3e5d22b0	0.21595263
215	0x3ce73e26	0.028227877
216	0xbeb7279c	-0.35772407
217	0xbe441c63	-0.19151454
218	0x3d854bda	0.06508608
219	0x3d62d66d	0.055380274
220	0x3dd250ee	0.10269342
221	0x3d899c20	0.067192316
222	0xbda9e3da	-0.08295412
223	0xbcdab1e0	-0.026696146
224	0xbdc63b5e	-0.09679292
225	0x3e27394c	0.16330451
226	0xbe578ed9	-0.21050586
227	0x3e362ace	0.17789766
228	0x3df7e898	0.121049106
229	0x390247ba	0.00012424486
230	0xbd8c6d44	-0.06856778
231	0x3e2b34e4	0.16719395
232	0x3e74aace	0.23893282
233	0x3d6137e1	0.05498493
234	0x3d3e8394	0.0465122
235	0xbecf13ef	-0.40444896
236	0xbded2b57	-0.11580532
237	0x3c1cf635	0.009580185
238	0xbc015f60	-0.007896274
239	0x3de8dbd2	0.113700524
240	0xbd123ea9	-0.03570429
241	0x3dba5818	0.09098834
242	0xbe40f2d5	-0.18842633
243	0x3e895e61	0.26829818
244	0x3d18f0d9	0.037339065
245	0x3da3c524	0.07996586
246	0xbe52ea9b	-0.20597307
247	0xbcb9a8f2	-0.022663567
248	0xbe54d271	-0.20783402
249	0xbe067bc8	-0.13133156
250	0x3de02e46	0.10946326
251	0x3c2302e4	0.00994942
252	0xbcc104e0	-0.023561895
253	0xbdf367f0	-0.11885059
254	0x3de17823	0.110092424
255	0xbdbaa8c5	-0.091142215

layer1.1.bn2.weight f4 [16]
0	0xbea191b5	-0.31556478
1	0x3dba5d26	0.09099798
2	0xbe990647	-0.29887602
3	0x3e33b033	0.17547683
4	0xbe2bbe01	-0.167717
5	0xbea90d58	-0.33017993
6	0x3e557b00	0.20847702
7	0x3e94462c	0.28959787
8	0xbd84bb0e	-0.0648099
9	0xbefa552c	-0.48893106
10	0x3eb22b24	0.3479854
11	0xbe8024bd	-0.2502803
12	0xbe28dddf	-0.16490887
13	0x3e91366d	0.28361836
14	0xbed0be86	-0.40770358
15	0xbe3358eb	-0.17514388

layer1.1.bn2.bias f4 [16]
0	0xbdb73032	-0.089447394
1	0xbdb52ea6	-0.08846788
2	0xbd58d9bc	-0.052942023
3	0xbccc0155	-0.024902979
4	0x3dd3546f	0.10318839
5	0xbd7d27e1	-0.06180561
6	0x3c56d1f6	0.013111582
7	0xbcfea3ff	-0.031084059
8	0xbc00f666	-0.007871246
9	0xbd2bc920	-0.041939855
10	0x3d2d5a66	0.04232254
11	0x3e2aa87d	0.16665836
12	0x3d7086b8	0.058722228
13	0x3e5916af	0.2120006
14	0x3b29ed6d	0.002592887
15	0xbc0da578	-0.008645408

layer1.1.bn2.running_mean f4 [16]
0	0x3e961412	0.29312187
1	0x3edf7bfd	0.43649283
2	0xbf3615c0	-0.7112694
3	0x3dfe4eeb	0.12417396
4	0x3ebfc0b5	0.3745171
5	0xbe5badf8	-0.21453083
6	0x3ecd3840	0.40081978
7	0x3f81bc14	1.0135522
8	0xbd550930	-0.052010715
9	0xbf008a38	-0.50210905
10	0x3e525d68	0.20543444
11	0x3d813572	0.06309022
12	0x3f070b10	0.52751255
13	0xbe927779	-0.28606775
14	0xbf21470a	-0.6299902
15	0xbf03e67d	-0.5152357

layer1.1.bn2.running_var f4 [16]
0	0x3f98c228	1.1934252
1	0x3f88829b	1.0664858
2	0x3f4bff4b	0.7968642
3	0x3f4ecae0	0.8077831
4	0x3f673223	0.9031088
5	0x3f8b8b77	1.0901936
6	0x3f3bc034	0.73340154
7	0x3ef38cb1	0.47568277
8	0x3f947381	1.1597749
9	0x3f7f9f0d	0.9985207
10	0x3fd6d4b7	1.6783665
11	0x3f4de09b	0.80420846
12	0x3f4985f2	0.7872001
13	0x3f661242	0.8987161
14	0x3f380364	0.71880174
15	0x3f5c1f96	0.85985696

layer2.0.conv1.weight f4 [32, 16, 3, 3]
0	0xbdaf08ca	-0.08546598
1	0xbd682acd	-0.056681443
2	0xbd1b14a5	-0.037861485
3	0xbda85d0c	-0.08220872
4	0x3dab8b48	0.08376175
5	0x3d87e63f	0.06635713
6	0x3d2c5799	0.042075727
7	0x3e2faa11	0.17154719
8	0xbc837441	-0.016046645
9	0x3d3bd199	0.045854185
10	0xbe4541ed	-0.1926343
11	0x3d2faea7	0.04289117
12	0x3d8feb0f	0.07027256
13	0x3e1c8418	0.15284765
14	0xbd428dc5	-0.047498483
15	0x3ddb2ede	0.107022986
16	0x3d8eb7c6	0.06968646
17	0x3c1a7d0b	0.009429227
18	0xbd207284	-0.03917171
19	0xbd8112ef	-0.063024394
20	0xbdbc34d7	-0.09189766
21	0x3db142ba	0.08655305
22	0x3d825d81	0.06365491
23	0xbe189c4a	-0.1490337
24	0x3dda84be	0.1066985
25	0xb9809956	-0.00024528307
26	0xbd65377e	-0.055961125
27	0x3d14dc4a	0.036342897
28	0x3d96fe8c	0.0737277
29	0x3dcadcac	0.09905371
30	0x3e191607	0.14949809
31	0x3da01d6d	0.078181125
32	0x3c4013b9	0.011723452
33	0xbd11c405	-0.03558733
34	0x3db27aec	0.08714852
35	0xbcbe6324	-0.023240633
36	0xbd84a1f2	-0.06476201
37	0x3cde9017	0.027168317
38	0x3e2234d6	0.15840468
39	0xbda046ad	-0.0782598
40	0xbd9f62f5	-0.077825464
41	0x3df660e6	0.12030201
42	0x3cf413ec	0.029794656
43	0x3ac33a10	0.0014894623
44	0x3d9fdbd7	0.07805603
45	0xbdc120af	-0.09430062
46	0xbc48c950	-0.012255028
47	0x3cfa4de2	0.030554716
48	0x3c940495	0.018068591
49	0x3c49da0c	0.012320053
50	0xbd2991f6	-0.041398965
51	0x3d6a4bc9	0.05720118
52	0xbe675764	-0.2259193
53	0xbd1f5497	-0.03889903
54	0xbddb2c4c	-0.10701808
55	0xbe500337	-0.20313726
56	0x3ddd209e	0.10797237
57	0xbdca07e5	-0.09864787
58	0xbe3def73	-0.18548374
59	0xbce097ed	-0.027416194
60	0x3cd5c87c	0.026096575
61	0xbe036ce7	-0.12834512
62	0xbcc41557	-0.023935957
63	0x3dd76f36	0.10519259
64	0xbc525ba4	-0.012839232
65	0x3cb395e0	0.021922052
66	0xbc8ca6c3	-0.017169362
67	0x3e526206	0.20545205
68	0xbdca7e0b	-0.09887322
69	0xbd009461	-0.031391505
70	0xbd0a2c9d	-0.033733953
71	0xbd99c394	-0.07508007
72	0xbd370ae6	-0.044688128
73	0xbe62e698	-0.22158277
74	0xbdab0e38	-0.083523214
75	0xbdad6537	-0.08466571
76	0x3da045ac	0.07825789
77	0xbbb74571	-0.005592995
78	0x3dbf2157	0.09332531
79	0xbe0fbd2d	-0.14037009
80	0x3da601f6	0.08105843
81	0xbe655b31	-0.22398068
82	0xbcb9d5c3	-0.022684937
83	0x3cff168d	0.031138683
84	0xbd4d9a7e	-0.050196163
85	0x3d23d099	0.039993856
86	0x3d8c0085	0.068360366
87	0xbe32b6c1	-0.17452528
88	0x3d9d0814	0.076675564
89	0x3d6e337e	0.058154576
90	0x3d92e9ba	0.07173486
91	0x3e04c3d8	0.12965333
92	0x3a6b10e5	0.0008967056
93	0x3da155ed	0.07877717
94	0xbdb31ab9	-0.08745331
95	0x3d2703b8	0.04077503
96	0x3d9f3236	0.07773249
97	0xbdd66db2	-0.104701415
98	0xbe01ab73	-0.12663059
99	0x3df6f4bf	0.120584
100	0x3c1cd915	0.009573241
101	0x3e03e880	0.1288166
102	0x3ddffb76	0.10936634
103	0x3e873757	0.26409408
104	0xbcc3e9ca	-0.02391519
105	0xbda43876	-0.080185816
106	0x3e228be8	0.15873682
107	0xbda62126	-0.08111791
108	0x3c46f2b3	0.012142825
109	0x3d5e61fd	0.054292668
110	0x3c3d2ba3	0.011546048
111	0xbdead682	-0.11466695
112	0x3d32cf4f	0.043654736
113	0x3dcfca89	0.101460524
114	0xbcee4a62	-0.029088203
115	0xbd8bebcf	-0.06832086
116	0xbc425c09	-0.011862763
117	0x3da51b29	0.08061821
118	0x3e590e2f	0.21196817
119	0x3e4799a5	0.19492204
120	0xbdfe52ef	-0.12418162
121	0x3d92a7fb	0.07160946
122	0x3e71046a	0.2353684
123	0xbdb55aae	-0.088551864
124	0xbe3e1d3f	-0.18565844
125	0xbe1fd4e1	-0.1560855
126	0xbd12e6ef	-0.035864767
127	0xbe4bb0a0	-0.19891596
128	0xbe253b81	-0.1613598
129	0xbba5ba0c	-0.005057579
130	0x3d8ebecb	0.069699846
131	0x3cc77830	0.024349302
132	0x3e4b6e35	0.1986626
133	0xbd9b9180	-0.07596111
134	0xbe344301	-0.17603685
135	0xbe311a26	-0.17295131
136	0x3dcf7ffb	0.10131832
137	0xbd98bf8b	-0.07458409
138	0xbd6a2c1f	-0.057170983
139	0x3d7b2acc	0.06132011
140	0xbe2bacf8	-0.16765201
141	0x3ce651fd	0.028115267
142	0xba834399	-0.0010014653
143	0xbe09f7c4	-0.13473421
144	0x3cc3ed46	0.023916852
145	0xbd92c913	-0.07167258
146	0xbe565350	-0.20930219
147	0x3c4f461d	0.012650994
148	0x3c9326ae	0.01796278
149	0xbe0ab0d6	-0.1354402
150	0xbe56c3ab	-0.20973079
151	0xbe20c994	-0.15701896
152	0xbeb9710c	-0.3621906
153	0x3d29851c	0.04138671
154	0x3d8a75a7	0.06760722
155	0x3df7242f	0.12067448
156	0x3d3c1b4f	0.04592448
157	0x3d8f0802	0.06983949
158	0x3daafa8f	0.083485715
159	0x3d8e78d8	0.06956643
160	0xbd516c65	-0.051128764
161	0x3cd4697c	0.025929205
162	0xbdd0e2ad	-0.10199485
163	0xbc748174	-0.014923442
164	0xbb3cde84	-0.0028819153
165	0xbce08e35	-0.02741156
166	0x3d518401	0.05115128
167	0xbb71cd68	-0.0036896113
168	0x3d2fada0	0.04289019
169	0xbe114f7c	-0.14190477
170	0xbd104a9a	-0.035227396
171	0x3bab3210	0.005224474
172	0xbc8eee85	-0.01744772
173	0xbd069d76	-0.03286501
174	0x3ccd1246	0.025033128
175	0xbbef8787	-0.0073098573
176	0xbdf12ea4	-0.11776474
177	0xbc8e6332	-0.017381284
178	0x3dc19abd	0.09453342
179	0xbc2070f8	-0.009792559
180	0x3d0bc24e	0.03412085
181	0x3ddbd3e9	0.10733778
182	0x3d7dbb94	0.061946467
183	0xbe027df1	-0.12743355
184	0xbd153b89	-0.03643373
185	0xbd8352fc	-0.064123124
186	0xbe1f81ac	-0.1557681
187	0xbe4ff481	-0.20308115
188	0xbe12a49c	-0.14320606
189	0x3e020ff2	0.12701395
190	0x3e66fdf3	0.22557811
191	0x3c88a082	0.016678099
192	0xbcc49f1c	-0.02400165
193	0xbc97c894	-0.01852826
194	0x3e0c6eab	0.13714091
195	0xbd0d7fc8	-0.03454569
196	0x3e017bd6	0.12644896
197	0x3decaec6	0.11556773
198	0xbe59977d	-0.21249194
199	0x3c620192	0.01379432
200	0xbc8b36f7	-0.016993983
201	0xbd9bac2a	-0.07601197
202	0xbe2910d4	-0.16510326
203	0xbdf7b895	-0.12095753
204	0xbe691a50	-0.22763944
205	0xbe2226e3	-0.15835147
206	0xbcbf3f0a	-0.023345489
207	0x3d671fa5	0.056426663
208	0x3d5179e8	0.05114165
209	0xbba657ee	-0.0050764
210	0x3d995645	0.07487158
211	0xbd9b73dd	-0.075904585
212	0xbe20db1b	-0.15708582
213	0x3e505bb2	0.20347479
214	0x3d0f7ad9	0.035029266
215	0x3d56a533	0.05240364
216	0x3d69b88d	0.057060767
217	0x3df1b34e	0.11801778
218	0xbbd10019	-0.0063781855
219	0x3dc4e6d2	0.09614338
220	0x3d3b5097	0.045731153
221	0x3db3ad64	0.08773306
222	0x3d634919	0.055489633
223	0x3decc459	0.11560888
224	0x3d41652e	0.047215633
225	0xbc34e932	-0.011041926
226	0x3b71122e	0.0036784518
227	0x3dcdc352	0.1004702
228	0xbd8bf654	-0.06834093
229	0xbdfa45d4	-0.1222035
230	0x3d253162	0.0403303
231	0x3e18e4ea	0.14931074
232	0x3e584a56	0.21122107
233	0x3e04a4d7	0.12953506
234	0xbd5023ae	-0.050815277
235	0xbe56a8cb	-0.20962827
236	0xbdd9333a	-0.10605474
237	0xbdb67867	-0.08909684
238	0xbdcc265c	-0.09968254
239	0xbe71ae49	-0.23601641
240	0x3cd0f02a	0.025505144
241	0xbd9a89d7	-0.07545822
242	0xbd19a5c4	-0.037511602
243	0xbd227a06	-0.039667152
244	0xbd45ba93	-0.048273634
245	0x3db8c03f	0.09021043
246	0xbdfc5c41	-0.123222835
247	0x3d8c7318	0.0685789
248	0xbd43d68e	-0.047812037
249	0x3dd0d49e	0.101968035
250	0xbd8c67ed	-0.0685576
251	0xbca6ec89	-0.02037646
252	0x3df0879a	0.11744614
253	0x3d3fb3af	0.04680222
254	0xbdaa6dbe	-0.08321713
255	0x3a009035	0.0004904301

layer2.0.bn1.weight f4 [32]
0	0x3f89df48	1.0771265
1	0x3f761ca1	0.96137434
2	0x3f7a5b6e	0.9779576
3	0x3f8c0b99	1.0941039
4	0x3f6fde83	0.936989
5	0x3f78bddf	0.9716472
6	0x3f70512f	0.93873876
7	0x3f86aa7e	1.052078
8	0x3f96aeae	1.1772058
9	0x3f80c1af	1.0059108
10	0x3f88b1d9	1.0679275
11	0x3f887d86	1.0663307
12	0x3f63df30	0.8901243
13	0x3f5b5175	0.8567117
14	0x3f782d37	0.9694399
15	0x3f7a595d	0.9779261
16	0x3f8599c1	1.0437547
17	0x3f6fce5a	0.9367424
18	0x3f80acbd	1.0052716
19	0x3f7bf577	0.98421425
20	0x3f8457ff	1.0339354
21	0x3f76e971	0.96449953
22	0x3f8d1eb0	1.102499
23	0x3f84a0ce	1.0361574
24	0x3f5772ad	0.84159356
25	0x3f64f922	0.89442647
26	0x3f7c8b5a	0.98650134
27	0x3f7fd34c	0.9993179
28	0x3f55d9ee	0.8353566
29	0x3f8a0680	1.0783234
30	0x3f5f8b01	0.8732148
31	0x3f72afca	0.9479948

layer2.0.bn1.bias f4 [32]
0	0xbd5f1d27	-0.05447116
1	0xbdbd042c	-0.09229311
2	0x3d361ebd	0.044462908
3	0xbe562c3f	-0.20915316
4	0xbde607bb	-0.11231943
5	0xbe17caa6	-0.14823398
6	0xbd010af5	-0.03150459
7	0xbdb6c2fc	-0.08923909
8	0xbda92767	-0.082594685
9	0xbd90383a	-0.07041974
10	0x3af4a20c	0.0018664016
11	0xbe412609	-0.18862166
12	0xbd96d7ee	-0.07365404
13	0xbe291035	-0.16510089
14	0xbe625580	-0.22102928
15	0xbe11210e	-0.14172766
16	0xbde70a17	-0.11281221
17	0xbdabb60b	-0.08384331
18	0xbe874edc	-0.26427352
19	0x3d4e339c	0.050342187
20	0xbc8426b8	-0.016131744
21	0xbe80130d	-0.25014535
22	0xbdc4dd71	-0.09612549
23	0xbd43a588	-0.047765285
24	0xbde98458	-0.11402196
25	0xbd9a7454	-0.07541719
26	0xbd837d8d	-0.06420431
27	0xbe084206	-0.13306436
28	0xbd741297	-0.05958804
29	0xbe513dc0	-0.20433712
30	0xbe0771f2	-0.1322706
31	0xbd892a31	-0.066975005
