models/small_14_adam_1em3_cycle_20/best_model.pth (torch, 363343 bytes, 77 tensors)

conv1.weight f4 [16, 3, 5, 5]
0	0xbda89245	-0.08231024
1	0xbd052aad	-0.032511402
2	0xbd6ef6ce	-0.05834084
3	0xbc7957b2	-0.015218662
4	0x3d28dcd3	0.04122622
5	0x3d98e22f	0.07465016
6	0xbb8b5bc1	-0.0042528813
7	0xbc3d9c0c	-0.011572849
8	0x3d41f3ab	0.04735152
9	0x3d18b826	0.037284993
10	0xbdc28b4f	-0.09499227
11	0xbd37abc6	-0.04484155
12	0x3df5ce0c	0.12002191
13	0x3df8437b	0.12122246
14	0x3cbb8f27	0.022895409
15	0x3a7b0151	0.00095750863
16	0xbd820321	-0.06348253
17	0xbde99c63	-0.114067815
18	0xbe5afa46	-0.21384534
19	0xbc013171	-0.007885323
20	0xbbe67659	-0.007033151
21	0xbcaa9b3c	-0.020825975
22	0x3e06d94c	0.1316883
23	0x3dd83ee2	0.10558869
24	0x3c06c13d	0.0082247825
25	0x3c880f81	0.016608955
26	0xbdbbf15f	-0.09176897
27	0xbd86c8a3	-0.06581237
28	0x3d68e011	0.05685431
29	0xbd3158d7	-0.043297615
30	0xbe8171fe	-0.25282282
31	0xbd5710bf	-0.052506205
32	0xbcd7c9c7	-0.026341332
33	0xbcb0ca81	-0.021580936
34	0xbd9f233d	-0.07770393
35	0x3d001f86	0.031280063
36	0x3e3037e8	0.17208827
37	0x3d69b1ef	0.057054456
38	0xbda269a3	-0.07930305
39	0x3d2fa63a	0.042883135
40	0xbd2db3e7	-0.042407896
41	0xbd98eb50	-0.07466757
42	0x3c8bac9e	0.017050084
43	0xbd4c1242	-0.0498221
44	0xbd8427d0	-0.06452906
45	0x3db896e0	0.09013152
46	0x3d8800c3	0.0664077
47	0xbd248486	-0.040165447
48	0xbdc42289	-0.095768996
49	0xbcb81402	-0.022470478
50	0xbcecf6e9	-0.02892633
51	0xbbf2fbc6	-0.0074152676
52	0xbd18b0ca	-0.037277974
53	0x3c836dc2	0.016043548
54	0x3d8b1315	0.06790749
55	0x3d3cbc5a	0.046078064
56	0x3b7b5440	0.0038349777
57	0xbc2a34c3	-0.010388556
58	0x3cc4379b	0.023952296
59	0x3c3ccdc5	0.011523669
60	0xbb883e47	-0.0041578147
61	0x3da4ca44	0.080463916
62	0x3cd9c7ca	0.026584525
63	0x3bdda6ac	0.0067642536
64	0x3d5bf058	0.053696007
65	0x3cd46834	0.025928594
66	0xbdfb438a	-0.122687414
67	0x3dc8331d	0.09775374
68	0x3cbd70e7	0.023125125
69	0x3e23c23c	0.15992063
70	0xbcd6d05a	-0.026222397
71	0x3d89fc88	0.0673762
72	0xbe0084cb	-0.12550656
73	0x3d4f4320	0.050601125
74	0xbdd4b204	-0.10385516
75	0x3dc2daa5	0.095143594
76	0xbab08671	-0.0013467801
77	0xbde16f5d	-0.11007569
78	0xbba9bf16	-0.00518025
79	0xbd3516f2	-0.044211335
80	0x3e5a8967	0.21341477
81	0xbc9351f3	-0.017983412
82	0xbb39f5e4	-0.0028375322
83	0xbdc08ccb	-0.09401854
84	0xbca0c2c7	-0.019624127
85	0x3cbc41c5	0.02298058
86	0x3c7e4324	0.015518937
87	0x3cee4495	0.029085437
88	0x3e0d3419	0.13789405
89	0x3cc6f342	0.024285916
90	0xbb632401	-0.0034658911
91	0x3dc52fa5	0.09628228
92	0x3cbaf8b7	0.022823675
93	0x3d49e005	0.049285907
94	0x3d3f8cb1	0.046765033
95	0xbc857c14	-0.016294517
96	0x3d46e7a5	0.048560757
97	0x3e1891d7	0.14899383
98	0xbdb8f6b4	-0.0903143
99	0x3c6cf915	0.014463683
100	0xbd9ab3b6	-0.075538084
101	0xbba0ee3f	-0.0049112136
102	0xbbc72769	-0.006077696
103	0xbc9eecd5	-0.01940004
104	0x3b420901	0.0029607418
105	0x3c3cd95e	0.011526434
106	0x3d656924	0.056008473
107	0xbddd58da	-0.10807963
108	0xbd2a19a7	-0.04152837
109	0xbe6761b2	-0.22595862
110	0xbd3f0231	-0.04663295
111	0x3d8f61e2	0.070010915
112	0x3cf2a27c	0.029618494
113	0x3c18120a	0.009281645
114	0x3b90a900	0.0044146776
115	0x3d41015b	0.047120433
116	0xbd9ac7ac	-0.07557616
117	0x3d7c712d	0.06163137
118	0xbd4a59d4	-0.049402073
119	0x3df6c6dd	0.12049649
120	0xbccaf049	-0.02477278
121	0x3b3c8e83	0.0028771467
122	0x3da30e4c	0.07961711
123	0x3c7285f5	0.014802446
124	0xbbab7935	-0.005232955
125	0x3cd556b1	0.026042314
126	0xbb518d02	-0.0031974916
127	0x3d56a388	0.05240205
128	0xbe0dc287	-0.13843738
129	0xbc691075	-0.014225115
130	0x3cb65b29	0.022260265
131	0x3d62ccec	0.05537121
132	0xbc915e91	-0.017745288
133	0x3e1a71df	0.15082501
134	0xbdd8b70b	-0.10581788
135	0x3be49cdb	0.0069767064
136	0x3db177c4	0.086654216
137	0xbd7c608b	-0.061615508
138	0xbdb1ffb7	-0.08691352
139	0x3d8dfbef	0.06932818
140	0x3dd1f9e4	0.10252741
141	0xbd2a752f	-0.04161566
142	0xbd6c268d	-0.057653952
143	0x3d0c0a06	0.034189247
144	0xbc191ea7	-0.009345687
145	0x3d7193ae	0.05897873
146	0x3df157a3	0.117842935
147	0x3d1e07a6	0.038581513
148	0xbd5e4801	-0.054267887
149	0x3dfef855	0.12449709
150	0x3d8ce3aa	0.06879361
151	0xbd0b40f6	-0.0339975
152	0x3db13799	0.086531825
153	0x3c4c70ec	0.012478095
154	0xbd699b3c	-0.05703281
155	0xbd36e8f9	-0.044655774
156	0xbdfead22	-0.12435366
157	0x3c07c00d	0.008285535
158	0x3dfbc9fc	0.12294385
159	0x3d06cd5f	0.0329107
160	0x3d79a7cb	0.060951035
161	0xbc7eb0d4	-0.015545089
162	0xbd21a2b7	-0.039461818
163	0x3ce297f2	0.027660344
164	0x3c7305c1	0.014832915
165	0x3ccb808b	0.024841568
166	0xbda802ab	-0.08203634
167	0xbd17a016	-0.037017904
168	0x3daaeb45	0.08345655
169	0xbd99122d	-0.0747417
170	0x3d9f4010	0.07775891
171	0x3d874f78	0.06606954
172	0x3c504971	0.012712822
173	0x3d3f0ae2	0.046641238
174	0xbc68eef4	-0.014217127
175	0xbcc69f33	-0.024245834
176	0x3d35c8ac	0.04438083
177	0x3dbd495a	0.09242506
178	0x3d3b2112	0.045685835
179	0xbc0fca16	-0.008776208
180	0xbdc78d75	-0.09743778
181	0xbdcb9ab7	-0.09941619
182	0x3c99eca0	0.01878959
183	0xbd03ea90	-0.032206118
184	0x3c7d2b65	0.015452241
185	0xbd8580e7	-0.06518727
186	0xbd59fe58	-0.053221077
187	0x3c25e89c	0.010126259
188	0x3ccf9bd7	0.025342865
189	0xbd7c1f8d	-0.061553527
190	0xbc9afaa7	-0.018918348
191	0xbd3e23df	-0.046420928
192	0x3d9b408e	0.07580672
193	0xbd0c7db3	-0.034299564
194	0xbdf74438	-0.120735586
195	0x3d467bc8	0.04845789
196	0x3e058468	0.1303879
197	0xbd99d8f8	-0.07512087
198	0xbd1ea6c1	-0.038733248
199	0xbdf00ff4	-0.11721793
200	0xbdaeb71e	-0.085310206
201	0xbdabfea2	-0.08398177
202	0xbdc6dfe9	-0.09710676
203	0xbd24ee1c	-0.04026614
204	0x3dad71ae	0.08468948
205	0x3d3b731e	0.04576408
206	0xbd06ba56	-0.032892548
207	0xbdeef1a4	-0.11667183
208	0xbcde5e6a	-0.02714463
209	0x3d719427	0.05897918
210	0x3d5d8d09	0.05408958
211	0x3c1d3304	0.009594683
212	0x3d28e326	0.04123225
213	0x3e1a20e1	0.15051605
214	0x3bcde2b8	0.0062831305
215	0xbd24d11d	-0.04023849
216	0xbd6cfca6	-0.05785813
217	0xbca42f29	-0.020042019
218	0xbcc4293c	-0.023945443
219	0x3b738692	0.0037159068
220	0xbd546f64	-0.051864043
221	0x3b4c5bb9	0.00311826
222	0xbe1d7a21	-0.1537862
223	0x3c0b6b45	0.008509462
224	0x3c0c193d	0.008550939
225	0xbdba1d41	-0.09087611
226	0xbd41607a	-0.047211148
227	0x3d745800	0.059654236
228	0xbe3c4d75	-0.18388923
229	0xbd76472e	-0.060126476
230	0xbc0ed3b8	-0.00871747
231	0xbde76ce7	-0.11300068
232	0xbe43dd44	-0.19127375
233	0x3cdce3bf	0.026964067
234	0xbd336805	-0.043800373
235	0x3da8c157	0.08240002
236	0x3dabff3e	0.08398293
237	0x3df5fc57	0.12011021
238	0x3c5825fe	0.013192652
239	0xbd6ec3d7	-0.058292236
240	0xbbcc439f	-0.006233647
241	0xbbfb2880	-0.00766474
242	0xbd0bef80	-0.034163952
243	0x3d76e999	0.06028137
244	0xbd4697e6	-0.048484705
245	0xbdbc7d1a	-0.09203549
246	0xbd8cb981	-0.068713196
247	0xbc23d66c	-0.009999853
248	0x3da62eb2	0.08114375
249	0xbda21743	-0.07914593
250	0xbc967fbc	-0.018371455
251	0x3df93955	0.12169138
252	0x3d075bc3	0.033046495
253	0x3d4b56e4	0.049643412
254	0xbc83cfe3	-0.016090339
255	0xbd994d94	-0.074855

bn1.weight f4 [16]
0	0x3f7f1e70	0.9965582
1	0x3f7c2c7a	0.98505366
2	0x3f7c9409	0.98663384
3	0x3f7f3f1e	0.99705684
4	0x3f81c7b3	1.0139068
5	0x3f82f26b	1.023023
6	0x3f7bcfae	0.9836377
7	0x3f825d30	1.0184689
8	0x3f7e8fbd	0.9943808
9	0x3f8086a4	1.0041089
10	0x3f80089b	1.0002626
11	0x3f790159	0.9726768
12	0x3f7bab01	0.98307806
13	0x3f81aca3	1.013081
14	0x3f7abbc1	0.9794274
15	0x3f7ea7e8	0.99474955

bn1.bias f4 [16]
0	0x3c2534f4	0.010083426
1	0x3ca6476e	0.020297732
2	0x3bbfc84a	0.0058527337
3	0x3bd7be99	0.0065840003
4	0xbc01643e	-0.007897435
5	0x3c207e38	0.009795718
6	0xbbb664f4	-0.005566234
7	0x3cb582e9	0.02215715
8	0xbc473216	-0.0121579375
9	0x3c760557	0.015015922
10	0x39cf94a5	0.00039592866
11	0xbb669409	-0.003518345
12	0xbc4cbbfc	-0.012495991
13	0x3cc89dda	0.024489332
14	0x3cd17189	0.025566833
15	0x3bab24e2	0.0052229026

bn1.running_mean f4 [16]
0	0x3de9b0b2	0.11410655
1	0xbe8e2da4	-0.27769196
2	0x3e4cbfe1	0.19995071
3	0x3eaf3761	0.34221938
4	0x3cd23ce2	0.025663797
5	0xbc5f2834	-0.013620425
6	0xbf180174	-0.5937722
7	0x3d60b353	0.054858517
8	0x3da11ee4	0.0786722
9	0x3ea7eaa6	0.3279621
10	0x3e43467d	0.19069858
11	0xbe8b9430	-0.27261496
12	0x3ed3c1d2	0.4135881
13	0xbea452e5	-0.32094494
14	0xbe1b3091	-0.15155245
15	0x3e4c5eaa	0.19957986

bn1.running_var f4 [16]
0	0x3d51ad21	0.0511905
1	0x3e5fa43c	0.21839994
2	0x3dcf2e45	0.10116247
3	0x3e89f4ce	0.26944584
4	0x3d19d90a	0.0375605
5	0x3d70ab69	0.05875722
6	0x3f3a7bf7	0.72845405
7	0x3d0908fa	0.033455826
8	0x3d4fea70	0.050760686
9	0x3e836bf7	0.25668308
10	0x3dbe0887	0.0927897
11	0x3e24db64	0.16099316
12	0x3eb4726f	0.35243556
13	0x3e6d490b	0.23172395
14	0x3d821448	0.063515246
15	0x3e08efb6	0.13372692

layer1.0.conv1.weight f4 [16, 16, 3, 3]
0	0x3b12dd9e	0.0022409926
1	0x3d19942e	0.03749483
2	0x3dcc2f71	0.09969986
3	0x39d9b03f	0.0004152078
4	0x3e0070a7	0.12542973
5	0xbe55b08b	-0.20868127
6	0x3dc7acd5	0.09749762
7	0xbe1339af	-0.14377473
8	0xbce4b4f0	-0.027918309
9	0xbe44aafc	-0.1920585
10	0x3d8b011d	0.06787322
11	0x3d53ddcf	0.051725205
12	0xbd8da699	-0.069165416
13	0xbe1d2929	-0.15347733
14	0x3de35b5e	0.11101411
15	0x3e123440	0.14277744
16	0x3d97cec3	0.074124835
17	0xbd2dcd01	-0.042431835
18	0xbd09aa8e	-0.03360992
19	0xbd0eb10b	-0.03483681
20	0xbb9da0ab	-0.004810413
21	0x3ba38e51	0.0049913307
22	0xbdac8e29	-0.084255524
23	0xbd8bc0fc	-0.06823918
24	0x3d24f49d	0.040272344
25	0xbe75eac1	-0.24015333
26	0x3d239d57	0.039944973
27	0xbdd748d9	-0.105119415
28	0xbd97425e	-0.073857054
29	0x3db0b5f6	0.08628456
30	0x3e3d9836	0.18515095
31	0xbd06bf7a	-0.03289745
32	0xbd34487b	-0.044014435
33	0x3dbe53dc	0.09293339
34	0x3d6c7ea9	0.05773798
35	0x3bb64e93	0.005563566
36	0xbd858210	-0.06518948
37	0xbd3ba36d	-0.04581015
38	0xbd288492	-0.041142054
39	0xbabbaaf6	-0.0014317918
40	0x3cfacc3a	0.030614961
41	0xbe30b024	-0.17254692
42	0xbcc18335	-0.023622135
43	0xbc0bf4ea	-0.008542279
44	0xbe225b1c	-0.15855068
45	0x3d8c4e02	0.06850816
46	0x3c2f18f7	0.010687104
47	0x3e454bbd	0.19267173
48	0xbd5157bd	-0.051109064
49	0xbddd02d2	-0.107915536
50	0x3d1e2631	0.03861064
51	0x3e39391c	0.18088192
52	0x3e427260	0.18988943
53	0xbe20a731	-0.15688778
54	0x3cef7b2d	0.02923354
55	0x3d7659d4	0.06014426
56	0x3dc30ffa	0.09524532
57	0x3d7158a6	0.058922432
58	0x3e1a2c43	0.15055947
59	0x3dcea926	0.10090856
60	0x3e5938cf	0.21213077
61	0xbe3f13ae	-0.18659851
62	0xbea1aeb3	-0.31578597
63	0x3dc2dbcc	0.09514579
64	0x3e37d2db	0.17951529
65	0xbd945058	-0.07241887
66	0xbe02dee5	-0.1278034
67	0xbd01af92	-0.031661578
68	0x3e839e6a	0.25706798
69	0x3d646172	0.055756994
70	0xbe25a9a9	-0.16178001
71	0x3e973719	0.29534224
72	0x3daa3815	0.08311478
73	0x3e3566ce	0.17714998
74	0x3e122674	0.14272481
75	0x3d9fd7fa	0.07804866
76	0x3d2dba58	0.04241404
77	0xbc48941e	-0.012242345
78	0xbdaa01e0	-0.08301139
79	0xbc3ad364	-0.0114029385
80	0x3d1ec607	0.038763072
81	0x3dda3597	0.10654753
82	0x3d2baf99	0.04191551
83	0xbd4100fb	-0.047120076
84	0xbb353dba	-0.00276552
85	0xbb948b0b	-0.004533177
86	0xbc297ec7	-0.0103451675
87	0xb96a2883	-0.00022331071
88	0x3e0ada8a	0.13559929
89	0xbe4f969a	-0.20272294
90	0xbe6c832f	-0.23096918
91	0x3d17779a	0.036979295
92	0xbdffdbd3	-0.124931
93	0x3cf3de93	0.029769218
94	0xbc183270	-0.009289369
95	0x3d8ea741	0.06965495
96	0x3d0be6df	0.034155723
97	0xbe29765b	-0.16549055
98	0x3d758202	0.05993844
99	0xbdb3e789	-0.08784396
100	0x3dc61a6c	0.09673008
101	0x3bd7e408	0.0065884627
102	0x3dbab924	0.09117344
103	0x3db79fa5	0.08965997
104	0x3df044df	0.11731886
105	0xbdc8c632	-0.09803428
106	0xbc1887e9	-0.009309747
107	0xbdee99ce	-0.1165043
108	0xbce95f58	-0.028487846
109	0x3dbc0eb9	0.091824956
110	0x3e8746d9	0.2642124
111	0xbdfcd9eb	-0.12346252
112	0xbccb208a	-0.02479579
113	0x3d98cae5	0.07460574
114	0x3dfd838c	0.12378606
115	0x3e25d7d7	0.16195618
116	0xbdd11c74	-0.10210505
117	0xbdbbb6da	-0.091657355
118	0xbca1e59f	-0.019762812
119	0x3d459075	0.048233468
120	0xbcd3ad1a	-0.025839377
121	0x3c17546c	0.009236436
122	0x3e19432f	0.14967035
123	0x3d8dda11	0.069263585
124	0x3df85245	0.12125067
125	0x3b471ce7	0.0030382217
126	0xbddba44a	-0.10724695
127	0x3dc34405	0.09534458
128	0xbd010326	-0.031497143
129	0xbd272347	-0.040805127
130	0x3d808f32	0.06277312
131	0xbd25b20c	-0.040453
132	0x3e133ea8	0.1437937
133	0xbd731661	-0.059347514
134	0xbde079a0	-0.10960698
135	0x3daa12cd	0.08304367
136	0xbe18d106	-0.14923486
137	0xbd8ce3bb	-0.06879374
138	0x3e1895b7	0.14900862
139	0x3dd52a50	0.10408461
140	0xbdc7a5bc	-0.09748408
141	0xb9989695	-0.00029103892
142	0x3db1e4af	0.08686196
143	0x3c26be16	0.010177156
144	0x39a2b4e5	0.00031033825
145	0xbde43d19	-0.11144466
146	0x3dfde49c	0.123971194
147	0x3dee7fe8	0.1164549
148	0x3d39fb48	0.045405656
149	0x3d1d91de	0.038469188
150	0x3d1fccc5	0.039013643
151	0xbd8cc043	-0.068726085
152	0xbc11922a	-0.008884946
153	0x3e2e017f	0.16992758
154	0xbe4b854a	-0.19875064
155	0xbe307ffd	-0.17236324
156	0xbdc03766	-0.093855664
157	0xbe2db247	-0.16962539
158	0x3cbe6f24	0.023246355
159	0x3d0fdf77	0.035125222
160	0xbe34683a	-0.17617884
161	0xbc521366	-0.012822008
162	0xbe09d930	-0.13461757
163	0x3e0d5863	0.13803248
164	0xbe99ddde	-0.30052084
165	0x3dac624f	0.084171884
166	0xbce9e916	-0.028553527
167	0xbd2b8cd8	-0.041882366
168	0x3d7b1eb0	0.061308563
169	0x3d7486a1	0.059698705
170	0xbdb06685	-0.08613304
171	0xbdda6d75	-0.106654085
172	0xbbec2db7	-0.007207598
173	0xbbfe892d	-0.0077678175
174	0x3d011f4f	0.031524
175	0xbd7a173e	-0.06105732
176	0x3cc3e416	0.02391247
177	0x3d056b9d	0.03257333
178	0xbd83e33b	-0.06439825
179	0x3e3820d1	0.17981268
180	0x3e689569	0.22713245
181	0x3bca5b51	0.0061754365
182	0x3d83c90a	0.064348295
183	0xbcd78ea3	-0.026313132
184	0x3e2a9645	0.16658886
185	0x3e320405	0.17384346
186	0x3d6a3822	0.05718244
187	0xbe0568e3	-0.13028292
188	0x3d45283b	0.04813407
189	0xbe030679	-0.12795438
190	0x3d20e9cf	0.039285477
191	0xbd046063	-0.032318484
192	0x3db2c6ab	0.08729299
193	0xbe54fc62	-0.20799401
194	0xbcccdf57	-0.02500884
195	0x3ba635da	0.0050723376
196	0x3da0bbe8	0.0784834
197	0xbdf81f59	-0.12115354
198	0x3eb5355d	0.35392275
199	0x3d5ec24d	0.05438452
200	0xbd1362e6	-0.03598299
201	0xbe387df9	-0.18016805
202	0x3daf8528	0.085703194
203	0xbd9a5373	-0.07535448
204	0x3dd65565	0.104655065
205	0x3e1faa4b	0.15592305
206	0xbd92f997	-0.07176512
207	0x3d60c057	0.05487093
208	0xbc9834be	-0.018579837
209	0xbcce63c1	-0.02519405
210	0x3bd39260	0.0064566582
211	0x3e59ab60	0.2125678
212	0xbe0363da	-0.12831059
213	0xbce73cdf	-0.028227268
214	0xbe59444a	-0.21217456
215	0xbdf1132b	-0.11771234
216	0xbd412904	-0.047158256
217	0xbc87ab1b	-0.016561082
218	0x3e85c0dd	0.26123706
219	0x3be0bd7c	0.006858526
220	0xbe159c3f	-0.14610384
221	0x3dd6fe5e	0.104977354
222	0x3e1336e6	0.14376411
223	0xbb93dc0f	-0.004512317
224	0x3d938bbf	0.07204389
225	0xbe100e77	-0.14068018
226	0xbc43475a	-0.011918867
227	0x3e4e6cc3	0.20158677
228	0x3db4e98f	0.0883361
229	0x3e5b665b	0.21425764
230	0xbd989be1	-0.074516065
231	0x3d47c7d2	0.048774548
232	0xbdcee7ca	-0.10102804
233	0x3d891836	0.06694071
234	0xbddffadb	-0.10936519
235	0xbd5e5189	-0.054276977
236	0xbe40a1a0	-0.18811655
237	0xbdcdbbdf	-0.10045599
238	0x3da2d406	0.079505965
239	0xbd9c4133	-0.07629623
240	0x3e083f7c	0.13305467
241	0xbdfae674	-0.12250987
242	0x3d7e4b22	0.06208337
243	0x3c9a4d3d	0.018835658
244	0xbd87559c	-0.066081256
245	0xbbc6073d	-0.0060433433
246	0xbdd715ff	-0.10502242
247	0x3d9a44c5	0.07532648
248	0x3e94e096	0.29077595
249	0x3e90d99b	0.2829102
250	0xbbd95d6e	-0.006633452
251	0x3cd5e4e4	0.02611012
252	0x3d57286f	0.052528795
253	0x3d0c1c89	0.0342069
254	0x3e07f512	0.1327708
255	0x3e9cac8f	0.30600402

layer1.0.bn1.weight f4 [16]
0	0x3f87a519	1.0597259
1	0x3f81a4c5	1.0128409
2	0x3f749e9d	0.95554525
3	0x3f7e4902	0.9933015
4	0x3f843eb3	1.0331634
5	0x3f7c7d31	0.98628527
6	0x3f7e7fbb	0.9941365
7	0x3f7d4f35	0.98948985
8	0x3f7d8e0a	0.9904486
9	0x3f7f9118	0.9983077
10	0x3f75fff0	0.96093655
11	0x3f79fa65	0.97647697
12	0x3f7ddc93	0.99164695
13	0x3f7be7be	0.98400486
14	0x3f7c19d5	0.98476917
15	0x3f831015	1.0239283

layer1.0.bn1.bias f4 [16]
0	0x3d1dea8a	0.038553752
1	0x3c9b9998	0.018994138
2	0xbd1d33c2	-0.03837944
3	0x3d00d404	0.031452194
4	0x3ca0122a	0.019539911
5	0xbc86494a	-0.016392369
6	0xbc4f3999	-0.01264801
7	0x3b88d7b9	0.004176107
8	0xbc804354	-0.015657105
9	0x3ca4833a	0.020082105
10	0xbd248370	-0.04016441
11	0xbce3aad0	-0.02779141
12	0x3bcc72d4	0.0062392745
13	0xbc6c757c	-0.014432307
14	0x3a864c92	0.0010246208
15	0x3c0ab671	0.008466349

layer1.0.bn1.running_mean f4 [16]
0	0x3f2727a5	0.6529487
1	0xbd9acfd2	-0.0755917
2	0xbedddf9b	-0.4333466
3	0xbece098b	-0.40241656
4	0x3e820f67	0.25402376
5	0x3e0cdd54	0.13756305
6	0x3f312d22	0.6920949
7	0xbf37b2b0	-0.7175703
8	0xbe97c15e	-0.29639715
9	0xbefe7905	-0.49701706
10	0xbf5a52ac	-0.852824
11	0xbf601eb2	-0.8754684
12	0x3d1ed8cc	0.038780972
13	0x3e0e672c	0.13906544
14	0xbfbfa0b9	-1.4970924
15	0x3fe78077	1.8086079

layer1.0.bn1.running_var f4 [16]
0	0x3f609e10	0.87741184
1	0x3f0736c5	0.52817947
2	0x3faf3990	1.3689442
3	0x3f0770e0	0.5290661
4	0x3f19e285	0.60111266
5	0x3f52a2fa	0.8227993
6	0x3f70d62d	0.94076806
7	0x3f823200	1.0171509
8	0x3f043023	0.5163595
9	0x3f8797b5	1.0593172
10	0x3fbdc356	1.4825237
11	0x3f324e3b	0.6965062
12	0x3f0a85d9	0.54110485
13	0x3fb4db59	1.412944
14	0x40013306	2.0187392
15	0x3fbbeb58	1.4681196

layer1.0.conv2.weight f4 [16, 16, 3, 3]
0	0xbbf92c36	-0.0076041473
1	0xbca3038c	-0.019899152
2	0xbdadf462	-0.08493878
3	0xbdb61caf	-0.0889219
4	0xbe00d843	-0.12582497
5	0x3d2bb2c5	0.041918535
6	0x3d944689	0.07240016
7	0x3d5015d8	0.05080208
8	0x3e6c477e	0.23074147
9	0xbdaea443	-0.08527424
10	0xbe70fc20	-0.23533678
11	0x3c80c172	0.015717242
12	0x3cf202a0	0.029542267
13	0x3c7c7784	0.015409354
14	0x3c2f385f	0.010694592
15	0xbd9f6031	-0.07782019
16	0x3e04bfdc	0.12963814
17	0x3d813e77	0.06310742
18	0xbc9b48a2	-0.018955532
19	0x3e0d5b60	0.13804388
20	0x3e4a1ad9	0.19736804
21	0xbc48be8c	-0.012252461
22	0x3e2caa6a	0.16861883
23	0xbd8f0fa4	-0.06985405
24	0x3cba3f5b	0.022735288
25	0xbd1ef0e0	-0.038803935
26	0xbd29383e	-0.041313402
27	0xbd82d020	-0.06387353
28	0xbdb82569	-0.089915104
29	0x3cb9e52a	0.022692282
30	0x3cb84b15	0.02249674
31	0x3e30d1e2	0.17267564
32	0x3d5487da	0.05188737
33	0xbdfca5fe	-0.12336348
34	0xbd77e884	-0.06052448
35	0xbcf69194	-0.030098714
36	0xbe5fe36b	-0.21864097
37	0xbe1dd620	-0.15413713
38	0xbd8f9610	-0.07011044
39	0xbdaaaec3	-0.083341144
40	0x3e521f41	0.20519735
41	0x3d4a2d92	0.049359865
42	0x3d19315d	0.037400592
43	0x3b398839	0.0028309955
44	0x3cd14685	0.025546322
45	0xb9deb133	-0.00042475163
46	0xbda1b54c	-0.07895908
47	0xbd33b083	-0.043869507
48	0xbda78093	-0.081788205
49	0xbe26f314	-0.16303664
50	0x3d9fd923	0.078050874
51	0x3d1ccb9c	0.038280115
52	0x3d80ec52	0.062950745
53	0xbd587928	-0.05284992
54	0x3ca8f89c	0.020626359
55	0x3dd21e8f	0.10259735
56	0xbd668e8c	-0.056288287
57	0xbcef31ac	-0.02919849
58	0xbd23db65	-0.040004153
59	0x3d2137d3	0.03935988
60	0xbd713883	-0.058891784
61	0xbd36aef0	-0.044600427
62	0x3e0878fb	0.133274
63	0xbdbf5384	-0.09342101
64	0xbdbface1	-0.09359146
65	0xbd27c06f	-0.040955003
66	0xbccee1a3	-0.025254076
67	0x3e340574	0.17580205
68	0xbc925ede	-0.017867502
69	0x3db3e9b9	0.087848134
70	0xbd7454f2	-0.059651323
71	0xbbbfed4f	-0.005857147
72	0xbd852b99	-0.06502456
73	0xbc0a4cfc	-0.008441206
74	0xbe45e8dd	-0.19327112
75	0xbe0dc921	-0.13846256
76	0x3c9dcc5d	0.019262487
77	0x3d66a117	0.05630597
78	0x3e49b361	0.19697334
79	0xbcfe250d	-0.031023527
80	0xbcf11093	-0.029426849
81	0xbdb34cbd	-0.08754871
82	0xbdfe5c36	-0.124199316
83	0xbcd273bc	-0.025689952
84	0xbc0ee8a9	-0.008722463
85	0xbc0e4444	-0.008683268
86	0x3df91ce6	0.12163715
87	0xbd018fe2	-0.031631358
88	0xbd380600	-0.044927597
89	0xbce7a23d	-0.028275603
90	0xbe3bc209	-0.18335737
91	0xbda8ec97	-0.08248251
92	0xbe15cda6	-0.1462923
93	0xbbc5d016	-0.0060367687
94	0x3e051e8b	0.12999932
95	0xbe5c4216	-0.21509585
96	0x3e37a004	0.17932135
97	0x3cffa5a8	0.03120692
98	0x3c55ee1c	0.013057258
99	0x3cc7808e	0.024353292
100	0xbde2b839	-0.11070294
101	0xbe0df3af	-0.13862489
102	0x3d69bcdd	0.05706488
103	0x3d013ff2	0.031555124
104	0xbd23c414	-0.039981917
105	0x3e44cd8c	0.19219035
106	0xbdb6b3e6	-0.08921032
107	0x3e82d3fa	0.2555235
108	0xbd3e2ce0	-0.046429515
109	0x3d30f0e4	0.04319848
110	0x3d1be3a2	0.038058884
111	0xbd545a2b	-0.051843803
112	0xbd76616f	-0.060151514
113	0x3c1b6e27	0.009486712
114	0x3e597585	0.21236236
115	0x3d039f3e	0.032134287
116	0xbd204fab	-0.039138477
117	0x3e0eeefb	0.13958351
118	0xbd5a7d62	-0.05334223
119	0x3cae59d7	0.021283073
120	0xbdb14bac	-0.086570114
121	0x3d83271e	0.064039454
122	0xbdb9bcbc	-0.09069201
123	0x3edb19be	0.42793077
124	0x3d8abc3b	0.06774183
125	0x3cfbb4ea	0.030725915
126	0xbd7d515c	-0.06184517
127	0xbddb6aaf	-0.10713708
128	0x3dd1336c	0.10214886
129	0x3dab6593	0.08368983
130	0xbc7bf42b	-0.015378038
131	0x3d25cb30	0.040476978
132	0xbdc96c6f	-0.09835135
133	0x3e01f5ec	0.12691468
134	0x3ea4d3af	0.32192752
135	0xbe53f15e	-0.20697543
136	0xbdb89cae	-0.09014259
137	0xbe14be59	-0.14525737
138	0xbdb6d7eb	-0.08927902
139	0xba21e467	-0.0006175697
140	0x3de76238	0.112980306
141	0xbd7a9c36	-0.06118413
142	0xbe3aca75	-0.18241294
143	0xbc80f808	-0.01574327
144	0xbd8503eb	-0.06494888
145	0x3dce25e6	0.10065822
146	0xbdc4fe3e	-0.09618805
147	0xbd1dd3c4	-0.038532034
148	0xbdbf846e	-0.09351431
149	0xbd92a4f8	-0.071603715
150	0xbd150a2e	-0.03638666
151	0xbdfab60d	-0.12241755
152	0xbd4a8a36	-0.049448214
153	0xbdabadeb	-0.083827816
154	0xbe5d63eb	-0.21620147
155	0x3ea11677	0.31462452
156	0xbdcc95f8	-0.09989542
157	0x3cdc4874	0.026890017
158	0xbe95a4f1	-0.29227403
159	0xbd6186a2	-0.055060036
160	0xbc0697c2	-0.008214893
161	0xbddad9cb	-0.10686072
162	0x3e393d38	0.1808976
163	0xbe57d063	-0.21075587
164	0x3e341c32	0.1758888
165	0xbde81d60	-0.11333728
166	0x3c9d06f5	0.019168356
167	0x3d1041ee	0.035219125
168	0xbd05464d	-0.032537747
169	0xbe1fa7b7	-0.15591322
170	0xbde49442	-0.111610904
171	0xbe4852ce	-0.19562837
172	0xbe03e626	-0.12880763
173	0x3b0ddddb	0.0021647129
174	0x3dbe5332	0.09293212
175	0xbe559f0f	-0.20861457
176	0xbd803751	-0.06260551
177	0xbd33fdf5	-0.043943364
178	0x3d0b0be4	0.033946887
179	0x3df294ef	0.11844813
180	0x3d85d895	0.0653545
181	0xbdccaca7	-0.09993868
182	0x3dfe52b8	0.12418121
183	0xbd3a17a9	-0.04543272
184	0xbd0b8017	-0.034057703
185	0x3e0c12b3	0.13679008
186	0xbd7474b7	-0.05968162
187	0xbd8ef24b	-0.069798075
188	0x3c0904f5	0.008362998
189	0xbe3ad5e3	-0.18245654
190	0x3db00a90	0.08595765
191	0x3dc23ddb	0.09484454
192	0x3d80071f	0.06251358
193	0xbcdce2ac	-0.026963554
194	0x3db70a6f	0.08937537
195	0x3da6af89	0.081389494
196	0x3e1b81ea	0.15186277
197	0x3e00923c	0.12555784
198	0xbe256987	-0.16153537
199	0x3d45660d	0.048193026
200	0xbd798c6f	-0.060924944
201	0x3d569d8f	0.052396353
202	0xbc90102d	-0.017585838
203	0xbc5e3d26	-0.013564384
204	0xbe624692	-0.22097233
205	0x3e3cb89e	0.18429801
206	0x3cc57cee	0.024107423
207	0x3dff30cf	0.124604814
208	0xbd33b500	-0.043873787
209	0xbd7883d2	-0.06067259
210	0x3e1c11e5	0.15241201
211	0x3e6cb396	0.23115382
212	0xbe14158e	-0.14461347
213	0xbcf85a6f	-0.03031656
214	0xbd783fde	-0.060607783
215	0x3e15ec35	0.14640887
216	0xbd381455	-0.044941265
217	0x3d831391	0.06400216
218	0x3dcb4091	0.099244244
219	0xbcc58b4c	-0.024114273
220	0xbc7c9b97	-0.015417955
221	0xbc98c1f7	-0.018647177
222	0xbca4bc31	-0.020109268
223	0x3c8a5f45	0.016891131
224	0xbcb321e5	-0.021866748
225	0x3d866315	0.06561867
226	0xbdbd8207	-0.092533164
227	0xbd7d95da	-0.061910488
228	0x3ccc931f	0.024972497
229	0x3d16e40b	0.036838572
230	0x3dc1d3f5	0.09464256
231	0x3e0bb56f	0.1364343
232	0xbd6406c1	-0.055670504
233	0xbe249a89	-0.16074575
234	0x3daeec2e	0.085411415
235	0xbe552125	-0.20813425
236	0xbcf2199d	-0.029553229
237	0xbeaee584	-0.34159482
238	0x3d529bdb	0.051418167
239	0xbda9d941	-0.08293391
240	0xbe18e453	-0.14930849
241	0xbdd96b47	-0.10616165
242	0xbd2b7c65	-0.04186668
243	0xbdb9e723	-0.09077289
244	0xbe043ca0	-0.12913752
245	0x3c83407b	0.016021958
246	0x3df7f1fb	0.12106701
247	0x3e42342a	0.18965212
248	0x3d4a681c	0.049415693
249	0xbd8bbe00	-0.06823349
250	0x3d82bf0f	0.06384098
251	0xbd99c1d0	-0.0750767
252	0xbe5245ec	-0.20534486
253	0x3c327492	0.01089205
254	0xbd8c5013	-0.068512104
255	0x3e2756c3	0.1634169

layer1.0.bn2.weight f4 [16]
0	0x3d1d6e58	0.03843531
1	0x3c9b6c0f	0.018972425
2	0xbd5ea156	-0.05435308
3	0x3d6370e9	0.0555276
4	0x3d93221a	0.07184239
5	0x3d710caf	0.058849987
6	0x3cf4934e	0.029855397
7	0x3d61107b	0.054947358
8	0x3d6fcec3	0.058546793
9	0xbd5f2cc2	-0.054486044
10	0x3cd5f6d8	0.02611868
11	0xbcfffb37	-0.031247718
12	0x3d016cab	0.031597774
13	0xbd2beb09	-0.041972194
14	0x3980c87c	0.00024563435
15	0x3d2a05d1	0.041509453

layer1.0.bn2.bias f4 [16]
0	0x3c76cde6	0.015063738
1	0x3ca24548	0.019808426
2	0x3cab2888	0.02089335
3	0x3cb4fde9	0.02209373
4	0x3c40f581	0.011777283
5	0x3d2a6707	0.04160216
6	0xbbd3bff7	-0.006462093
7	0x3c8e2d24	0.01735551
8	0xbc2bcf58	-0.010486446
9	0x3d1751f2	0.036943384
10	0x3ae31ccd	0.0017327309
11	0xbb4af758	-0.0030970182
12	0xbbac9448	-0.0052667
13	0x3cf4e084	0.029892214
14	0x3c2279bb	0.009916718
15	0x3c52accc	0.012858581

layer1.0.bn2.running_mean f4 [16]
0	0xbe53afa7	-0.20672475
1	0xbf09c849	-0.53821236
2	0xbdf85ad3	-0.12126698
3	0x3eed07e3	0.4629508
4	0x3ea45910	0.320992
5	0x3c9ecf48	0.019385949
6	0xbf259a0c	-0.6468818
7	0x3cfcc206	0.030854236
8	0x3f469350	0.7756853
9	0x3e77f82f	0.24215768
10	0x3fb6ddad	1.42864
11	0x3f308e06	0.6896671
12	0x3e1a940a	0.15095535
13	0x3ea1faf9	0.3163679
14	0xbf19f037	-0.60132164
15	0xbf0f02a5	-0.5586341

layer1.0.bn2.running_var f4 [16]
0	0x3edcdc60	0.43136883
1	0x3f4ee569	0.808188
2	0x3f444564	0.7666838
3	0x3f2fd1f7	0.68679756
4	0x3f199462	0.5999204
5	0x3f099e82	0.5375749
6	0x3f218613	0.63095206
7	0x3ecceab6	0.4002282
8	0x3f9dd157	1.232951
9	0x3f1a0d13	0.601762
10	0x3f35fb41	0.7108651
11	0x40131e3e	2.2987208
12	0x3ee71d32	0.45139462
13	0x3fb9913c	1.4497447
14	0x3f1be297	0.60892624
15	0x3f2167aa	0.63048804

layer1.1.conv1.weight f4 [16, 16, 3, 3]
0	0x3dd5acbe	0.104333386
1	0x3d2143a3	0.039371144
2	0x3e426d7b	0.18987076
3	0x3d98555a	0.074381545
4	0x3d50e4df	0.05099952
5	0xbe1dec5e	-0.15422198
6	0xbdb03c9e	-0.08605312
7	0xbc83d78b	-0.01609399
8	0x3e7c7330	0.24653316
9	0x3e647f36	0.22314152
10	0x3d30f74a	0.043204583
11	0x3d8ea8eb	0.06965812
12	0xbb04f342	-0.0020286595
13	0xbd66e5b5	-0.05637141
14	0xbd207d3d	-0.039181937
15	0x3e730821	0.2373357
16	0x3e5a5c40	0.21324253
17	0xbe0718d9	-0.13193072
18	0x3d929eed	0.07159219
19	0xbc97f5f2	-0.018549893
20	0x3e4ad191	0.19806506
21	0x3df34009	0.11877448
22	0xbdb44518	-0.08802241
23	0xbd5c8d85	-0.0538459
24	0x3cb55bd2	0.02213851
25	0x3dd268c7	0.10273891
26	0x3d7d8417	0.06189355
27	0xbdc382ff	-0.0954647
28	0xbe3214a7	-0.1739069
29	0xbdee5561	-0.116373785
30	0xbd541d97	-0.05178603
31	0xbe0fc161	-0.14038612
32	0x3e1fb4d7	0.15596329
33	0xbdc789fd	-0.09743116
34	0xbe0489bd	-0.12943168
35	0xbcb56229	-0.022141533
36	0xbd44a45b	-0.048008304
37	0xbe635e11	-0.22203852
38	0xbcd7a1d5	-0.026322285
39	0x3dd9618d	0.106143095
40	0xbdaa2938	-0.08308643
41	0xbd321212	-0.043474264
42	0xbd49c839	-0.049263213
43	0xbd79dd5c	-0.06100212
44	0xbcd0cab7	-0.025487287
45	0x3dd16d5f	0.10225939
46	0x3d5bb7ab	0.053641956
47	0xbb01c08a	-0.00197986
48	0x3c601c05	0.013678555
49	0x3e71e140	0.23621082
50	0x3ddc62d1	0.10761035
51	0x3dfade63	0.12249448
52	0x3c0c7752	0.00857337
53	0xbdd32e39	-0.10311551
54	0xbd8dcf21	-0.06924272
55	0x3c10d882	0.008840682
56	0x3e4c9303	0.19977956
57	0xbe439d04	-0.19102865
58	0xbc173af4	-0.009230364
59	0x3d9dda79	0.07707686
60	0xbd62fc9e	-0.055416696
61	0x3d94de49	0.0726896
62	0xbcda5466	-0.026651572
63	0x3df668b6	0.12031691
64	0x3d4f5bee	0.05062478
65	0x3cbb30e6	0.022850465
66	0x3d6f49f8	0.05842015
67	0xbd05b296	-0.032641016
68	0xbdbb3595	-0.09141079
69	0x3c080a26	0.008303201
70	0x3c9a25d1	0.01881686
71	0x3cef7abe	0.029233333
72	0x3e3e0b1b	0.18558924
73	0xbc725d1d	-0.014792708
74	0x3d70ee6a	0.05882112
75	0x3e4f077b	0.20217697
76	0xbe639d53	-0.22227983
77	0x3db5efba	0.08883615
78	0xbd95a016	-0.073059246
79	0x3df98b36	0.121847555
80	0x3dad75d8	0.084697425
81	0x3d64ec22	0.055889256
82	0xbcba284f	-0.022724299
83	0xbe17ebcd	-0.14836045
84	0x3d075cb0	0.033047378
85	0xbe23dfbb	-0.16003315
86	0xbd8eec48	-0.06978661
87	0xbd1bb238	-0.03801176
88	0xbdd558fd	-0.10417364
89	0xbd5cdee9	-0.05392352
90	0xbbfb556a	-0.0076700943
91	0x3dc9395f	0.09825396
92	0x3e19784b	0.14987294
93	0xbd13f9c1	-0.036126856
94	0x3dd9542e	0.10611759
95	0xbde67d2d	-0.11254344
96	0xbe0b7821	-0.13620044
97	0xbd7dd62a	-0.06197182
98	0xbe776e34	-0.24163133
99	0xbe4baa6d	-0.19889231
100	0xbe7162d5	-0.23572858
101	0x3d01571e	0.031577222
102	0xbcd5f882	-0.026119474
103	0x3e2b1bc4	0.1670981
104	0xbdb07687	-0.08616357
105	0xbd0431d7	-0.032274093
106	0xbe5cae11	-0.21550776
107	0xbdc5aa79	-0.09651656
108	0x3d94680f	0.0724641
109	0x3d99dfdf	0.07513403
110	0xbd0bcd39	-0.034131262
111	0x3e59e1f3	0.21277599
112	0x3e3b18fc	0.1827125
113	0xbe39c2f9	-0.18140782
114	0x3d9ea905	0.07747082
115	0xbaf5a624	-0.001874153
116	0xbd82c70f	-0.06385624
117	0xbea79198	-0.32728267
118	0x3caa2cfb	0.020773401
119	0x3d00dc07	0.031459834
120	0x3e672afc	0.22574991
121	0x3dc5b264	0.09653166
122	0x3e31350c	0.17305392
123	0x3e6e84b5	0.23292811
124	0xbdc64060	-0.09680247
125	0x3c8bffaf	0.017089693
126	0xbd35bdd0	-0.044370472
127	0xbdf0b7dd	-0.11753819
128	0x3e06bb4f	0.1315739
129	0xbd418343	-0.04724432
130	0xbb61acb1	-0.0034435207
131	0xbe4bfa2b	-0.1991965
132	0x3e0b0946	0.13577756
133	0x3def8fc4	0.11697343
134	0xbbd6f42e	-0.00655987
135	0x3d0d274c	0.034461305
136	0xbe876507	-0.26444265
137	0xbd1c5243	-0.03816439
138	0xbd08dc87	-0.033413436
139	0x3d990f1f	0.07473587
140	0x3e27a83d	0.16372772
141	0x3da4260a	0.08015068
142	0x3d0c841f	0.034305688
143	0x3d87a9da	0.066241935
144	0x3e3d461f	0.1848378
145	0xbd809103	-0.06277659
146	0xbd378cf2	-0.04481215
147	0x3e702416	0.23451266
148	0x3dd24a74	0.10268107
149	0x3d472919	0.04862318
150	0x3e5ee575	0.21767218
151	0x3def1e01	0.11675645
152	0xbc98cc36	-0.018652063
153	0xbc51307b	-0.012767906
154	0x3db91543	0.090372585
155	0x3db26bcf	0.08711969
156	0xbd80f708	-0.062971175
157	0xbe3de4d3	-0.18544321
158	0x3debd8df	0.11515974
159	0xbdbe1a53	-0.09282365
160	0x3d32011a	0.04345808
161	0x3db0472b	0.08607324
162	0x3e7b7f85	0.24560364
163	0x3ba1bddc	0.004935963
164	0xbcee3bdf	-0.029081283
165	0xbd7993d2	-0.060931988
166	0x3e61ba80	0.220438
167	0xbb3caa63	-0.0028788082
168	0x3dd9809e	0.10620235
169	0xbd178140	-0.036988497
170	0x3e0422a7	0.12903844
171	0x3d4e575b	0.050376277
172	0x3d6fe2ce	0.058565907
173	0x3c6406c8	0.013917632
174	0x3d0705b2	0.032964416
175	0xbdd54b8e	-0.104148015
176	0x3e0a2165	0.13489302
177	0x3cb506a9	0.022097902
178	0xbe1c83e6	-0.1528469
179	0x3cd5dffc	0.02610778
180	0x3c71fa0d	0.014769089
181	0xbd92e23b	-0.07172056
182	0x3cb21ef8	0.021743283
183	0x3cc69610	0.024241477
184	0x3d1ff35c	0.039050445
185	0xbdca174a	-0.09867723
186	0x3da57bfc	0.08080289
187	0x3d9e8ae5	0.07741336
188	0x3e063382	0.13105586
189	0xbe0ba383	-0.13636594
190	0xbc565d42	-0.013083758
191	0xbde9a869	-0.11409075
192	0xbd199b9b	-0.037501913
193	0x3dd73283	0.10507681
194	0x3d5ed15e	0.054398887
195	0xbddbba7e	-0.1072893
196	0xbdb69418	-0.089149654
197	0xbd291616	-0.04128083
198	0xbda821bc	-0.08209559
199	0x3d8b545d	0.068032004
200	0xbdd9339a	-0.10605545
201	0xbda21c30	-0.079155326
202	0x3df5191c	0.1196768
203	0x3d2df975	0.04247423
204	0xbdf890be	-0.121369824
205	0x3dfe7fa5	0.1242669
206	0x3d3cbf96	0.046081148
207	0x3cabb3ca	0.020959754
208	0xbb417a3b	-0.0029522318
209	0xbd95b912	-0.0731069
210	0xbcf36c76	-0.029714804
211	0x3d2d2145	0.042268056
212	0xbea44b7d	-0.32088843
213	0x3e6fa256	0.2340177
214	0x3e1d04c2	0.15333846
215	0x3dbb6293	0.09149661
216	0x3c5f5f5e	0.013633577
217	0xbe5f2eef	-0.21795247
218	0xbe699b40	-0.2281313
219	0xbe1732d4	-0.14765483
220	0xbdabc14f	-0.0838648
221	0x3dd771a3	0.10519721
222	0x3ba1d703	0.0049389615
223	0x3d5fbf58	0.05462584
224	0x3c215675	0.009847273
225	0xbd5eb3d3	-0.054370712
226	0xbdd1dad5	-0.10246817
227	0xbe86874d	-0.262751
228	0x3dcb8c12	0.09938826
229	0xbcf46326	-0.029832434
230	0xbdea7be7	-0.11449414
231	0x3d0244e7	0.03180399
232	0xbc597610	-0.013272777
233	0x3ca3bc7f	0.019987343
234	0xb9bb7921	-0.00035757668
235	0x3e29bdf9	0.16576375
236	0xbdb110ca	-0.086457804
237	0xbbca5528	-0.006174702
238	0xbbcb47c1	-0.006203622
239	0x3de6a5f4	0.11262122
240	0xbd199f27	-0.037505295
241	0xbcf4acb2	-0.029867504
242	0x3c1a9430	0.009434745
243	0xbe53b8db	-0.20675986
244	0x3e0b75fc	0.13619226
245	0xbe085fdc	-0.13317817
246	0x3c842e88	0.01613547
247	0xbdc189d8	-0.0945012
248	0xbd17222b	-0.03689782
249	0x3e03e977	0.12882029
250	0x3d9e92fe	0.0774288
251	0x3c790e64	0.015201185
252	0x3bf6082b	0.007508298
253	0xbe09314a	-0.13397709
254	0xbbd5d379	-0.0065254536
255	0xbe6d0416	-0.2314609

layer1.1.bn1.weight f4 [16]
0	0x3f80373c	1.0016856
1	0x3f776236	0.96634233
2	0x3f7f76db	0.99790734
3	0x3f815c2a	1.0106251
4	0x3f820686	1.0158241
5	0x3f807cd2	1.0038092
6	0x3f833c97	1.0252866
7	0x3f77c6a8	0.967875
8	0x3f7be417	0.9839491
9	0x3f78f3d0	0.9724703
10	0x3f7af623	0.98031825
11	0x3f84e046	1.0380943
12	0x3f82084d	1.0158783
13	0x3f81c567	1.0138367
14	0x3f7c741e	0.9861468
15	0x3f7a62e4	0.97807145

layer1.1.bn1.bias f4 [16]
0	0x3cb3933f	0.021920798
1	0xbc79b2b2	-0.015240358
2	0x3c549bdb	0.012976612
3	0x3cb47694	0.022029199
4	0x3ccc1ba3	0.024915522
5	0xbab0cc73	-0.0013488665
6	0xbc014e50	-0.007892206
7	0xbc047ff2	-0.008087145
8	0x3b26c19c	0.002544499
9	0x3b555a33	0.0032554984
10	0xbc6eff9c	-0.014587309
11	0x3d63c4e9	0.05560771
12	0x3cab9641	0.02094567
13	0x3a6ca309	0.00090269797
14	0x3c81f7de	0.015865263
15	0xbc800be8	-0.015630677

layer1.1.bn1.running_mean f4 [16]
0	0x3ef3d609	0.47624233
1	0xbdaf6d18	-0.0856573
2	0xbeac4c52	-0.33651978
3	0xbf42fc72	-0.7616645
4	0xbf025d6f	-0.5092382
5	0x3dcacf36	0.099028036
6	0x3e014b14	0.12626296
7	0xbf13ce6f	-0.5773687
8	0x3ddcc3f9	0.10779566
9	0xbf33bd3e	-0.70210636
10	0xbe86c7b5	-0.2632424
11	0xbd5c3157	-0.05375799
12	0x3f9e3f19	1.2363006
13	0x3f9bffa3	1.2187389
14	0x3fbf492f	1.4944209
15	0x3e88b612	0.2670141

layer1.1.bn1.running_var f4 [16]
0	0x3fc7f938	1.562293
1	0x3f1cec33	0.6129791
2	0x3f24d85a	0.64392626
3	0x3f0bc47d	0.5459669
4	0x3edc18cc	0.4298767
5	0x3f0b9aa8	0.5453286
6	0x3f6d74e7	0.92756504
7	0x3fa6155b	1.2975267
8	0x3fb0afb2	1.3803618
9	0x3f851477	1.039687
10	0x3f001260	0.5002804
11	0x3f930e62	1.1488764
12	0x3fd0cf07	1.631318
13	0x3f4d0adf	0.8009471
14	0x3ecbc2a8	0.39796948
15	0x3ee79d77	0.45237324

layer1.1.conv2.weight f4 [16, 16, 3, 3]
0	0xbc6ffcb6	-0.014647653
1	0x3d253380	0.040332317
2	0x3bbfc1ac	0.005851945
3	0x3da112eb	0.078649364
4	0x3e333fa2	0.17504743
5	0xbbc498e8	-0.005999673
6	0x3c76a963	0.015055033
7	0xbd9fb4d0	-0.07798159
8	0xbb1847c9	-0.0023236147
9	0x3d85dff9	0.0653686
10	0x3d5d7897	0.05407008
11	0xbe188799	-0.14895476
12	0x3d83c911	0.06434835
13	0xbd242f3e	-0.040084116
14	0x3db6649d	0.08905909
15	0xbe2b73c9	-0.16743387
16	0xbddc867d	-0.10767839
17	0x3ce128ab	0.027485212
18	0x3df5fad8	0.12010735
19	0xbe775d2c	-0.24156636
20	0x3da3bf9d	0.07995532
21	0xbd524112	-0.051331587
22	0x3cc96583	0.024584537
23	0x3df33763	0.118757986
24	0xbdd1b4a0	-0.102395296
25	0x3e61c7d1	0.2204888
26	0xbd4cc92c	-0.04999654
27	0xbd270529	-0.040776405
28	0xbe68951b	-0.22713129
29	0xbde93b5c	-0.11388275
30	0xbe3777c5	-0.17916782
31	0x3d455c12	0.04818351
32	0x3e1be441	0.1522379
33	0x3dadf835	0.08494607
34	0xbcf4fdf0	-0.029906243
35	0xbe55888a	-0.20852867
36	0xbdc19cb2	-0.094537154
37	0xbe092e6a	-0.13396612
38	0x3dee980a	0.11650093
39	0xbd798555	-0.06091817
40	0x3dc3302a	0.09530671
41	0x3ce538dc	0.027981214
42	0xbe436241	-0.1908045
43	0xbd86bcac	-0.06578955
44	0xbe0a3130	-0.13495326
45	0xbca1d3ad	-0.019754255
46	0x3de1b529	0.11020882
47	0xbe5cab53	-0.2154973
48	0x3c7c53db	0.015400852
49	0xbe5e1553	-0.21687822
50	0xbbe25333	-0.006906891
51	0x3e2d5cb8	0.169299
52	0xbb9e53b9	-0.004831758
53	0x3cf9194b	0.030407568
54	0xbdf1591a	-0.11784573
55	0xbe301842	-0.17196754
56	0x3d468fa2	0.048476823
57	0xbc886cff	-0.016653536
58	0x3c973b86	0.018461
59	0xbd82a710	-0.06379521
60	0x3c9e16ef	0.019298045
61	0xbde8bdee	-0.11364351
62	0xbd136139	-0.03598139
63	0x3e78b60b	0.24288194
64	0xbdd4392c	-0.10362467
65	0xbe0bd2b9	-0.13654603
66	0x3d01ca7f	0.031687256
67	0x3c70a175	0.014686932
68	0x3d35b446	0.044361375
69	0xbd4ff386	-0.05076935
70	0xbdbc9f57	-0.09210079
71	0xba9827ee	-0.001160858
72	0xbc950562	-0.018191043
73	0x3cd0ff46	0.025512349
74	0x3db7f87e	0.08982943
75	0xbe4eb208	-0.20185101
76	0x3c08a1b3	0.008339333
77	0x3dab1607	0.08353811
78	0xbe4707c1	-0.19436552
79	0x3cf8169e	0.030284222
80	0xbbe0847f	-0.0068517323
81	0x3e0ad91a	0.1355938
82	0xbdbb4ed9	-0.09145898
83	0xbd664aa4	-0.056223527
84	0x3da6ac1e	0.081382975
85	0xbd4206ef	-0.047369894
86	0xbd3b78cc	-0.045769498
87	0xbe75e420	-0.24012804
88	0xbdfca3e5	-0.12335948
89	0xbd6b060c	-0.057378814
90	0xbdaa4fe0	-0.08316016
91	0x3ddc9252	0.10770096
92	0x3d0e259e	0.034703843
93	0x3de6f5d4	0.11277357
94	0x3dbdce3d	0.092678525
95	0x3e2599ae	0.16171905
96	0xbd89a3d6	-0.06720702
97	0xbd984d2f	-0.074365966
98	0xbc80a0ac	-0.015701614
99	0xbe95b368	-0.2923844
100	0xbd627fb2	-0.05529756
101	0xbe117e06	-0.1420823
102	0xbdeb7644	-0.11497167
103	0x3d682a1e	0.05668079
104	0xbcb79307	-0.022408975
105	0xbe2af047	-0.16693221
106	0x3d4ff055	0.050766308
107	0xbd70d3ca	-0.058795728
108	0xbd199d91	-0.037503783
109	0x3e00099a	0.12503663
110	0xbe776d93	-0.24162893
111	0xbe7ac2fb	-0.24488442
112	0xbe4e4487	-0.20143329
113	0xbcc113e6	-0.023569059
114	0xbe06c66c	-0.1316163
115	0xbd990114	-0.07470909
116	0x3e9e3ac7	0.3090422
117	0xbc4fdbb8	-0.012686662
118	0xbd0f9251	-0.035051648
119	0xbe59102b	-0.21197574
120	0x3d3b83fb	0.045780163
121	0xbcd9d132	-0.02658901
122	0x3cd4d099	0.025978373
123	0xbe207f9b	-0.15673678
124	0xbda129c0	-0.07869291
125	0xbd8fdca9	-0.070245095
126	0xbd46eb04	-0.048563972
127	0xbbfcedf7	-0.0077187973
128	0xbc2fda56	-0.010733208
129	0x3d095f5f	0.03353822
130	0x3b641fa3	0.0034808896
131	0xbcc27645	-0.023738036
132	0x3e68ce3c	0.22734922
133	0x3e279000	0.16363525
134	0x3cdab80f	0.026699094
135	0x3dd6b021	0.10482813
136	0x3e836cf2	0.25669056
137	0x3d490c8c	0.04908423
138	0x3daa06a7	0.0830205
139	0xbe4ec376	-0.2019175
140	0x3e3fcb21	0.18729831
141	0x3d61cf94	0.055129603
142	0xbc876aef	-0.016530482
143	0x3e317949	0.17331423
144	0xbd632252	-0.055452652
145	0xbdc0764f	-0.093975656
146	0xbdaa0d93	-0.0830337
147	0xbc372292	-0.011177676
148	0x3d28d757	0.04122099
149	0xbc885367	-0.016641332
150	0xbd18890e	-0.03724008
151	0xbe079b26	-0.13242778
152	0x3e60aa32	0.21939924
153	0xbddb5398	-0.107093036
154	0xbe059ea6	-0.13048801
155	0x3cb38e09	0.021918314
156	0x3e40cad2	0.1882737
157	0x3e32503b	0.17413418
158	0xbc90c884	-0.017673738
159	0x3dd0fe90	0.10204804
160	0x3c53d18f	0.012928381
161	0x3e3081d6	0.17237028
162	0xbdc1ba2d	-0.09459338
163	0x3dc2c6c1	0.095105655
164	0x3e24b23f	0.1608362
165	0xbe45d60f	-0.19319938
166	0xbd704c10	-0.05866629
167	0x3b163937	0.0022922286
168	0x3e136a87	0.14396106
169	0x3dae333f	0.08505868
170	0xbe03cdb9	-0.12871446
171	0xbe83d6a4	-0.25749695
172	0x3d61074f	0.05493861
173	0xbe3bc097	-0.18335186
174	0xbb3f53c2	-0.002919421
175	0x3e0298e4	0.12753636
176	0x3d7dfca1	0.062008504
177	0x3e027953	0.12741594
178	0xbdd71bd2	-0.10503353
179	0xba327907	-0.00068081956
180	0xbdbfe557	-0.09369915
181	0xbe7f77af	-0.24948
182	0xbb88e3cd	-0.0041775466
183	0xbd4b002c	-0.04956071
184	0x3c3231c8	0.010876127
185	0xbd1e8cab	-0.03870837
186	0xbdb01eb7	-0.085996084
187	0xbe781623	-0.24227194
188	0xbe154cc9	-0.14580072
189	0x3da693ac	0.08133635
190	0xbc061033	-0.008182573
191	0x3c89e134	0.016831018
192	0xbd783709	-0.06059936
193	0xbd91c4af	-0.071175925
194	0x3b2ebdee	0.00266635
195	0x3d5fdd89	0.05465463
196	0xbe63c1be	-0.22241876
197	0xbd50bebc	-0.05096315
198	0x3e043620	0.12911272
199	0xbc137f19	-0.00900247
200	0x3d655102	0.05598546
201	0xbe04b122	-0.12958196
202	0xbdbd639b	-0.09247514
203	0xbebbd3c3	-0.36685
204	0x3d553f88	0.05206254
205	0xbe4f0c12	-0.20219448
206	0xbdcb8529	-0.09937508
207	0xbdadcdc4	-0.08486512
208	0x3cd04735	0.02542458
209	0xbd38c044	-0.045105234
210	0xbe029376	-0.12751564
211	0x3d02872b	0.031867187
212	0xbc58b11d	-0.013225821
213	0xbe4aa7a2	-0.1979051
214	0xbdd84e86	-0.10561852
215	0xbc9062cb	-0.017625233
216	0x3dc43cb7	0.09581893
217	0x3de68285	0.112553634
218	0xbdbdd0c8	-0.092683375
219	0x3dd1fa14	0.10252777
220	0x3e79ca25	0.24393518
221	0xbd315d1e	-0.043301694
222	0xbd99f1be	-0.07516812
223	0xbe65678e	-0.22402784
224	0xbe3bf3d3	-0.1835473
225	0x3eaf14a2	0.3419543
226	0xbdc9df7e	-0.09857081
227	0xbbb2852b	-0.0054480038
228	0x3da6fc62	0.08153607
229	0x3db9b32d	0.09067378
230	0xbd21377c	-0.039359555
231	0xbe323a3e	-0.1740503
232	0x3e46c599	0.19411315
233	0xbc994741	-0.018710734
234	0x3d6b2691	0.057409827
235	0x3da2ab59	0.07942838
236	0x3dc5e89e	0.09663509
237	0x3e75f129	0.24017777
238	0xbcc3cd1a	-0.023901511
239	0xbb0542bb	-0.0020333964
240	0xbd8e8fdd	-0.069610335
241	0x3e8a1ac5	0.2697355
242	0x3dbe05fe	0.09278487
243	0xbda12597	-0.07868498
244	0x3d1b4fec	0.037918016
245	0xbc308fdf	-0.010776489
246	0xbd8efd7c	-0.06981942
247	0x3e48c825	0.19607599
248	0x3dd30605	0.103038825
249	0x3dba670c	0.09101686
250	0xbdeeaba6	-0.11653833
251	0xbc6b8df0	-0.014377102
252	0x3cc8388a	0.024441022
253	0xbe15fe18	-0.1464771
254	0xbdb32574	-0.08747378
255	0x3e0ad963	0.13559489

layer1.1.bn2.weight f4 [16]
0	0x3d4b4317	0.04962453
1	0x3d322ba5	0.043498654
2	0x3d573102	0.052536972
3	0xbd40bf9f	-0.047057744
4	0x3d80a883	0.06282141
5	0x3d5b4371	0.053531114
6	0x3d0783f3	0.03308482
7	0x3cf91076	0.030403357
8	0x3d397433	0.04527683
9	0x3d699f9d	0.057036985
10	0xbc6ce1f8	-0.014458172
11	0xbd5f288d	-0.05448203
12	0xbd0d39a6	-0.034478806
13	0xbd222b9f	-0.03959238
14	0xbcb09653	-0.021556055
15	0x3d473302	0.04863263

layer1.1.bn2.bias f4 [16]
0	0x3c9dab58	0.019246742
1	0x3ca1910d	0.019722486
2	0x3c934bb3	0.017980432
3	0x3ca02ae2	0.019551698
4	0x3c1847b5	0.00929444
5	0x3cd27349	0.025689738
6	0xbc1b4f07	-0.009479291
7	0x3c495297	0.012287757
8	0xbc3a328e	-0.011364592
9	0x3d2654f4	0.04060836
10	0x37024dce	7.766719e-06
11	0xbbb90087	-0.005645815
12	0xbb3838b0	-0.002810996
13	0x3cbfc0bd	0.023407334
14	0x3b31fb61	0.002715789
15	0x3c7d3bdc	0.015456166

layer1.1.bn2.running_mean f4 [16]
0	0xbf739db2	-0.951625
1	0xbf7e01ab	-0.99221295
2	0xbd024115	-0.03180035
3	0xbe7a0de5	-0.24419363
4	0x3ed0ae76	0.40758103
5	0x3e8a82e0	0.27052975
6	0xbd93081d	-0.07179282
7	0x3d784dca	0.06062106
8	0x3e976ab0	0.29573584
9	0xbed91dfe	-0.42405695
10	0x3e968451	0.29397824
11	0x3d00233e	0.03128361
12	0xbd33c4f4	-0.043889
13	0x3f11c059	0.56934124
14	0xbf021cd4	-0.5082524
15	0xbf4d4e95	-0.8019803

layer1.1.bn2.running_var f4 [16]
0	0x3f1ddd39	0.61665684
1	0x3f36b261	0.71365935
2	0x3f9fc3a4	1.248158
3	0x3fc94474	1.5724015
4	0x3f45b74a	0.772328
5	0x3f9f1f96	1.2431514
6	0x3f5134c4	0.8172114
7	0x3f33583c	0.7005651
8	0x3f839713	1.0280479
9	0x3ee2f092	0.44324166
10	0x3f146093	0.5795986
11	0x3f6572c8	0.8962827
12	0x3f073ca3	0.528269
13	0x3f22342c	0.6336086
14	0x3f5154a5	0.8176978
15	0x3ed9a33e	0.42507356

layer2.0.conv1.weight f4 [32, 16, 3, 3]
0	0xbd2c9376	-0.042132817
1	0x3d797fff	0.060913082
2	0xbdee615a	-0.11639662
3	0x3d6c5aba	0.05770371
4	0x3db9cbac	0.090720505
5	0xbe25f72b	-0.16207568
6	0xbcde0387	-0.027101291
7	0x3cc7794f	0.024349837
8	0x3d6d7b3b	0.05797885
9	0x3df83235	0.12118951
10	0xbd371741	-0.04469991
11	0xbdd15060	-0.102204084
12	0xbda23374	-0.0791997
13	0xbcc146f7	-0.023593409
14	0x3e06ed0b	0.13176362
15	0xbdd470b0	-0.10373056
16	0xbd0a149f	-0.033711072
17	0x3e12677a	0.14297286
18	0xbc20d6cd	-0.0098168375
19	0xbd0806e0	-0.03320968
20	0x3df97569	0.12180597
21	0x3d87059a	0.06592865
22	0xbdb19f82	-0.08673002
23	0xbe3c0e32	-0.1836479
24	0xbd472687	-0.048620727
25	0x3bd97fba	0.0066375406
26	0x3d019a3d	0.031641234
27	0x3e473eef	0.19457601
28	0x3d0a16ff	0.033713337
29	0x3da7c485	0.0819178
30	0x3e03b5da	0.1286234
31	0xbca9cdff	-0.02072811
32	0x3d54b67f	0.051931854
33	0x3c9827e3	0.018573707
34	0xbcfda421	-0.030962052
35	0x3da25513	0.07926383
36	0x3e1e6df0	0.15471625
37	0x3bac2517	0.005253445
38	0x3dbcabfe	0.092124924
39	0xbcb47b65	-0.022031495
40	0x3bdc25b3	0.0067183613
41	0x3d0bd411	0.03413779
42	0xbd297032	-0.041366763
43	0x3dee2c1f	0.11629509
44	0xbd563176	-0.052293263
45	0x3d8ad15c	0.067782134
46	0x3cfca129	0.030838566
47	0xbd02f230	-0.03196925
48	0x3d540b72	0.051768728
49	0xbd33553a	-0.04378245
50	0xbdbc733f	-0.09201669
51	0x3dd6161c	0.10453436
52	0xbe18dbde	-0.14927623
53	0x3c4bdfdb	0.012443508
54	0x3c82befa	0.015960205
55	0x3b8fc6e9	0.0043877256
56	0xbd6b5ab7	-0.05745956
57	0xbd1b63c2	-0.037936933
58	0x3b20ac99	0.0024516939
59	0xbb345991	-0.0027519206
60	0xbc72a8fc	-0.014810797
61	0x3cbdd86f	0.023174493
62	0xbe00c06c	-0.12573403
63	0xbdd7aa20	-0.10530496
64	0xbd09c515	-0.033635218
65	0x3be212da	0.00689922
66	0x3cd60515	0.02612547
67	0xbdb0a4e9	-0.08625204
68	0x3c1b0c75	0.009463419
69	0x3d71c687	0.05902722
70	0x3d6717e2	0.05641926
71	0xbe3d4d0d	-0.18486424
72	0xbd101765	-0.03517856
73	0x3d42e49e	0.047581308
74	0x3b462017	0.003023153
75	0xbe01c976	-0.12674507
76	0x3d85fe7c	0.0654268
77	0xbc8fad25	-0.017538616
78	0x3c928486	0.017885458
79	0xbc4fed5f	-0.012690871
80	0xbdf8d028	-0.12149078
81	0x3a73dba9	0.0009302446
82	0x3c2195bc	0.00986236
83	0x3e373169	0.17889942
84	0xbdb982f0	-0.090581775
85	0xbd7cae79	-0.061689828
86	0x3d638233	0.05554409
87	0x3bdee751	0.0068024774
88	0x3d21f359	0.039538715
89	0xbe6e0c0d	-0.23246785
90	0x3c3f1120	0.011661798
91	0xbb1430b7	-0.0022612044
92	0x3dd2ef83	0.102995895
93	0x3ceb35a4	0.028712101
94	0x3cc29f81	0.023757698
95	0xbdbe182e	-0.09281956
96	0xbd02d899	-0.031944845
97	0x3e2f6caa	0.17131296
98	0x3d05ec36	0.03269597
99	0xbd368cbc	-0.04456781
100	0xbdde72c8	-0.108617365
101	0x3d92c8fa	0.071672395
102	0xbba4896d	-0.0050212652
103	0xbd4cc4a3	-0.049992215
104	0x3df264fe	0.11835669
105	0xbc7f5ca1	-0.015586049
106	0xbd18cfc3	-0.037307512
107	0x3d86d384	0.06583312
108	0x3dcd3360	0.10019565
109	0x3c7a5bcb	0.015280674
110	0x3dc6704b	0.09689387
111	0x3d066930	0.03281516
112	0xbd076fb4	-0.033065513
113	0x3d1864a8	0.03720537
114	0xbdfe4360	-0.124151945
115	0xbe2d19f6	-0.16904435
116	0xbd0d9410	-0.03456503
117	0xbc33c8f9	-0.010973209
118	0x3d4e53d6	0.05037292
119	0xbd533c1b	-0.051570993
120	0xbddb7d61	-0.107172735
121	0x3d1e89fe	0.03870582
122	0xbdeaaa46	-0.11458258
123	0x3d550e09	0.052015338
124	0x3d7023fa	0.05862806
125	0xbcb22f77	-0.021751149
126	0xbde9b1f8	-0.11410898
127	0xbd722abe	-0.059122793
128	0x3b7b385e	0.0038333158
129	0x3d81c83c	0.0633702
130	0xbdc52463	-0.09626081
131	0xbe344303	-0.17603688
132	0x3d373020	0.04472363
133	0xbe308a51	-0.17240264
134	0xbcd60a59	-0.026127981
135	0xbd130b13	-0.035899233
136	0xbd73af2b	-0.059493225
137	0x3d0b053e	0.033940546
138	0xba523f1c	-0.0008020268
139	0x3da13ba6	0.07872705
140	0xbd182d6e	-0.0371527
141	0xbd3b002f	-0.045654472
142	0xbdfe245d	-0.124092795
143	0x3dcd7a4a	0.100330904
144	0x3d40d8c1	0.047081713
145	0xbdbbb957	-0.0916621
146	0xbdc7fddd	-0.097652175
147	0x3d58b6ce	0.05290871
148	0x3ced3da6	0.02896006
149	0x3d47106a	0.048599638
150	0x3d68bb77	0.056819405
151	0x3d25bdea	0.04046432
152	0xbe4e198e	-0.20126936
153	0x3dcf473b	0.10121008
154	0xbd5cb3dc	-0.053882465
155	0xbd04e80b	-0.032447856
156	0x3dbaa083	0.091126464
157	0x3d6812f6	0.056658708
158	0x3baedca7	0.0053363624
159	0xbd3118a1	-0.04323638
160	0x3d9d16cc	0.07670364
161	0x3c794799	0.015214824
162	0x3e2ed4ad	0.17073317
163	0x3c1a0750	0.0094011575
164	0xbc91102e	-0.01770791
165	0xbe2a7e53	-0.16649751
166	0xbd8fecd0	-0.0702759
167	0xbc16b1e8	-0.00919769
168	0x3dd3e5e6	0.10346584
169	0xbe084ecf	-0.13311313
170	0x3dd69b0d	0.10478792
171	0xbd389d2d	-0.04507177
172	0xbd99f3eb	-0.07517227
173	0x3bdb889c	0.0066996347
174	0xbd8bbb1f	-0.068228
175	0x3d29070d	0.04126649
176	0x3cfb4582	0.030672792
177	0xbd639406	-0.055561088
178	0x3d83fa36	0.06444208
179	0x3d8456cc	0.06461868
180	0x3d8adfb4	0.06780949
181	0xbd84608f	-0.064637296
182	0x3d305f79	0.0430598
183	0x3d96cda9	0.07363445
184	0x3e2909ee	0.16507694
185	0xbdc46fbd	-0.09591625
186	0xbd11c63e	-0.03558945
187	0xbd992cab	-0.07479223
188	0xbdc5eef5	-0.09664718
189	0xbda22223	-0.07916667
190	0x3d173af9	0.036921475
191	0x3d6b7ef5	0.057494123
192	0xbd6b4547	-0.057439115
193	0x3cc886d7	0.02447836
194	0xbdb8e29f	-0.090275995
195	0x3aefd43f	0.0018297507
196	0x3dba9d5c	0.09112045
197	0xbbc154b9	-0.0058999923
198	0x3d58dd04	0.052945152
199	0xbd081d6f	-0.033231195
200	0xbcbbbb6e	-0.022916522
201	0xbc239f95	-0.009986778
202	0x3d06cddb	0.032911163
203	0x39eb6eb8	0.00044905185
204	0xbdba27d3	-0.09089627
205	0xbded7893	-0.11595263
206	0xbd47ec69	-0.048809443
207	0x3e1ad9d0	0.15122151
208	0xbcefe50c	-0.029284023
209	0xbe08d760	-0.13363409
210	0xbcdb4fd5	-0.026771465
211	0x3d955e3d	0.07293365
212	0xbe39642d	-0.1810462
213	0xbd241710	-0.040061057
214	0x3c3213ec	0.010869008
215	0x3dae4905	0.08510021
216	0x3db5982d	0.08866916
217	0xbe000707	-0.1250268
218	0xbd5da9f9	-0.054117177
219	0x3b995c32	0.00468018
220	0xbd47b134	-0.04875298
221	0xbd835565	-0.06412772
222	0x3c716119	0.014732623
223	0x3d517555	0.051137287
224	0xbdb8ceec	-0.09023842
225	0xbdb98af2	-0.09059705
226	0x3d92750a	0.0715123
227	0xbdc26ff2	-0.09494008
228	0xbe191b0e	-0.14951727
229	0xbd438464	-0.04773368
230	0xbd699931	-0.05703086
231	0xbc5e3e34	-0.013564635
232	0xbd9316c8	-0.071820796
233	0xbe1bab59	-0.15202083
234	0xbdc8cd74	-0.09804812
235	0x3dcba514	0.099435955
236	0x3e011a30	0.12607646
237	0x3ce35307	0.027749551
238	0x3c2878c8	0.010282703
239	0x3deb0b39	0.1147675
240	0x3d11b386	0.035571598
241	0xbe0ba9cc	-0.13638991
242	0xbd354eca	-0.044264592
243	0x3dca4418	0.09876269
244	0xbdd00fdc	-0.10159275
245	0xbd6801bc	-0.05664228
246	0xbca4a744	-0.02009929
247	0x3cf1f38d	0.02953508
248	0x3d9d93d0	0.076942086
249	0x3c0db8ab	0.008649985
250	0x3d426a84	0.047464862
251	0xbce3d0dc	-0.027809553
252	0x3e65fc1d	0.22459455
253	0xbd3d351f	-0.04619324
254	0xbcfc394c	-0.03078904
255	0xbdb649d6	-0.08900802

layer2.0.bn1.weight f4 [32]
0	0x3f83b7a6	1.029042
1	0x3f7d1cfe	0.98872364
2	0x3f851f3c	1.0400157
3	0x3f7b231f	0.98100466
4	0x3f75675f	0.95860857
5	0x3f821241	1.0161821
6	0x3f85e22e	1.045965
7	0x3f83be54	1.0292459
8	0x3f7bd5f3	0.98373336
9	0x3f7ee8e9	0.9957414
10	0x3f7d68e0	0.9898815
11	0x3f800cb5	1.0003878
12	0x3f7b4c2a	0.9816309
13	0x3f7fa352	0.9985858
14	0x3f8523db	1.0401567
15	0x3f7e93f5	0.99444515
16	0x3f7e79ed	0.99404794
17	0x3f81060f	1.0079974
18	0x3f7ebb67	0.99504703
19	0x3f791e25	0.9731162
20	0x3f7eab0b	0.9947974
21	0x3f7e35fe	0.99301136
22	0x3f8224fd	1.0167538
23	0x3f802d67	1.0013856
24	0x3f7c1643	0.9847147
25	0x3f747dba	0.95504344
26	0x3f7ca585	0.9869006
27	0x3f774a66	0.965979
28	0x3f8554c0	1.0416489
29	0x3f71820d	0.94339067
30	0x3f80290c	1.0012527
31	0x3f816014	1.0107446
